unet/unet-segment-master/np_weights/down2.maxpool_conv.1.double_conv.4.weight.npy (npy, 1152 bytes, 1 tensors)

array f4 [256]
00000000: c05c 9b01 b184 b501 c1ad ac01 92aa ba01
00000010: ffcd a301 d9a5 bc01 b6f2 a901 42cc a601
00000020: 074b a181 2588 9c81 6d28 b981 3e74 a881
00000030: 1c13 b381 947a 9901 e3d3 a901 92c5 b201
00000040: 30c0 b281 24a5 b381 883f 9c81 661b a201
00000050: 2fe9 af81 ba7d a881 61e6 a501 f3b0 aa81
00000060: 57a9 a001 9bc7 9c01 2d91 9a01 0b33 b501
00000070: 7efb a601 e051 bd01 3911 9f81 812c 9d01
00000080: 1493 9e01 aaad 9d01 58af a443 d2d2 b001
00000090: b904 aa81 9f22 a801 23d7 a281 1fdd 9d01
000000a0: 3f8e aa81 9f27 b301 fb74 b501 c8ee ad01
000000b0: d945 b281 024c a501 b9ae a281 12aa a101
000000c0: 37fd 9901 5af3 9f01 8e5e a681 a590 a301
000000d0: 30a1 b081 4bad aa01 9620 bd01 0433 a001
000000e0: 766e a901 66e2 b381 1bc4 ab01 3249 a201
000000f0: a21c b201 fd36 b601 bd8e ab01 f4c2 a601
00000100: 5963 af01 5c16 aa01 df64 a281 f561 b601
00000110: 59ba bb01 c1c8 af81 a402 9e01 694e a181
00000120: d35d ba81 f4c0 b301 3d16 b001 082d b701
00000130: e962 9c01 2c0c be01 208f b901 0934 a601
00000140: a022 b501 f97d b201 c87a ba81 467e b781
00000150: fcb1 b301 bbdf a581 8be3 b201 f287 a081
00000160: 88b2 a001 e483 b301 962f a501 5373 a281
00000170: 18c7 bb01 1874 a301 b3cb 6e43 268f af01
00000180: 14da b101 cfe9 a581 802d be01 f506 a801
00000190: 421b 9a01 b01e 9c81 6c34 b001 98c9 b981
000001a0: 679f ae01 22fd ad81 5bb8 a681 dba2 a601
000001b0: 4d22 ae01 b28e b901 b82e 9e01 69fb ba01
000001c0: 31b1 a481 be6b b201 0fbf ac81 c17f ba81
000001d0: 53d7 a501 4119 b501 e30c b801 7d89 a401
000001e0: 67ec a681 5de8 b081 5aa0 a201 ee86 9d01
000001f0: be19 a901 c05c 9b01 c8d2 b801 c575 b301
00000200: de5f b201 5b42 a281 6ad5 9b01 31c7 b601
00000210: 3e83 a181 ae53 ae01 fe9e a601 5a22 a601
00000220: e473 ae01 0e37 9a01 6d7d a201 ae83 a101
00000230: 2eb2 b301 80ff bb81 240d 9a81 5780 9a01
00000240: 6f37 a681 8329 a301 f6e6 a201 0742 ae01
00000250: 8e8b b101 5198 ba01 289f a581 82fb 9d01
00000260: bef4 ae01 6e26 a501 88e8 ac01 cf42 a281
00000270: cf2c a381 9645 9e81 684d be01 ff87 ac81
00000280: cbd0 ae01 3c29 b881 4681 ba81 0413 a001
00000290: 866a a601 6517 b043 3b06 9b81 3998 ae01
000002a0: e6ec ac81 fe7a b901 9119 a301 12e9 aa01
000002b0: 9830 a981 0335 9f01 936f ba01 12e4 b101
000002c0: 26b5 bb01 1925 a581 2897 bd81 a660 bb01
000002d0: b44b b701 c92f a5c3 a40d b801 3423 bc01
000002e0: 916a a001 d471 a601 4f8a af81 edf1 a081
000002f0: a4f8 9901 166c b801 48e9 9a01 8cfa b401
00000300: 7890 9c01 94c9 aa01 2d60 b081 7e86 b601
00000310: ab7d 9901 85cd b001 5e70 ac81 4067 9a01
00000320: 352f be01 a4de 9a01 75db a701 c6fe ba01
00000330: f3c1 9901 1ef6 aa81 3757 a981 06e4 a581
00000340: 318e ab01 a81a ad01 6ca9 a501 1483 af81
00000350: 2c99 ba01 1f79 bb01 7937 aa01 cedb a001
00000360: 9b98 9f01 5a16 bd01 0dd4 a801 e649 ae81
00000370: c46e a101 05f5 b081 9d88 ae81 fc69 9c01
00000380: 9fb1 a401 c72a a181 376f 9c01 fa57 b001
00000390: 34b6 ae01 1745 bd81 29fd a181 cddb bd81
000003a0: 4d29 aa01 acfc b901 e98c a601 8200 b201
000003b0: b3fc a701 9d58 9f01 ded5 9f01 9243 b601
000003c0: babe bc81 fa0c a601 da34 a001 30cc ad01
000003d0: ea3b b581 6f4a 9d01 2358 b401 72b1 ae01
000003e0: d482 b501 81a7 9b01 f4f7 a301 9136 bc01
000003f0: e64f b701 eb8e b101 c27b b701 5f5c a401
5.70711e-38 6.66793e-38 6.3432146e-38 6.8570366e-38 6.0172333e-38 6.9298273e-38 6.242907e-38 6.1271865e-38
-5.924972e-38 -5.750071e-38 -6.8016275e-38 -6.188025e-38 -6.5781636e-38 5.6379215e-38 6.238484e-38 6.567037e-38
-6.566265e-38 -6.599118e-38 -5.739651e-38 5.9548716e-38 -6.461945e-38 -6.189386e-38 6.0942005e-38 -6.2702047e-38
5.901771e-38 5.759177e-38 5.677898e-38 6.656214e-38 6.1339643e-38 6.954512e-38 -5.843209e-38 5.773655e-38
5.825108e-38 5.792189e-38 329.36987 6.49547e-38 -6.2454914e-38 6.176313e-38 -5.981811e-38 5.7989985e-38
-6.265225e-38 6.581107e-38 6.665676e-38 6.38928e-38 -6.54871e-38 6.0720493e-38 -5.9760116e-38 5.93861e-38
5.656667e-38 5.875657e-38 -6.111445e-38 6.00843e-38 -6.488348e-38 6.26968e-38 6.9474394e-38 5.884792e-38
6.22393e-38 -6.607908e-38 6.3096877e-38 5.961443e-38 6.542796e-38 6.6935146e-38 6.30203e-38 6.1258513e-38
6.4427404e-38 6.248022e-38 -5.9654144e-38 6.69968e-38 6.8960347e-38 -6.4572915e-38 5.804382e-38 -5.925457e-38
-6.846024e-38 6.603109e-38 6.46841e-38 6.72882e-38 5.744728e-38 6.9812443e-38 6.816364e-38 6.1053436e-38
6.6538584e-38 6.5567635e-38 -6.850179e-38 -6.7404777e-38 6.600961e-38 -6.0932465e-38 6.571338e-38 -5.896979e-38
5.90309e-38 6.594347e-38 6.067971e-38 -5.9674884e-38 6.8978637e-38 6.004333e-38 238.7957 6.4490255e-38
6.533246e-38 -6.0946926e-38 6.9860266e-38 6.1723436e-38 5.660978e-38 -5.7349384e-38 6.472741e-38 -6.824754e-38
6.4146236e-38 -6.391339e-38 -6.1243307e-38 6.1212456e-38 6.3966725e-38 6.8163025e-38 5.810707e-38 6.8686365e-38
-6.049834e-38 6.5541476e-38 -6.3456977e-38 -6.8508927e-38 6.09204e-38 6.6525137e-38 6.7609417e-38 6.044137e-38
-6.131799e-38 -6.4985614e-38 5.9739495e-38 5.7866306e-38 6.2117734e-38 5.70711e-38 6.789338e-38 6.5923206e-38
6.5524436e-38 -5.9604617e-38 5.724424e-38 6.7142067e-38 -5.9330383e-38 6.403758e-38 6.120691e-38 6.102806e-38
6.40838e-38 5.6649665e-38 5.968938e-38 5.933101e-38 6.600989e-38 -6.9059576e-38 -5.658952e-38 5.6754824e-38
-6.105831e-38 5.993631e-38 5.9840814e-38 6.401225e-38 6.521978e-38 6.854417e-38 -6.0839805e-38 5.803359e-38
6.4268693e-38 6.066657e-38 6.351649e-38 -5.9605267e-38 -5.994104e-38 -5.8139884e-38 6.990605e-38 -6.3377966e-38
6.421711e-38 -6.7650094e-38 -6.851111e-38 5.8802004e-38 6.1131623e-38 352.18277 -5.694695e-38 6.4135934e-38
-6.3522754e-38 6.813475e-38 5.991343e-38 6.2782577e-38 -6.2150524e-38 5.8483444e-38 6.848571e-38 6.5346796e-38
6.8952886e-38 -6.066466e-38 -6.9644534e-38 6.8831635e-38 6.733221e-38 -330.37332 6.76105e-38 6.9110807e-38
5.8927633e-38 6.1142105e-38 -6.448331e-38 -5.9121864e-38 5.6560105e-38 6.774602e-38 5.690541e-38 6.6481074e-38
5.751265e-38 6.273739e-38 -6.4790195e-38 6.704923e-38 5.638365e-38 6.4947095e-38 -6.334406e-38 5.671882e-38
6.9862716e-38 5.689014e-38 6.1661017e-38 6.869119e-38 5.6481627e-38 -6.28013e-38 -6.220594e-38 -6.0938625e-38
6.3019514e-38 6.3588413e-38 6.0854536e-38 -6.4472935e-38 6.85454e-38 6.886675e-38 6.2527737e-38 5.909012e-38
5.8626354e-38 6.945971e-38 6.201773e-38 -6.4023544e-38 5.9301e-38 -6.5003775e-38 -6.4113536e-38 5.745743e-38
6.049896e-38 -5.920344e-38 5.7464935e-38 6.477843e-38 6.4178954e-38 -6.9526774e-38 -5.9505327e-38 -6.9743034e-38
6.25074e-38 6.8320834e-38 6.1180966e-38 6.53876e-38 6.1708717e-38 5.853453e-38 5.871426e-38 6.69532e-38
-6.933397e-38 6.099739e-38 5.8850556e-38 6.384316e-38 -6.657487e-38 5.77795e-38 6.624803e-38 6.4172127e-38
6.667663e-38 5.7178364e-38 6.023254e-38 6.913859e-38 6.733823e-38 6.522461e-38 6.7401167e-38 6.037663e-38
