unet/unet-segment-master/np_weights/down4.maxpool_conv.1.double_conv.0.bias.npy (npy, 2176 bytes, 1 tensors)

array f4 [512]
000000 9b 2c a0 01 c4 60 b4 81 58 45 bc 81 a0 77 9a 81
       5.8838723e-38 -6.626041e-38 -6.9159797e-38 -5.674232e-38
000010 96 64 d4 3d 92 0f a4 01 59 11 ac 81 f5 af 9d 81
       0.10370748 6.026643e-38 -6.3207714e-38 -5.792518e-38
000020 d9 c7 9b 01 f1 6f ae 01 a5 5f b0 81 b0 fa 9e 81
       5.7224775e-38 6.4078133e-38 -6.478943e-38 -5.839975e-38
000030 88 2a be 01 fc 36 9c 81 ab f5 b0 01 5c 23 9e 01
       6.9856006e-38 -5.738425e-38 6.5004706e-38 5.809077e-38
000040 a0 9d bc 81 b1 89 aa 81 88 21 d2 bd 43 45 a6 01
       -6.9286474e-38 -6.2645715e-38 -0.10260302 6.1078155e-38
000050 4a 07 ab 01 bb eb 9f 01 88 15 9a 01 90 2e a5 01
       6.282594e-38 5.874563e-38 5.660156e-38 6.067824e-38
000060 07 12 b5 81 68 c8 bd 01 e6 5f b2 81 91 29 25 bd
       -6.6514767e-38 6.9715204e-38 -6.552448e-38 -0.040322844
000070 4c 82 ad 81 38 08 9e 81 2e 60 d0 be 96 1d a3 81
       -6.373713e-38 -5.8051827e-38 -0.4069838 -5.99192e-38
000080 1d d3 a8 81 e2 d8 b3 81 72 36 a5 81 cd 61 b9 01
       -6.2016386e-38 -6.6065427e-38 -6.068955e-38 6.8098604e-38
000090 f1 cf bc 81 ca ee b5 81 60 83 b7 01 2c 67 a9 81
       -6.9358674e-38 -6.6831545e-38 6.7412097e-38 -6.222884e-38
0000a0 84 90 99 81 b2 40 ba 81 7c ac a4 81 c6 d6 b9 81
       -5.6410693e-38 -6.841844e-38 -6.049159e-38 -6.826645e-38
0000b0 7e bc 9a 81 d2 69 b0 01 f9 7a b8 81 a0 71 9c 01
       -5.684114e-38 6.4804034e-38 -6.776738e-38 5.7468393e-38
0000c0 67 ff 9a 81 9b 74 a9 81 54 86 a3 81 80 74 b4 01
       -5.693715e-38 -6.2248116e-38 -6.0069495e-38 6.6288727e-38
0000d0 c9 86 b8 81 93 b3 b6 01 10 24 af 01 57 01 a7 01
       -6.778433e-38 6.711392e-38 6.4336594e-38 6.1348034e-38
0000e0 9a 95 ae 01 1c 20 a6 81 66 6f b8 01 c9 b3 ad 01
       6.4132173e-38 -6.1024844e-38 6.7750774e-38 6.380814e-38
0000f0 80 91 bc 01 0e fa b4 01 18 bf aa 01 2d 84 a4 81
       6.9269075e-38 6.648037e-38 6.2722343e-38 -6.043375e-38
000100 ed 35 a1 81 9c c3 98 01 a5 a7 9d 81 8a 0a ba 01
       -5.921944e-38 5.611667e-38 -5.791325e-38 6.834073e-38
000110 c1 8f 9e 81 38 95 b0 81 5b 0d b4 01 8e 96 b4 01
       -5.824631e-38 -6.486631e-38 6.614072e-38 6.633759e-38
000120 c8 2e 9a 81 b3 0f b3 01 e9 99 ba 81 18 e5 a5 01
       -5.6637793e-38 6.577674e-38 -6.854646e-38 6.094016e-38
000130 91 c1 b8 81 39 4b a7 81 49 e4 aa 81 31 70 9f 81
       -6.786868e-38 -6.145405e-38 -6.277571e-38 -5.856836e-38
000140 cd 58 b4 81 9f cd b6 81 d6 c3 b4 01 eb b8 99 01
       -6.624898e-38 -6.7151293e-38 6.640257e-38 5.646867e-38
000150 18 66 a6 81 2b 92 9d 01 c4 1d 9c 81 d8 1e 9b 81
       -6.1125267e-38 5.788243e-38 -5.734806e-38 -5.6982266e-38
000160 b0 78 ab 81 a6 41 a8 01 f6 72 b2 81 75 be bc 81
       -6.298866e-38 6.1807654e-38 -6.5551834e-38 -6.9333586e-38
000170 3e da bd 81 2d b9 aa 01 aa 0c a6 81 ac 10 ae 01
       -6.97408e-38 6.271385e-38 -6.099694e-38 6.394143e-38
000180 3f 88 a2 01 dc 87 b1 01 ed 6f ac 01 e8 42 bc 81
       5.9704905e-38 6.521448e-38 6.3343427e-38 -6.91563e-38
000190 c0 f5 b8 81 3c ac 9c 01 b2 73 be 01 0b 67 b5 01
       -6.794356e-38 5.7552494e-38 6.996099e-38 6.663676e-38
0001a0 a2 06 9a 81 57 a5 9d 01 e6 a2 a6 01 cf 12 a1 81
       -5.6580183e-38 5.790994e-38 6.121252e-38 -5.916905e-38
0001b0 5c 33 9a 81 b2 f2 b0 01 e5 67 ac 01 5b da b9 81
       -5.664436e-38 6.500044e-38 6.33319e-38 -6.827159e-38
0001c0 73 7d aa 01 54 11 a0 81 5f 3b 9e 01 3b 4c b4 01
       6.262815e-38 -5.879958e-38 5.8125227e-38 6.623094e-38
0001d0 78 8c b5 01 31 6b c3 be 90 aa b0 81 8a 35 b8 01
       6.669046e-38 -0.38167718 -6.4896934e-38 6.766775e-38
0001e0 06 26 b3 01 a4 11 a9 81 e6 c6 b8 81 eb d5 a8 81
       6.5808776e-38 -6.210611e-38 -6.787633e-38 -6.202041e-38
0001f0 1c 25 be 01 fa 30 16 3f bc 5b bc 01 28 c8 b2 81
       6.9848226e-38 0.5866848 6.9191925e-38 -6.5674083e-38
000200 2a 29 b2 81 c7 7a ae 81 0e e1 b3 01 50 dd ab 81
       -6.544594e-38 -6.409368e-38 6.6077153e-38 -6.313305e-38
000210 ae b5 b7 81 99 09 9a 81 e2 e7 a4 81 fa 42 ba 81
       -6.748428e-38 -5.658444e-38 -6.057682e-38 -6.8421716e-38
000220 8a b2 aa 81 99 e7 bc 81 96 fb 9b 01 75 58 af 01
       -6.270433e-38 -6.939262e-38 5.7299016e-38 6.4411777e-38
000230 b3 04 aa 81 44 09 a0 01 ed cf a2 81 97 fa a7 81
       -6.245488e-38 5.8788013e-38 -5.980776e-38 -6.170569e-38
000240 a0 f6 bd 01 fd 85 a5 01 68 9d a0 01 ad 20 9c 81
       6.9781525e-38 6.080369e-38 5.9000584e-38 -5.7352237e-38
000250 ac cc 9d 81 31 de a8 01 66 5f a2 81 f4 5c 69 3e
       -5.796638e-38 6.203228e-38 -5.964629e-38 0.22789365
000260 a7 44 aa 01 4d c1 b1 81 a6 66 99 01 df 11 aa 81
       6.254665e-38 -6.5296904e-38 5.6350617e-38 -6.247378e-38
000270 d7 23 b7 01 16 30 a1 01 62 a3 b2 81 30 0a a5 01
       6.727501e-38 5.921106e-38 -6.5621316e-38 6.0626046e-38
000280 ba f8 ac 01 97 55 dc bd a8 8d a7 81 b0 14 b7 01
       6.3539726e-38 -0.107585125 -6.154938e-38 6.725327e-38
000290 59 ec a1 01 d7 8c a3 81 38 5c ac 01 20 67 b9 01
       5.94812e-38 -6.007884e-38 6.331515e-38 6.8106244e-38
0002a0 04 d5 9e 81 99 ec b5 81 90 ce ab 81 6a 9d 9d 01
       -5.8345696e-38 -6.68284e-38 -6.311188e-38 5.789857e-38
0002b0 03 11 9b 01 40 1c b1 81 d0 92 bb 81 70 ee bc 01
       5.696242e-38 -6.506007e-38 -6.8903617e-38 6.9402434e-38
0002c0 05 8f a4 01 62 9a ba 01 c4 69 a6 01 83 29 af 81
       6.044931e-38 6.854714e-38 6.1130536e-38 -6.4344414e-38
0002d0 4b b4 a7 81 42 a6 a0 81 81 94 9a 01 8c b1 aa 01
       -6.160482e-38 -5.9013286e-38 5.678376e-38 6.2702905e-38
0002e0 a0 a5 be 81 f6 c0 b2 01 70 49 b8 01 3c 2c b0 81
       -7.003264e-38 6.566376e-38 6.7696303e-38 -6.471566e-38
0002f0 c0 b7 bd 81 30 06 b3 81 f8 fc b9 81 94 df bc 01
       -6.9691303e-38 -6.5763094e-38 -6.832126e-38 6.938111e-38
000300 c2 03 ab 01 62 80 a5 81 ca b5 b5 81 bf cc a3 81
       6.282087e-38 -6.079565e-38 -6.6749754e-38 -6.017054e-38
000310 1a bf b2 81 74 a9 b9 01 58 ec b5 01 f9 af aa 81
       -6.566109e-38 6.820142e-38 6.6828036e-38 -6.2700646e-38
000320 7f ea 9a 81 e0 3a a8 01 14 13 9b 81 03 dd a0 01
       -5.690715e-38 6.1797935e-38 -5.6965383e-38 5.9091854e-38
000330 84 8a a2 01 22 35 b8 01 0f 01 bc 81 36 7d 9f 81
       5.970816e-38 6.7667167e-38 -6.906181e-38 -5.8587044e-38
000340 2b ff b2 81 43 3b b3 81 00 4b aa 01 d3 16 ac 81
       -6.575302e-38 -6.583925e-38 6.2555757e-38 -6.321557e-38
000350 78 3a ba 81 89 5b b0 01 45 e0 ba 81 58 11 be 01
       -6.840951e-38 6.4783536e-38 -6.864742e-38 6.9819864e-38
000360 61 91 ad 81 94 ff a4 01 5d 6d c1 3e 5b 22 b8 81
       -6.375877e-38 6.061082e-38 0.3777875 -6.7640223e-38
000370 0d 79 9d 01 56 17 bc 81 0e 52 a1 81 56 0d b3 81
       5.784639e-38 -6.909378e-38 -5.92598e-38 -6.577335e-38
000380 7e 43 a7 01 de 4d ac 01 a0 06 a9 81 45 e5 9d 01
       6.144296e-38 6.3294555e-38 -6.20903e-38 5.800168e-38
000390 be 4a ae 81 c6 83 a6 81 e3 4b ae 01 f4 43 bd 01
       -6.4024755e-38 -6.1167855e-38 6.40264e-38 6.9525143e-38
0003a0 f4 86 aa 81 b6 d1 51 be cd b3 be 01 3b f1 a5 01
       -6.2641786e-38 -0.20490155 7.005298e-38 6.0957576e-38
0003b0 1e 5d b4 81 25 d7 a4 01 27 a1 ad 01 65 18 af 81
       -6.6255174e-38 6.05528e-38 6.3781406e-38 -6.431985e-38
0003c0 a9 f0 a8 01 61 8a a5 81 01 f2 b5 01 8b 86 b2 01
       6.2058784e-38 -6.080999e-38 6.683616e-38 6.5579933e-38
0003d0 0a e2 b6 81 60 66 a1 01 80 cd bd 81 5c eb a7 01
       -6.718059e-38 5.928896e-38 -6.9722513e-38 6.1683836e-38
0003e0 11 2e 9b 81 5d 12 a0 81 17 df aa 01 53 84 a5 81
       -5.700411e-38 -5.880107e-38 6.2768256e-38 -6.0801303e-38
0003f0 f3 85 a1 01 00 3c b0 81 a5 df 9e 01 80 4e a5 81
       5.933427e-38 -6.4738285e-38 5.836095e-38 -6.072407e-38
