unet/unet-segment-master/np_weights/down3.maxpool_conv.1.double_conv.1.weight.npy (npy, 2176 bytes, 1 tensors)

array f4 [512]
00000000: 6551 a401 86c1 b501 4011 bb81 10e8 ad01
00000010: 7878 b701 d6a5 bc01 a772 9e81 9929 b981
00000020: 5e22 b381 2acd b301 e440 b101 bfdd 15c3
00000030: add5 9e81 d428 a801 04b2 af81 8f00 b201
00000040: a58a ae81 ccda a201 1cce a701 45b1 b801
00000050: d02a 9d81 34ac ad01 dda5 ae01 a9b4 aa81
00000060: b79b a881 825d af01 1de8 9c01 1e42 a401
00000070: d129 af01 7407 b501 94ae a381 8652 bb81
00000080: 5eec a401 dc97 a001 2234 a601 102b be81
00000090: ae77 b201 7885 b001 a442 9a01 5735 ad01
000000a0: c5b0 ad01 f15d 9a81 5c46 b001 e19f ab81
000000b0: 14ef 9b01 ea0b b501 3be7 ac01 98b2 a601
000000c0: 3bbb 7543 2b71 aa01 6b93 a281 6a72 b801
000000d0: f83d b701 3014 bc01 9c77 9a01 9cb9 a001
000000e0: f050 ad01 6604 a801 f0d7 ae81 2e92 b601
000000f0: 69a4 a081 1c90 b201 ed27 a001 6310 be81
00000100: e45c b101 19ca b101 3fe4 b601 7908 ae01
00000110: 9be9 b801 8ab1 a801 78a9 b801 75b6 9e01
00000120: 782d a601 0a6b b801 05ec 9e01 ae0d ba01
00000130: 261f a381 ba3d b201 18b9 ba01 1118 a401
00000140: fba2 a901 58ee bd01 9189 b481 f317 9c01
00000150: 684d be01 01ad b801 e9f9 a401 c2de ae01
00000160: 7e60 b501 4842 9b01 6216 b901 ed3d b601
00000170: 062c a101 33d3 9e01 0055 be01 e25c aa81
00000180: d536 be81 987e bd01 fb6f af81 b1ce a901
00000190: 6c0d a701 e8d4 bc01 93a4 ae81 c4b9 9b01
000001a0: 0074 ae01 5acc a101 2471 b401 744f a501
000001b0: 0e26 bd01 2622 a201 37a9 b001 2d20 a901
000001c0: c82a a201 e9b0 ac01 5b3d a001 9ae8 ab01
000001d0: b44e ad01 7f28 a801 6fb1 9a01 7cf7 9b81
000001e0: 36b0 b401 2e57 b881 ddd1 aa01 1b09 b201
000001f0: 7e22 a001 a816 9a81 2007 bd81 52f6 b581
00000200: 9fa4 b581 1cec ab01 3fd2 ba01 be18 af81
00000210: c5f4 b001 374f b881 9b8d a881 b870 b101
00000220: d586 bb81 c3e7 a701 2259 9d81 f96d 9e01
00000230: 6450 bd01 0537 b701 c0d9 b801 7474 bd01
00000240: e066 9c01 2c1c a181 175a a701 26a7 9981
00000250: d016 b201 a39c a201 6f76 b501 1d9d b781
00000260: 67b5 a781 09d9 b001 378d b901 3178 9981
00000270: 98d4 b601 9276 b701 1402 b501 581f 9d01
00000280: de98 be01 582c b201 217c b201 d7c2 b501
00000290: f7fc 9901 ef16 9b01 529b af01 dbeb ac01
000002a0: 96d8 b401 821a ad01 b94c b601 1d2d b401
000002b0: 5fd6 a681 b898 ad01 d56e a601 f960 b701
000002c0: cff0 a901 2ea4 a701 25c3 b781 d0be bc81
000002d0: 00e6 9b01 bd3d a701 acf2 b401 479d b781
000002e0: 1012 a681 4b6a ac01 0eb1 a101 7c08 b201
000002f0: 3be4 9f01 90f3 9f01 16ea 9f01 983c bd01
00000300: 1089 ba81 c958 a901 b4a7 bd01 49d0 7fc3
00000310: 10c7 bd81 934a b301 869a 9f01 49cd b481
00000320: a321 b381 82c6 b401 9081 5643 258d 9c01
00000330: 8068 a101 16df bb01 3425 b701 7483 ae01
00000340: 5968 b201 ce8b bd01 599b ba01 3674 bb01
00000350: cf6b 9c01 fd14 b801 d8f8 a601 7072 b001
00000360: 7db3 b781 e1da b001 b5b4 b101 47b0 ba81
00000370: 08f3 a001 c5f4 9a01 b05c b201 5439 9b01
00000380: 07bc 9901 118a ae81 e324 9c01 b1cc b681
00000390: 1952 ae81 b076 b801 2e52 a201 bb5c a201
000003a0: 38e8 b601 1f48 a981 27e3 a201 5a74 ad01
000003b0: 4df8 a081 67f0 a301 d519 a201 4e77 ba81
000003c0: b3ae 9c01 bd88 ae81 9253 b401 c36d a681
000003d0: 067f bb01 7aab b981 f002 ac81 f7db a101
000003e0: b8fe ad01 7217 b201 1a9b ae01 f04b ba01
000003f0: 0cfe b781 b066 a701 b488 a101 a635 a501
6.036088e-38 6.676659e-38 -6.8717704e-38 6.3883157e-38 6.739645e-38 6.9298256e-38 -5.820455e-38 -6.8017957e-38
-6.580353e-38 6.604861e-38 6.5112645e-38 -149.8662 -5.8346643e-38 6.177204e-38 -6.454029e-38 6.5387675e-38
-6.411645e-38 5.982336e-38 6.1641864e-38 6.7845294e-38 -5.7734125e-38 6.379726e-38 6.415551e-38 -6.270737e-38
-6.1936893e-38 6.4419024e-38 5.7638416e-38 6.033896e-38 6.434485e-38 6.6499594e-38 -6.012725e-38 -6.8811366e-38
6.0583256e-38 5.8992625e-38 6.1053576e-38 -6.985677e-38 6.5558605e-38 6.484371e-38 5.666629e-38 6.36267e-38
6.3803815e-38 -5.6705465e-38 6.475315e-38 -6.3044894e-38 5.728107e-38 6.6505995e-38 6.351462e-38 6.123504e-38
245.73137 6.2610525e-38 -5.9720936e-38 6.77551e-38 6.7312504e-38 6.908926e-38 5.6742297e-38 5.9041054e-38
6.3666303e-38 6.1719765e-38 -6.422736e-38 6.7066e-38 -5.9010635e-38 6.559366e-38 5.883201e-38 -6.981849e-38
6.515282e-38 6.5309527e-38 6.718376e-38 6.3929663e-38 6.792613e-38 6.196821e-38 6.78341e-38 5.8301847e-38
6.1044014e-38 6.774452e-38 5.8378705e-38 6.834524e-38 -5.992144e-38 6.5475447e-38 6.8591206e-38 6.027862e-38
6.231466e-38 6.976964e-38 -6.6318955e-38 5.7339715e-38 6.990605e-38 6.7839174e-38 6.060269e-38 6.4237147e-38
6.662736e-38 5.7033117e-38 6.7990385e-38 6.69451e-38 5.920523e-38 5.834309e-38 6.9916946e-38 -6.258142e-38
-6.9873657e-38 6.960929e-38 -6.444553e-38 6.2377383e-38 6.136537e-38 6.93658e-38 -6.415366e-38 5.720457e-38
6.4083957e-38 5.943529e-38 6.6283906e-38 6.0725437e-38 6.948224e-38 5.95584e-38 6.4895e-38 6.2126965e-38
5.957079e-38 6.3436675e-38 5.886276e-38 6.3149246e-38 6.3663097e-38 6.177156e-38 5.682527e-38 -5.729313e-38
6.637441e-38 -6.771602e-38 6.2749276e-38 6.539994e-38 5.882421e-38 -5.6603176e-38 -6.943786e-38 -6.684235e-38
-6.672512e-38 6.315428e-38 6.86273e-38 -6.432035e-38 6.5003416e-38 -6.7704593e-38 -6.191665e-38 6.5181275e-38
-6.8886426e-38 6.1678673e-38 -5.780059e-38 5.8197837e-38 6.954299e-38 6.730253e-38 6.790338e-38 6.9594737e-38
5.745297e-38 -5.9182484e-38 6.1475384e-38 -5.644317e-38 6.541961e-38 5.9734164e-38 6.6658843e-38 -6.744903e-38
-6.160641e-38 6.496362e-38 6.81609e-38 -5.637579e-38 6.71613e-38 6.7393723e-38 6.649188e-38 5.771767e-38
7.001433e-38 6.5450503e-38 6.556499e-38 6.676848e-38 5.656631e-38 5.6970916e-38 6.450772e-38 6.352126e-38
6.6432343e-38 6.35882e-38 6.6966333e-38 6.618629e-38 -6.1286377e-38 6.3769304e-38 6.1137806e-38 6.736273e-38
6.242634e-38 6.15817e-38 -6.75036e-38 -6.9334096e-38 5.726804e-38 6.14347e-38 6.6469774e-38 -6.7449265e-38
-6.100469e-38 6.3335344e-38 5.939612e-38 6.539905e-38 5.873487e-38 5.875687e-38 5.874327e-38 6.9514583e-38
-6.8522284e-38 6.2208196e-38 6.966828e-38 -255.81361 -6.9713276e-38 6.5861224e-38 5.8629106e-38 -6.6416127e-38
-6.580248e-38 6.64064e-38 214.5061 5.750788e-38 5.929201e-38 6.9013064e-38 6.7276967e-38 6.410613e-38
6.5536605e-38 6.9628245e-38 6.854852e-38 6.8859706e-38 5.746005e-38 6.762104e-38 6.133584e-38 6.48164e-38
-6.7481136e-38 6.4966265e-38 6.5278833e-38 -6.8578555e-38 5.912345e-38 5.692189e-38 6.5519873e-38 5.702027e-38
5.647313e-38 -6.411562e-38 5.735828e-38 -6.714996e-38 -6.403531e-38 6.7761233e-38 5.9627324e-38 5.9642463e-38
6.718946e-38 -6.2184284e-38 5.983535e-38 6.371712e-38 -5.913101e-38 6.0221704e-38 5.954647e-38 -6.8496803e-38
5.755603e-38 -6.4113715e-38 6.6241475e-38 -6.113627e-38 6.887522e-38 -6.8204324e-38 -6.3187036e-38 5.9457694e-38
6.3915667e-38 6.5420516e-38 6.4140065e-38 6.8434574e-38 -6.758812e-38 6.149346e-38 5.933822e-38 6.068841e-38
