unet/unet-segment-master/np_weights/down1.maxpool_conv.1.double_conv.0.weight.npy (npy, 295040 bytes, 1 tensors)

array f4 [128, 64, 3, 3]
-6.9391566e-38 -6.930761e-38 6.634631e-38 -6.535477e-38 -5.923064e-38 6.919861e-38 6.206839e-38 -6.74013e-38
6.6532855e-38 6.220718e-38 6.4003573e-38 5.832842e-38 6.087532e-38 -6.0657284e-38 7.00579e-38 5.661587e-38
6.2565073e-38 5.6591085e-38 -5.708222e-38 6.278971e-38 -6.7077646e-38 -5.7937503e-38 -6.670884e-38 -7.0049935e-38
-6.3668366e-38 -5.8603535e-38 6.794109e-38 -6.429089e-38 -6.9931413e-38 -6.8554424e-38 -6.06061e-38 6.0300855e-38
-5.934287e-38 5.89772e-38 6.614555e-38 -6.4865725e-38 -6.1842995e-38 -5.923551e-38 -5.7198985e-38 5.8623904e-38
-6.4051195e-38 -6.9675267e-38 -6.4593094e-38 -5.757131e-38 5.692207e-38 6.661916e-38 6.179283e-38 6.237974e-38
5.6563665e-38 6.373544e-38 6.8306905e-38 6.6033634e-38 5.8888425e-38 6.01531e-38 -6.009782e-38 -5.8975905e-38
6.02837e-38 -6.422079e-38 6.0134476e-38 -5.984313e-38 6.310537e-38 5.8198605e-38 6.2464454e-38 6.62371e-38
6.5487924e-38 6.657829e-38 6.335133e-38 6.8815425e-38 6.285151e-38 5.894876e-38 6.476785e-38 6.9709767e-38
-5.8846733e-38 -5.9553615e-38 -6.855294e-38 -6.381219e-38 -6.9169185e-38 -5.973695e-38 -6.4199805e-38 -6.9235097e-38
-5.9123725e-38 -5.935152e-38 6.5561907e-38 -6.253703e-38 -6.7385327e-38 6.148407e-38 -6.187733e-38 6.8363747e-38
-5.6953506e-38 6.2539984e-38 6.493807e-38 6.554409e-38 5.9419304e-38 6.2154375e-38 6.052081e-38 6.1661914e-38
6.960928e-38 5.914169e-38 6.796984e-38 6.974418e-38 5.966393e-38 6.8506623e-38 5.920479e-38 6.0956836e-38
6.4634225e-38 6.475698e-38 6.5923744e-38 6.0961545e-38 -5.9832995e-38 -6.216151e-38 -6.975135e-38 -6.804985e-38
-6.763407e-38 -6.268965e-38 -6.690792e-38 -6.5229625e-38 -6.189497e-38 -6.720705e-38 -6.0253e-38 -5.6238933e-38
-6.5693763e-38 -6.7205635e-38 -6.135437e-38 -6.582029e-38 -6.985485e-38 5.746695e-38 5.682196e-38 6.955787e-38
6.279821e-38 -6.1526733e-38 -5.847402e-38 -5.99554e-38 -6.187394e-38 5.87359e-38 6.7774277e-38 6.6575925e-38
6.4016465e-38 6.670129e-38 6.5819796e-38 6.2021885e-38 5.763731e-38 6.72478e-38 6.2205814e-38 6.631387e-38
-6.8577445e-38 -6.4815614e-38 6.334367e-38 -5.9886166e-38 -6.3024867e-38 -6.9193226e-38 -6.084687e-38 6.3561626e-38
6.653854e-38 -6.34593e-38 -5.816159e-38 6.892587e-38 -6.892249e-38 6.677534e-38 6.858365e-38 -6.49548e-38
-6.8237176e-38 6.354969e-38 6.621119e-38 5.997417e-38 5.8133825e-38 6.29338e-38 -5.8510035e-38 -5.90367e-38
-6.807579e-38 -6.81102e-38 5.8767543e-38 -6.5631e-38 -6.685386e-38 6.818901e-38 5.662237e-38 -5.9927134e-38
-6.9981546e-38 5.6803853e-38 6.5909294e-38 6.612472e-38 -5.8041945e-38 -5.64154e-38 6.1960833e-38 -6.361571e-38
-5.6743726e-38 -6.984621e-38 -6.390234e-38 -5.944202e-38 -6.454659e-38 6.328181e-38 5.887565e-38 6.4236985e-38
6.243911e-38 6.0768844e-38 6.910353e-38 5.7155125e-38 6.42887e-38 6.245046e-38 -6.4236603e-38 -5.6914617e-38
-5.8914343e-38 -6.9850065e-38 -6.292156e-38 -5.621757e-38 -5.6621213e-38 6.1060336e-38 -6.544295e-38 -6.024963e-38
-6.380503e-38 -5.767277e-38 -6.099596e-38 -5.854855e-38 -6.320871e-38 -6.9480464e-38 -6.5036487e-38 -5.8944925e-38
-6.0897466e-38 5.716088e-38 6.951999e-38 -5.6309475e-38 5.818086e-38 6.688174e-38 6.1521593e-38 6.368248e-38
6.933046e-38 5.724113e-38 6.8080724e-38 6.294558e-38 6.253698e-38 6.822793e-38 6.623302e-38 5.8660943e-38
6.104381e-38 6.23615e-38 6.8491484e-38 6.5861274e-38 6.3380673e-38 6.6754294e-38 6.906858e-38 6.3502323e-38
6.7065483e-38 -6.914579e-38 -6.122562e-38 6.8251066e-38 6.761479e-38 6.3844503e-38 6.854177e-38 -6.631672e-38
5.9398615e-38 6.8999264e-38 6.284811e-38 6.597511e-38 6.346223e-38 6.27263e-38 -6.576553e-38 -6.214167e-38
00000000: dde6 bc81 5bac bc81 a19c b401 a1e9 b181
00000010: bb3d a181 6560 bc01 5bf7 a801 da7b b781
00000020: a21e b501 1458 a901 fb3b ae01 fac8 9e01
00000030: e8b7 a501 f51f a581 3bb7 be01 811f 9a01
00000040: 7e51 aa01 3b0e 9a01 8064 9b81 0bee aa01
00000050: 4c9a b681 8cb8 9d81 4799 b581 aeb1 be81
00000060: 6052 ad81 b488 9f81 07f4 b801 3604 af81
00000070: 155f be81 769f ba81 4afc a481 9027 a401
00000080: f28b a181 1c8d a001 b810 b401 d094 b081
00000090: 475a a881 2041 a181 e0b5 9b81 e696 9f01
000000a0: 2b5d ae81 93ac bd81 d1d6 af81 59b9 9c81
000000b0: e5f4 9a01 c75a b501 5137 a801 55d0 a901
000000c0: 1ffb 9901 1e81 ad01 f7f2 b901 bac2 b301
000000d0: 3e4f a001 98c0 a301 119a a381 358c a081
000000e0: 9b1b a401 5cd3 ae81 9db3 a301 93e8 a281
000000f0: 06ca ab01 826e 9e01 5f0b aa01 8650 b401
00000100: 6c46 b201 4c3e b501 6f75 ac01 5a55 bb01
00000110: 1c19 ab01 4a79 a001 9b50 b001 9ec4 bd01
00000120: 3032 a081 d01e a281 6d9e ba81 9bb6 ad81
00000130: e34b bc81 949e a281 bcc4 ae81 d279 bc81
00000140: 39f3 a081 f991 a181 fb79 b201 f33d aa81
00000150: b870 b781 2560 a701 3572 a881 941a ba01
00000160: cd0a 9b81 0240 aa01 3bc7 b001 906d b201
00000170: 36c1 a101 4733 a901 d9c0 a401 15dc a701
00000180: 977e bd01 beff a001 1108 b901 99dc bd01
00000190: b16b a201 267e ba01 b72b a101 b7f0 a501
000001a0: 7bf3 af01 0749 b001 2576 b301 fff3 a501
000001b0: 83e1 a281 4038 a981 99e1 bd81 d33f b981
000001c0: 111e b881 4fa8 aa81 0424 b681 6a92 b181
000001d0: 807e a881 7af4 b681 3606 a481 d118 9981
000001e0: dfd5 b281 7ef3 b681 c105 a781 0c2e b381
000001f0: ba29 be81 9e70 9c01 20af 9a01 c35a bd01
00000200: f7f3 aa01 e07d a781 722e 9f81 d136 a381
00000210: d86f a881 f3e4 9f01 c77f b801 a63c b501
00000220: f744 ae01 0494 b501 b42d b301 f2d6 a801
00000230: 58e7 9c01 e010 b701 2057 a901 0686 b401
00000240: 81af ba81 e471 b081 1870 ac01 9106 a381
00000250: ec91 ab81 a45c bc81 14a4 a581 fd07 ad01
00000260: 9822 b501 adc0 ac81 b654 9e81 52a2 bb01
00000270: f79f bb81 9fc7 b501 d4b3 ba01 e4d2 b081
00000280: 5fc2 b981 acff ac01 773e b401 e543 a301
00000290: 5d41 9e01 7552 ab01 8b47 9f81 93b6 a081
000002a0: e751 b981 e269 b981 00fb 9f01 22aa b281
000002b0: 57fe b581 cea0 b901 0824 9a01 1e23 a381
000002c0: 0582 be81 82a2 9a01 136c b301 3402 b401
000002d0: 5501 9e81 cc93 9981 66ac a801 ae2d ad81
000002e0: 9b78 9a81 b423 be81 6ef5 ad81 0bd1 a181
000002f0: 68b6 af81 fc44 ac01 5746 a001 a5de ae01
00000300: b5f9 a901 b46d a501 221e bc01 4f97 9b01
00000310: af02 af01 9e01 aa01 61de ae81 b3ef 9a81
00000320: 4e61 a081 6426 be81 ed49 ab81 ee09 9981
00000330: 3a23 9a81 d838 a601 1427 b281 dd03 a481
00000340: 9eb1 ad81 0e00 9d81 fb0b a681 6262 9f81
00000350: 0b12 ac81 d124 bd81 d10b b181 9e76 a081
00000360: 57c7 a581 529b 9b01 5d40 bd01 fa49 9981
00000370: 2462 9e01 c511 b601 4b7a a701 365c ad01
00000380: 47bc bc01 3fd3 9b01 5755 b901 ab5a ab01
00000390: ea3d aa01 edbb b901 ae4d b401 b6b0 9f01
000003a0: 542d a601 9fc3 a901 9973 ba01 9c4a b301
000003b0: e289 ac01 f4b8 b501 c605 bc01 a9de ac01
000003c0: d291 b601 953b bc81 08ac a681 0dcc b901
000003d0: a210 b801 20cd ad01 a496 ba01 0288 b481
000003e0: cbb2 a101 78d5 bb01 bd16 ab01 f199 b301
000003f0: b8c2 ac01 dac1 aa01 e307 b381 6c2a a981
