unet/unet-segment-master/np_weights/down4.maxpool_conv.1.double_conv.4.weight.npy (npy, 2176 bytes, 1 tensors)

array f4 [512]
-6.2027204e-38 5.8541676e-38 6.8672705e-38 6.656197e-38 -6.4484123e-38 6.151681e-38 -6.622497e-38 6.7488356e-38
6.1360887e-38 5.6837523e-38 6.755824e-38 -6.3343926e-38 -6.378328e-38 6.0808063e-38 6.431924e-38 6.951843e-38
6.0708033e-38 6.5782236e-38 -6.422194e-38 -5.653439e-38 -6.1371666e-38 -6.5846796e-38 5.973228e-38 -130.66641
6.767648e-38 6.333749e-38 5.8680074e-38 6.2194514e-38 6.734267e-38 6.734125e-38 -6.299742e-38 6.3155087e-38
6.0428586e-38 6.743697e-38 6.1476886e-38 5.926851e-38 -5.8911574e-38 6.546204e-38 -5.6748737e-38 6.765828e-38
6.9776766e-38 6.9841254e-38 6.891734e-38 -6.3952745e-38 5.822005e-38 6.459443e-38 6.1626085e-38 6.690566e-38
5.7370235e-38 6.661905e-38 6.637838e-38 -5.829409e-38 -6.0398066e-38 6.701704e-38 -6.5014644e-38 5.743682e-38
-6.694171e-38 6.7241363e-38 6.4115907e-38 6.310071e-38 6.8739295e-38 6.490289e-38 -6.1440357e-38 5.9990624e-38
5.980594e-38 6.9636137e-38 -6.339919e-38 -160.15279 6.878056e-38 5.9039395e-38 6.277132e-38 6.4855383e-38
6.284288e-38 5.9423754e-38 -6.1023493e-38 5.928867e-38 -6.179898e-38 6.9612685e-38 6.64753e-38 6.1375735e-38
6.200057e-38 6.7212547e-38 6.701866e-38 5.8998656e-38 6.334143e-38 6.9156803e-38 6.90457e-38 -6.4752377e-38
6.988879e-38 5.7379417e-38 5.8279695e-38 -6.72701e-38 6.7477947e-38 6.163471e-38 5.741182e-38 6.4883e-38
6.215537e-38 5.781321e-38 6.98261e-38 5.722597e-38 5.7414763e-38 -6.9264244e-38 -6.180746e-38 -6.059117e-38
6.356022e-38 5.9833645e-38 6.3616753e-38 6.971552e-38 6.578323e-38 5.9262986e-38 6.7365395e-38 6.6217423e-38
6.23231e-38 118.57172 6.821722e-38 6.485445e-38 6.182267e-38 6.5192054e-38 -6.650886e-38 6.424051e-38
5.755599e-38 6.2586305e-38 -6.057412e-38 -6.83974e-38 5.923916e-38 6.1655473e-38 -6.617627e-38 -6.063551e-38
6.917318e-38 6.8607483e-38 6.9048634e-38 6.7889884e-38 6.174778e-38 -5.897752e-38 5.675213e-38 6.684659e-38
6.0666067e-38 5.761639e-38 6.8522195e-38 6.8372586e-38 -6.653795e-38 5.914528e-38 -6.950551e-38 5.653494e-38
5.822505e-38 5.732732e-38 6.203757e-38 -5.9919466e-38 -6.902646e-38 6.1541503e-38 6.503819e-38 -108.34404
5.9674693e-38 6.264988e-38 6.3361016e-38 -6.238873e-38 6.2641264e-38 6.706211e-38 5.963023e-38 5.711029e-38
5.74479e-38 6.7312504e-38 6.8414194e-38 -6.8333826e-38 -6.30289e-38 6.683228e-38 6.7342626e-38 5.859526e-38
6.268089e-38 6.0501605e-38 6.4015753e-38 5.667743e-38 5.63319e-38 5.86621e-38 6.5415824e-38 -6.540899e-38
6.8443397e-38 6.386903e-38 6.71183e-38 6.9702065e-38 -6.1393677e-38 6.654378e-38 -7.002586e-38 6.4895427e-38
6.2436086e-38 6.011498e-38 6.3410056e-38 161.91772 5.904486e-38 -5.987083e-38 6.106469e-38 -118.606445
6.333876e-38 -6.3120576e-38 6.912335e-38 -6.003068e-38 -6.794589e-38 6.471945e-38 6.891921e-38 6.4925807e-38
6.1780043e-38 5.9528924e-38 -6.3022827e-38 -5.7258995e-38 6.197652e-38 -6.717492e-38 165.59698 6.843505e-38
6.6633216e-38 -6.04699e-38 6.6370293e-38 6.078366e-38 6.72584e-38 5.934823e-38 -6.9699795e-38 6.726229e-38
5.688946e-38 5.8989183e-38 -117.954605 6.980195e-38 5.770086e-38 6.359489e-38 -6.1954897e-38 6.093411e-38
-6.8015205e-38 5.979692e-38 6.5173966e-38 6.9214963e-38 -206.50949 6.761059e-38 -6.3095156e-38 -6.7045355e-38
6.3281955e-38 6.981111e-38 6.001189e-38 5.7395055e-38 5.9240173e-38 6.3672514e-38 -6.3632223e-38 6.97786e-38
5.945158e-38 -6.0744203e-38 5.9138713e-38 -5.774336e-38 -134.41122 -6.444148e-38 6.3000804e-38 5.795977e-38
-5.909659e-38 6.3563857e-38 -6.6869413e-38 -5.830916e-38 -6.9482106e-38 -6.36377e-38 6.027168e-38 -137.49632
00000000: a7da a881 985d 9f01 e4f1 ba01 ec32 b501
00000010: e08a af81 f676 a701 1148 b481 85b8 b701
00000020: 4c0a a701 f9b9 9a01 39e9 b701 4670 ac81
00000030: 75a2 ad81 0989 a501 f817 af01 463f bd01
00000040: 5343 a501 8713 b301 29d4 ae81 b8e6 9981
00000050: cf11 a781 8540 b381 539b a201 9aaa 02c3
00000060: 9f3b b801 ca6b ac01 0bbe 9f01 404f a901
00000070: fe52 b701 0052 b701 cb7e ab81 acec ab01
00000080: 9480 a401 b594 b701 235b a701 2058 a101
00000090: 605f a081 6234 b201 197c 9a81 f12e b801
000000a0: 4ff3 bd01 4020 be01 609c bb01 8f18 ae81
000000b0: 747d 9e01 bfd7 af01 1dc3 a701 7122 b601
000000c0: 382d 9c01 b45a b501 fbb2 b401 0db1 9e81
000000d0: 4f6b a481 0f70 b601 98fc b081 9f5b 9c01
000000e0: 903b b681 640c b701 448a ae01 c7c6 ab01
000000f0: 4c20 bb01 b7ae b001 ae41 a781 5d4f a301
00000100: a8ce a201 4e91 bd01 c996 ac81 1d27 20c3
00000110: 0e3d bb01 74b8 a001 3ae1 aa01 9b8d b001
00000120: 1813 ab01 50c4 a101 2b1f a681 2c66 a101
00000130: 9a3b a881 f680 bd01 86f6 b401 a514 a701
00000140: 17c8 a801 4ff8 b601 3071 b601 109c a001
00000150: 896e ac01 4243 bc01 d5f5 bb01 d245 b081
00000160: 6141 be01 9e33 9c01 05a7 9e01 6b20 b781
00000170: 44b1 b701 20c9 a701 334a 9c01 daa0 b001
00000180: f933 a901 ed61 9d01 b115 be01 aec8 9b01
00000190: 404c 9c01 228e bc81 8341 a881 e2f1 a481
000001a0: 0207 ad01 f7e1 a201 682e ad01 a0c8 bd01
000001b0: 3814 b301 4654 a101 d462 b701 cf42 b401
000001c0: dda8 a901 b824 ed42 77b4 b901 f58c b001
000001d0: 1d4c a801 3b78 b101 e90d b581 1ae1 ae01
000001e0: acae 9c01 4a60 aa01 00e6 a481 0832 ba81
000001f0: ab43 a101 98d7 a701 2126 b481 c810 a581
00000200: ac4e bc01 70c4 ba01 e0f7 bb01 58d0 b801
00000210: ec17 a801 558d a081 767e 9a01 46f9 b501
00000220: 1426 a501 c3d8 9c01 0089 ba01 bd20 ba01
00000230: 2f22 b581 3f02 a101 4536 bd81 1ae7 9901
00000240: f080 9e01 500f 9c01 e0e1 a801 c61d a381
00000250: 6ce8 bb81 2b88 a701 010d b101 26b0 d8c2
00000260: 3173 a201 988c aa01 2f7c ac01 99d6 a981
00000270: 9786 aa01 788f b601 3554 a201 1078 9b01
00000280: 5863 9c01 f83d b701 bc3d ba01 ba05 ba81
00000290: bc94 ab81 4def b501 f652 b701 f082 9f01
000002a0: 34a2 aa01 77b3 a401 7844 ae01 674a 9a01
000002b0: 9b59 9901 84b1 9f01 2d14 b201 6a0f b281
000002c0: 1652 ba01 38de ad01 a1b6 b601 40bf bd01
000002d0: 2621 a781 3f26 b501 e7a0 be81 83a9 b001
000002e0: 9af7 a901 07a6 a301 5c9e ac01 f0ea 2143
000002f0: 43bc a001 e1fb a281 e13b a601 8036 edc2
00000300: ac6c ac01 9fd4 ab81 f22b bc01 476b a381
00000310: 60f7 b881 e02e b001 ae9d bb01 afbe b001
00000320: 682e a801 9b0d a201 8090 ab81 b2df 9b81
00000330: 55b7 a801 16de b681 d498 2543 454c ba01
00000340: 9364 b501 5f9d a481 58ad b401 0778 a501
00000350: 4418 b701 ae8f a101 abbd bd81 fa1a b701
00000360: 2bde 9a01 7695 a001 c2e8 ebc2 dc04 be01
00000370: a113 9d01 2c1f ad01 43a8 a881 e0e0 a501
00000380: ae27 b981 5fc8 a201 a06b b101 ca6b bc01
00000390: 6e82 4ec3 b40d b801 e8c2 ab81 cb83 b681
000003a0: 1645 ac01 3e0b be01 2f5e a301 843e 9c01
000003b0: 6044 a101 4455 ad01 3039 ad81 96f4 bd01
000003c0: b4d7 a101 885c a581 abfd a001 4031 9d81
000003d0: 4669 06c3 286d af81 2781 ab01 11c8 9d01
000003e0: 50e0 a081 8b09 ad01 2e09 b681 8ebb 9e81
000003f0: f625 bd81 013d ad81 3b13 a401 0f7f 09c3
