unet/unet-segment-master/np_weights/down4.maxpool_conv.1.double_conv.1.weight.npy (npy, 2176 bytes, 1 tensors)

array f4 [512]
0	0x019d5a68	5.780242e-38
1	0x019dc309	5.7952553e-38
2	0x01ae10cf	6.3941624e-38
3	0x81b3d755	-6.60632e-38
4	0x4344006d	196.00166
5	0x81ab8942	-6.3012435e-38
6	0x01a7942d	6.1558733e-38
7	0x01b30c16	6.577156e-38
8	0x01ade3a2	6.38768e-38
9	0x01bb7466	6.8859975e-38
10	0x819bed9d	-5.7278966e-38
11	0x01b2b1bd	6.5641915e-38
12	0x01a69b4e	6.120162e-38
13	0x01ba6abe	6.8478777e-38
14	0x01b6f3af	6.720591e-38
15	0x01b24653	6.5487784e-38
16	0x01aabaeb	6.271635e-38
17	0x01bbc892	6.8980755e-38
18	0xc31eebc4	-158.92096
19	0x81affdd7	-6.464909e-38
20	0x81bccf30	-6.935759e-38
21	0x01abb4a2	6.3074675e-38
22	0x01a7eef3	6.1688987e-38
23	0x81aead99	-6.4166606e-38
24	0x01be8036	6.997895e-38
25	0x01b57e76	6.667036e-38
26	0x019da514	5.7909567e-38
27	0xc339b11e	-185.69186
28	0x019cbec4	5.7579085e-38
29	0x01b8786f	6.776374e-38
30	0xc361aafb	-225.6679
31	0x01a3cc59	6.016997e-38
32	0x01ad6634	6.369682e-38
33	0x81ab8539	-6.3006645e-38
34	0x01b91fd8	6.800396e-38
35	0x01ab8b9e	6.301582e-38
36	0x81ad6692	-6.3697345e-38
37	0x01a1e52d	5.947091e-38
38	0x0199438c	5.630025e-38
39	0x01ae56d6	6.404211e-38
40	0x0198a638	5.6074494e-38
41	0x01a1a5e2	5.938009e-38
42	0x01b626c0	6.6911845e-38
43	0x01aca475	6.3418806e-38
44	0x01bd0463	6.943393e-38
45	0x01a6eece	6.132144e-38
46	0x01baeae0	6.866264e-38
47	0x81b21b9d	-6.5426496e-38
48	0x81abe513	-6.3144185e-38
49	0x01bae9e7	6.866124e-38
50	0x01b20ee5	6.5408246e-38
51	0x01af5212	6.440261e-38
52	0x019c8c78	5.750691e-38
53	0x01a1eef7	5.948496e-38
54	0x81b39f43	-6.5982745e-38
55	0x81b1e8ba	-6.535348e-38
56	0x01999935	5.6423165e-38
57	0x81badcdf	-6.8642544e-38
58	0x81b0d400	-6.4956394e-38
59	0x019be750	5.7269925e-38
60	0x81bd82d0	-6.961534e-38
61	0x01b99416	6.817076e-38
62	0x019e3e71	5.812963e-38
63	0x01a98b6d	6.228086e-38
64	0x01ba4239	6.8420634e-38
65	0x81a99410	-6.2293255e-38
66	0x81ac624d	-6.3323876e-38
67	0x01a4185f	6.0279056e-38
68	0x01a0b788	5.903807e-38
69	0x01b6ad5a	6.710499e-38
70	0x81af93d5	-6.4496976e-38
71	0x81b137a3	-6.5099366e-38
72	0x019aeff9	5.691501e-38
73	0x81a5798e	-6.078585e-38
74	0x01ab588f	6.2942555e-38
75	0x01a09c94	5.8999396e-38
76	0x01b46b56	6.6275577e-38
77	0x01bce11c	6.938331e-38
78	0x81acabe1	-6.3429455e-38
79	0x01a9b48d	6.2339873e-38
80	0x8199573c	-5.63285e-38
81	0x019d7845	5.784527e-38
82	0x01a57894	6.078445e-38
83	0x01a102c1	5.914601e-38
84	0x01a6363f	6.105661e-38
85	0x0198eed8	5.6178706e-38
86	0x019e76e0	5.821061e-38
87	0x01a39b70	6.0099785e-38
88	0x81b29320	-6.559799e-38
89	0x019f726a	5.857155e-38
90	0x01bc04d6	6.906723e-38
91	0x01a5efd8	6.0955586e-38
92	0x01bd7d18	6.9607136e-38
93	0x81a18382	-5.9330764e-38
94	0x01b80e9e	6.76119e-38
95	0x01a1f0da	5.9487665e-38
96	0x01a9d1a8	6.238164e-38
97	0x01a76d2c	6.1502765e-38
98	0x81b3fd4a	-6.611767e-38
99	0x01a19d1a	5.936749e-38
100	0x81a773b3	-6.151213e-38
101	0x01bb8413	6.888247e-38
102	0x81b75b64	-6.735472e-38
103	0x01ba3282	6.8398084e-38
104	0x01bbc9e4	6.898265e-38
105	0x01a74ddb	6.145783e-38
106	0x01afa78f	6.452528e-38
107	0x01b4f918	6.647899e-38
108	0x01a8f068	6.205842e-38
109	0x01a39e14	6.0103574e-38
110	0x01a87a93	6.188934e-38
111	0x01b0d1da	6.495331e-38
112	0x81bda0a5	-6.965815e-38
113	0x01bcf1b5	6.9407126e-38
114	0x81b26b5b	-6.554092e-38
115	0x019964c7	5.634793e-38
116	0x01b0f22e	6.49997e-38
117	0x4319f6b3	153.96367
118	0x01b0b85e	6.4916743e-38
119	0x01b8bd41	6.786249e-38
120	0x01a90d40	6.209981e-38
121	0x81b3cd3a	-6.60487e-38
122	0x01ae4d28	6.402822e-38
123	0x81bc6c54	-6.9215736e-38
124	0x019cd73a	5.7614185e-38
125	0xc3527916	-210.47299
126	0x01b72a00	6.728385e-38
127	0x01ab00d5	6.2816673e-38
128	0x0199b70c	5.6465983e-38
129	0x019ad537	5.6876614e-38
130	0x01aad014	6.2746715e-38
131	0x81a62081	-6.102541e-38
132	0x01b0731c	6.4817363e-38
133	0x01abe394	6.314204e-38
134	0x01a10e6a	5.916274e-38
135	0x81bc0dca	-6.908008e-38
136	0x01a7c7bc	6.1632716e-38
137	0x019b06b5	5.694763e-38
138	0x01a6506a	6.109416e-38
139	0x01bb6836	6.8842486e-38
140	0x019c3599	5.738226e-38
141	0x01b142a5	6.511516e-38
142	0x019f5481	5.852863e-38
143	0x01a20813	5.952099e-38
144	0x01b7d907	6.7535e-38
145	0x819cf474	-5.765612e-38
146	0x01a13ec4	5.9232124e-38
147	0x019f0d94	5.842686e-38
148	0x01afb558	6.4545063e-38
149	0x01bd4e55	6.9540036e-38
150	0x01af7e62	6.44662e-38
151	0xc30fc38d	-143.76387
152	0x01abf067	6.316044e-38
153	0x81be7306	-6.996003e-38
154	0x81ba44f2	-6.842454e-38
155	0x0198d80c	5.6145994e-38
156	0x81b32664	-6.5809303e-38
157	0x01a97b93	6.2258116e-38
158	0x01a7fd09	6.17092e-38
159	0x81aac68e	-6.273305e-38
160	0x81a823d4	-6.1764864e-38
161	0xc35b5115	-219.31673
162	0x01b60be4	6.6873303e-38
163	0x01a1f025	5.948665e-38
164	0x01b971d0	6.812158e-38
165	0x01aa962e	6.2663635e-38
166	0x01a4d9b5	6.055648e-38
167	0x01ae8716	6.4111344e-38
168	0x81a6d817	-6.1288843e-38
169	0x01bcb582	6.9320744e-38
170	0x01a4d494	6.054912e-38
171	0x01a4ab1f	6.048963e-38
172	0x019fbcc4	5.867824e-38
173	0x01b2bc3f	6.5656993e-38
174	0x01a675c4	6.1147755e-38
175	0x81bcb180	-6.9314993e-38
176	0x01b15ce4	6.515282e-38
177	0x01afd0f0	6.458466e-38
178	0x019d9f4a	5.790126e-38
179	0x01a321e7	5.992539e-38
180	0x01bb4582	6.879269e-38
181	0x01a15c14	5.9274185e-38
182	0x01b54b04	6.659654e-38
183	0x01acf4d7	6.353415e-38
184	0x01bebb10	7.00634e-38
185	0x01b118b8	6.5055e-38
186	0x01ad329b	6.362278e-38
187	0x01b3d8d4	6.606535e-38
188	0x01a418af	6.0279505e-38
189	0x81bdce1f	-6.9723404e-38
190	0x01b37ed2	6.5936193e-38
191	0x81a0ed8f	-5.91156e-38
192	0x01a6d635	6.128614e-38
193	0x81b4c0fb	-6.639847e-38
194	0x01baea1e	6.866155e-38
195	0x01a70462	6.13524e-38
196	0x01b191ee	6.522893e-38
197	0x01bdda82	6.974118e-38
198	0x0199c1f3	5.6481627e-38
199	0x019cd86a	5.761589e-38
200	0x01b83730	6.7670115e-38
201	0x01a46711	6.039198e-38
202	0x019cee6e	5.764748e-38
203	0x81a81029	-6.173664e-38
204	0x01b50774	6.6499594e-38
205	0x01be9d3e	7.002061e-38
206	0x01ab2d1c	6.288021e-38
207	0x01a3f843	6.023298e-38
208	0x01aff472	6.463561e-38
209	0x01b18b15	6.5219104e-38
210	0x0198b3d9	5.609405e-38
211	0x81b326bf	-6.5809813e-38
212	0x019da64e	5.7911327e-38
213	0x01ae396d	6.399991e-38
214	0x81a38c14	-6.0077746e-38
215	0x019f3f6e	5.849839e-38
216	0x01a2c033	5.9785194e-38
217	0x01ad1f9f	6.359554e-38
218	0x432bac09	171.67201
219	0x019a95c5	5.6785574e-38
220	0x01a5871a	6.080529e-38
221	0x0199e922	5.6537853e-38
222	0x81b18882	-6.521541e-38
223	0x01ba73da	6.849185e-38
224	0x01b1eb16	6.5356863e-38
225	0x01a8a6ea	6.1952963e-38
226	0x01b698a0	6.707525e-38
227	0x01b27eff	6.5569104e-38
228	0x01a880ac	6.189809e-38
229	0x01ab8e20	6.301942e-38
230	0x01a7f83b	6.1702305e-38
231	0x01b59154	6.6697435e-38
232	0x81b27dcd	-6.556739e-38
233	0x43053d1e	133.23874
234	0x81a47e2e	-6.0425144e-38
235	0x81bb92a2	-6.890336e-38
236	0x81a256df	-5.9634055e-38
237	0x81acd169	-6.348331e-38
238	0x019c527b	5.7423703e-38
239	0x01bb2405	6.8744637e-38
240	0x019a81c2	5.675686e-38
241	0x01acc903	6.347126e-38
242	0x01a5b3a8	6.086922e-38
243	0x01b483bf	6.6310604e-38
244	0x01bc111a	6.908483e-38
245	0x8199ed42	-5.654377e-38
246	0x01b6d855	6.716666e-38
247	0x819c88fa	-5.75019e-38
248	0x01b81774	6.762458e-38
249	0x01aa28b3	6.250654e-38
250	0x819c861e	-5.74978e-38
251	0x01bad3c8	6.86295e-38
252	0x01aab72f	6.2710993e-38
253	0x81b387de	-6.5949175e-38
254	0x01a74894	6.1450256e-38
255	0x81b87700	-6.776168e-38
