unet/unet-segment-master/np_weights/down1.maxpool_conv.1.double_conv.3.weight.npy (npy, 589952 bytes, 1 tensors)

array f4 [128, 128, 3, 3]
00000000: ba13 9a81 c4ca a081 1c87 a281 f4c0 a281
00000010: b390 9981 9e37 b401 edf4 a681 6027 b301
00000020: 6d79 a781 7b59 a381 b5ca b081 137d af81
00000030: 53f2 a481 c624 9c01 4b47 b181 3870 a781
00000040: 8347 9c81 cec9 b581 73d9 a781 3ea3 ab81
00000050: f583 aa81 501e 9a81 e433 b881 6719 b681
00000060: 1cef b681 13ba 9e81 8187 b581 c433 b881
00000070: 543e a081 89c8 b081 bf84 be81 d2ca 9e81
00000080: 1f10 9a81 47e5 a381 57f4 ba81 dbfc bb81
00000090: 27e4 9a01 9f4e a301 099f be01 8aab a701
000000a0: e9d8 b801 d23a af01 46e2 af01 027b 9c01
000000b0: d23a 9c01 23ce b881 589b a381 7c9e a781
000000c0: 63e9 ab81 78fa ad81 af5b b081 8aed ae81
000000d0: 69c7 b481 8677 9b81 ea76 a481 3374 b681
000000e0: 445c 9c81 cb63 a681 045d 9c81 446b bc81
000000f0: e96c ba81 2f97 9d81 fa69 b081 d2c8 a081
00000100: fe7c 9d81 4b41 a181 fdd5 ba81 2990 aa81
00000110: 7deb b281 0153 9c81 dedd bb81 8e54 aa81
00000120: 72f2 b201 a94b be01 973f b901 d4e9 ba01
00000130: 3580 b101 c657 9e01 bff1 9901 f1b9 b701
00000140: ba85 b401 0c93 9a01 8089 b601 303e b701
00000150: e068 9e01 9aff af01 319b be01 e620 9e01
00000160: 6ea8 a101 63cd bd01 ab81 ab01 f6ef b601
00000170: 4d2e ae01 edfa a701 4c03 ae01 c643 9e01
00000180: 03a5 b601 7761 b301 91e0 bb01 1192 a201
00000190: 1bef 9a01 a9bf 9a01 d1eb b901 1891 9e01
000001a0: d709 a601 a808 ac01 74aa b601 1b6e ad01
000001b0: 5f71 bc81 a390 ba01 c25c be01 51e2 a101
000001c0: b18e a901 7622 9c81 000e a501 fa5e a581
000001d0: 5920 ab01 8c30 bd01 b2af aa01 6788 9b01
000001e0: cff7 b501 6c59 a301 b2a3 ac01 24df 9901
000001f0: 79f6 b501 e9f6 b201 c15f a201 77fc b701
00000200: b8fe 9901 c534 bc01 8d85 ab01 05f1 a301
00000210: a577 ab01 4f42 b801 278c 9901 4240 ac81
00000220: 6242 aa81 8fcc a581 a59b b481 9977 b881
00000230: eed8 bc81 2561 a781 89a9 be81 f7ee ab81
00000240: 04ae ad01 3b8e ae81 5562 ac81 9cb9 a201
00000250: 6546 9c01 49fb bb81 e1a2 af81 24e0 9d81
00000260: 9efc 9f01 a80c ab01 f85e b101 526e b601
00000270: 6c59 a001 0031 be01 cc0a b201 492e a801
00000280: a4f2 b501 1de7 bb01 bdff ac01 f654 b001
00000290: 4418 ba01 d463 9901 f5f2 a701 d710 9e01
000002a0: a84a b101 a2f3 9a01 657a a901 b2cd 9f01
000002b0: c036 ba01 eef7 bb81 079b 9b01 5fe0 9801
000002c0: d4b8 bb81 fff3 9d01 e444 a101 9c91 9a01
000002d0: 7a37 ba01 e817 a401 5251 b401 81ab 9e01
000002e0: d528 9901 1a1a 9f01 63f0 9f01 46b8 9e01
000002f0: 6b3f aa01 1a71 a681 f90b a981 c3f4 b981
00000300: 156a b581 201c b881 cd17 b581 4079 a581
00000310: 4e4a b881 f9cb 9a81 eab3 a981 f090 9b81
00000320: 784e b281 3487 b581 bc82 b581 ff56 b181
00000330: 75ec b181 54d2 ba81 9557 b281 7de0 9e01
00000340: efee a501 10c7 9b01 a804 a701 8978 b101
00000350: 5abb a801 beb5 ad01 8ab8 be01 9bf4 b701
00000360: 55b8 af81 57c3 b681 d9e8 9b81 57fc ba81
00000370: d27f b181 886c b381 edd6 a281 bdd8 b981
00000380: bb59 b181 6f4c a301 7ff5 b101 4855 b501
00000390: bca9 9e01 f2fe 9b01 f561 b801 f256 b001
000003a0: 9c89 a901 67f8 9b01 5a61 a601 dbe6 ab01
000003b0: 05e8 ab01 400b 9d01 5907 b501 66b5 a701
000003c0: bcca 9e01 5ae6 a401 9399 a101 a17e a901
000003d0: 9cab af01 fa1c 9e01 d6d0 a401 b132 ae01
000003e0: abf7 9f81 2d64 9d01 5cd5 a001 8483 b101
000003f0: 985a b081 d729 ba01 71d8 9a81 607a bc81
-5.659897e-38 -5.906567e-38 -5.9703274e-38 -5.9786276e-38 -5.6410957e-38 6.6201364e-38 -6.133022e-38 6.5810716e-38
-6.152035e-38 -6.000514e-38 -6.494306e-38 -6.446432e-38 -6.0591804e-38 5.7358117e-38 -6.512183e-38 -6.150714e-38
-5.7407964e-38 -6.6778475e-38 -6.1658136e-38 -6.304972e-38 -6.2637486e-38 -5.661416e-38 -6.7665385e-38 -6.689269e-38
-6.7199346e-38 -5.8307037e-38 -6.668334e-38 -6.7665205e-38 -5.8864154e-38 -6.4939943e-38 -6.998546e-38 -5.8331066e-38
-5.65938e-38 -6.020574e-38 -6.867622e-38 -6.905578e-38 5.689805e-38 5.998956e-38 7.002318e-38 6.159226e-38
6.7902176e-38 6.436925e-38 6.4609534e-38 5.7481857e-38 5.738975e-38 -6.7886717e-38 -6.009965e-38 -6.1573525e-38
-6.3150373e-38 -6.390957e-38 -6.478375e-38 -6.4258357e-38 -6.6407697e-38 -5.7109515e-38 -6.041472e-38 -6.702298e-38
-5.7437744e-38 -6.1121965e-38 -5.743882e-38 -6.921421e-38 -6.848189e-38 -5.788963e-38 -6.480426e-38 -5.906288e-38
-5.7852047e-38 -5.923575e-38 -6.863267e-38 -6.2654997e-38 -6.572478e-38 -5.7424454e-38 -6.9011315e-38 -6.256947e-38
6.5734765e-38 6.9903544e-38 6.8049514e-38 6.8661136e-38 6.52035e-38 5.816598e-38 5.655021e-38 6.7490396e-38
6.6313445e-38 5.678167e-38 6.7053544e-38 6.731282e-38 5.819052e-38 6.465162e-38 7.0017666e-38 5.808724e-38
5.9383744e-38 6.972235e-38 6.3001544e-38 6.720057e-38 6.3983944e-38 6.170617e-38 6.3922236e-38 5.8137284e-38
6.709302e-38 6.589407e-38 6.901519e-38 5.9718997e-38 5.6913765e-38 5.6845684e-38 6.8296647e-38 5.8248233e-38
6.099289e-38 6.319524e-38 6.710083e-38 6.3708157e-38 -6.922297e-38 6.853315e-38 6.992808e-38 5.946681e-38
6.228555e-38 -5.73548e-38 6.0631516e-38 -6.074771e-38 6.2861896e-38 6.9497296e-38 6.270025e-38 5.7133735e-38
6.6844487e-38 6.000506e-38 6.341771e-38 5.6523515e-38 6.684257e-38 6.574117e-38 5.96468e-38 6.758585e-38
5.6568827e-38 6.9136014e-38 6.3007115e-38 6.022259e-38 6.298716e-38 6.7686073e-38 5.640443e-38 -6.3275027e-38
-6.254339e-38 -6.0904955e-38 -6.6344896e-38 -6.776254e-38 -6.937157e-38 -6.1485507e-38 -7.003825e-38 -6.3158377e-38
6.3799864e-38 -6.4121596e-38 -6.332392e-38 5.977574e-38 5.740636e-38 -6.905353e-38 -6.4518567e-38 -5.799432e-38
5.8769863e-38 6.283364e-38 6.5155805e-38 6.7014543e-38 5.890303e-38 6.986529e-38 6.5402366e-38 6.177987e-38
6.683707e-38 6.902458e-38 6.354979e-38 6.47741e-38 6.836043e-38 5.634657e-38 6.169474e-38 5.80642e-38
6.512666e-38 5.692026e-38 6.2256423e-38 5.8702534e-38 6.840417e-38 -6.904871e-38 5.716046e-38 5.615794e-38
-6.8958166e-38 5.802281e-38 5.924091e-38 5.6779605e-38 6.8405214e-38 6.027839e-38 6.6238246e-38 5.828613e-38
5.6261915e-38 5.844483e-38 5.8752314e-38 5.8304453e-38 6.253914e-38 -6.114106e-38 -6.2097975e-38 -6.8309483e-38
-6.664112e-38 -6.763128e-38 -6.652305e-38 -6.078541e-38 -6.7697547e-38 -5.686335e-38 -6.233896e-38 -5.714598e-38
-6.549947e-38 -6.6682906e-38 -6.6676494e-38 -6.5144365e-38 -6.535883e-38 -6.8627415e-38 -6.551255e-38 5.836216e-38
6.095428e-38 5.722365e-38 6.1352793e-38 6.519249e-38 6.198229e-38 6.381095e-38 7.005978e-38 6.7574575e-38
-6.454935e-38 -6.713654e-38 -5.727213e-38 -6.86877e-38 -6.5202944e-38 -6.590995e-38 -5.9817805e-38 -6.826927e-38
-6.514829e-38 5.998642e-38 6.53718e-38 6.661127e-38 5.828359e-38 5.7303836e-38 6.7731487e-38 6.477695e-38
6.2278255e-38 5.729445e-38 6.111846e-38 6.314674e-38 6.314841e-38 5.7688835e-38 6.649944e-38 6.1606405e-38
5.8330943e-38 6.0574624e-38 5.936243e-38 6.22625e-38 6.4531095e-38 5.8081613e-38 6.054375e-38 6.3990244e-38
-5.876276e-38 5.7816437e-38 5.9080873e-38 6.5208247e-38 -6.4782185e-38 6.8385646e-38 -5.6881244e-38 -6.923589e-38
