unet/unet-segment-master/np_weights/down1.maxpool_conv.1.double_conv.3.bias.npy (npy, 640 bytes, 1 tensors)

array f4 [128]
0	0x81b8bcad	-6.786166e-38
1	0x81a94254	-6.217597e-38
2	0x81adf915	-6.390758e-38
3	0x01a007c8	5.8785883e-38
4	0x81bc21de	-6.910889e-38
5	0x01a56f53	6.077117e-38
6	0x819a93d5	-5.6782794e-38
7	0x81b6350a	-6.693235e-38
8	0x3e74efdb	0.23919623
9	0xbeb0de7e	-0.34544748
10	0x81b0593a	-6.4780223e-38
11	0x01ae4767	6.401996e-38
12	0x019cf05c	5.765025e-38
13	0x019c4688	5.7406557e-38
14	0x81b66d3e	-6.7012996e-38
15	0x81a2a13c	-5.974076e-38
16	0x81baa9a1	-6.8569015e-38
17	0x81b005c7	-6.466048e-38
18	0x01bcfa30	6.9419295e-38
19	0x3ed8da98	0.42354274
20	0xbdcc42d4	-0.09973684
21	0x81a5f109	-6.0957296e-38
22	0x01b3be23	6.602705e-38
23	0x81a16848	-5.9291696e-38
24	0x01bb89b0	6.8890523e-38
25	0x819e35a2	-5.8116993e-38
26	0x81a35533	-5.9999e-38
27	0x01a06a5b	5.892733e-38
28	0x01a77a3b	6.1521504e-38
29	0x01a183fb	5.933144e-38
30	0x81aeb751	-6.418055e-38
31	0x81b24dcd	-6.549851e-38
32	0x81a38ac5	-6.007587e-38
33	0x01b5041a	6.6494785e-38
34	0x01b30513	6.5761496e-38
35	0x3eafd37a	0.3434103
36	0x819e6352	-5.818255e-38
37	0x819a708d	-5.673217e-38
38	0x819c471d	-5.740739e-38
39	0xbdcea336	-0.10089724
40	0x01be69af	6.9946626e-38
41	0x01bd40d0	6.9520636e-38
42	0x01b7e406	6.755078e-38
43	0x01a8d726	6.2022176e-38
44	0x81b630c3	-6.692621e-38
45	0x01b56474	6.663304e-38
46	0x019b1d44	5.698e-38
47	0x01a94a6b	6.218758e-38
48	0x81b442e6	-6.621755e-38
49	0x01a227f8	5.9566754e-38
50	0x0199fa25	5.6562263e-38
51	0x81bbc5b3	-6.8976636e-38
52	0x819ef204	-5.838731e-38
53	0x819c34f4	-5.7381334e-38
54	0x01ae8f98	6.412355e-38
55	0x019e2984	5.8099606e-38
56	0x81a57d68	-6.0791377e-38
57	0x81a3db89	-6.019176e-38
58	0x81a9e863	-6.2414254e-38
59	0x81a64e45	-6.109108e-38
60	0x819f5bbf	-5.8539025e-38
61	0x819af9e6	-5.692925e-38
62	0x3f23a236	0.6391939
63	0x01ab15d6	6.284681e-38
64	0x019c0477	5.7311756e-38
65	0x01b51704	6.6521925e-38
66	0x81a66171	-6.111859e-38
67	0x81ab40c1	-6.2908397e-38
68	0x81a7455d	-6.1445643e-38
69	0x81ab621e	-6.295627e-38
70	0x01b2c431	6.5668394e-38
71	0x019ba521	5.7174956e-38
72	0x019a7895	5.674369e-38
73	0x81aec9e4	-6.4207204e-38
74	0x01aab41d	6.270659e-38
75	0x01bdfb40	6.978816e-38
76	0xbe8303be	-0.25588793
77	0x019c6061	5.7443647e-38
78	0x81a856dc	-6.183809e-38
79	0x81ae33c6	-6.3991797e-38
80	0x01b2ac3e	6.563403e-38
81	0x81bab08c	-6.857894e-38
82	0x01b577b6	6.6660676e-38
83	0x01b6a5ad	6.7093974e-38
84	0x01b59d6a	6.671478e-38
85	0x81a57424	-6.077808e-38
86	0x01a00de7	5.8794666e-38
87	0x81b47d73	-6.630157e-38
88	0x81a20685	-5.9518757e-38
89	0x01b13aed	6.5104086e-38
90	0x01ba7203	6.848921e-38
91	0x81b42942	-6.618076e-38
92	0x81a87ba3	-6.1890863e-38
93	0x01a6ffa0	6.1345573e-38
94	0x81bb0076	-6.869361e-38
95	0x81b35511	-6.587628e-38
96	0x819ad321	-5.687362e-38
97	0x01be2fe9	6.9863725e-38
98	0x3f3b3e5d	0.73142034
99	0x01a49c00	6.0467935e-38
100	0x019a90b0	5.677828e-38
101	0x81bc6f7f	-6.922028e-38
102	0x01a5f5d5	6.096418e-38
103	0x819953d2	-5.63236e-38
104	0x01a8a9ec	6.195728e-38
105	0x81b9171a	-6.7991416e-38
106	0x81a007ae	-5.878574e-38
107	0x01a993b9	6.2292767e-38
108	0x81ac8291	-6.3370175e-38
109	0x01ac3c8a	6.326969e-38
110	0x01b3fd5f	6.6117785e-38
111	0x81be3e91	-6.9884755e-38
112	0x81b8b56e	-6.7851264e-38
113	0x01b19a93	6.5241334e-38
114	0x81af6b6d	-6.4438996e-38
115	0x81a7cc46	-6.163923e-38
116	0x019cd7b2	5.7614857e-38
117	0x81b95921	-6.808616e-38
118	0x81b28d52	-6.558966e-38
119	0x81b54446	-6.6586867e-38
120	0x81bd20e0	-6.947481e-38
121	0x81af3ca5	-6.437187e-38
122	0x819d21bc	-5.77211e-38
123	0x01a27570	5.9677916e-38
124	0x81b8ea03	-6.7926716e-38
125	0x81b93b0d	-6.8043e-38
126	0x019db608	5.7933894e-38
127	0x81b0cf0d	-6.494929e-38
