unet/unet-segment-master/np_weights/down1.maxpool_conv.1.double_conv.4.weight.npy (npy, 640 bytes, 1 tensors)

array f4 [128]
000000 83 08 b9 01 38 e7 99 81 e4 60 ad 81 f2 e5 bc 81
       6.797048e-38 -5.6535106e-38 -6.3689195e-38 -6.939025e-38
000010 40 31 ab 01 c0 7d a3 01 8b 87 af 01 b8 cc b3 01
       6.288615e-38 6.0057186e-38 6.447934e-38 6.604797e-38
000020 1d 4d 8c 43 1a 4e 37 43 63 81 b4 81 c8 43 a1 01
       280.60245 183.30508 -6.630722e-38 5.923932e-38
000030 82 1f b7 01 9e ff a7 01 97 de bc 01 26 88 aa 01
       6.7268795e-38 6.1712904e-38 6.9379694e-38 6.26435e-38
000040 aa 32 a6 01 93 d2 99 01 d5 5f 9e 01 68 26 43 43
       6.105147e-38 5.6505483e-38 5.8177546e-38 195.15002
000050 2f 7c 80 43 19 15 b1 81 ba 43 a2 81 5a 4c bb 81
       256.97018 -6.5049805e-38 -5.9606584e-38 -6.880251e-38
000060 47 6d a1 01 47 83 ac 01 4c 10 9c 81 c3 cd 98 01
       5.9298865e-38 6.3371195e-38 -5.7328734e-38 5.6131235e-38
000070 88 cc a9 81 49 ac 9f 81 b5 1e b5 01 62 44 af 01
       -6.2374283e-38 -5.865459e-38 6.653296e-38 6.438297e-38
000080 e9 e3 99 01 7c 92 a5 01 9d c8 b8 01 0b 8a 74 43
       5.653036e-38 6.082162e-38 6.787879e-38 244.53923
000090 6b c0 b3 01 06 f4 9b 01 11 24 b5 01 aa b1 9d 43
       6.603032e-38 5.7288164e-38 6.654065e-38 315.388
0000a0 fe de ae 01 37 b7 ba 01 de cc b3 01 1e b0 a6 81
       6.4237483e-38 6.858851e-38 6.6048185e-38 -6.1231485e-38
0000b0 57 64 b9 01 8e fb a0 01 ce e0 ab 01 a5 8a 9a 01
       6.810225e-38 5.913568e-38 6.313806e-38 5.676961e-38
0000c0 02 08 b0 81 ed 0e 9e 01 28 6d ac 01 62 f3 b3 01
       -6.466368e-38 5.806145e-38 6.3339453e-38 6.610345e-38
0000d0 3d 7e a5 01 d8 2b 9b 81 8a 55 bd 01 c0 e0 99 01
       6.079257e-38 -5.700092e-38 6.955038e-38 5.6525824e-38
0000e0 c4 67 a8 01 32 72 b5 01 ab fa 9b 81 f7 c2 af 01
       6.186235e-38 6.665276e-38 -5.72977e-38 6.456461e-38
0000f0 c2 7b b7 01 64 44 b1 01 8a f8 26 c3 1f 3c b2 01
       6.7401167e-38 6.5117667e-38 -166.97086 6.5473143e-38
000100 25 2b b1 81 6a b4 a6 01 ec 50 9a 81 82 63 b5 81
       -6.508144e-38 6.123765e-38 -5.6686783e-38 -6.6631686e-38
000110 0a c0 a3 01 af d3 b3 81 22 b5 af 01 ee 74 9c 01
       6.0152306e-38 -6.6057966e-38 6.454476e-38 5.7473135e-38
000120 10 6e b3 01 09 34 a6 01 c7 65 b0 01 9d 77 99 81
       6.5912147e-38 6.1053436e-38 6.479823e-38 -5.637496e-38
000130 22 3f 55 43 1a 16 b4 01 2e f4 bb 81 76 95 a0 01
       213.24661 6.615327e-38 -6.904333e-38 5.8989183e-38
000140 94 41 b8 01 94 36 aa 01 72 3f be 81 18 63 b8 81
       6.7685025e-38 6.2526453e-38 -6.9886017e-38 -6.773312e-38
000150 ff 18 ac 01 2e 03 a0 01 fd 8a 9b 81 04 41 9e 01
       6.321869e-38 5.877928e-38 -5.7137446e-38 5.8133326e-38
000160 8a 22 bc 01 2e c8 af 81 69 6e b3 01 b8 6d a3 01
       6.9109854e-38 -6.457209e-38 6.5912646e-38 6.003418e-38
000170 95 ae be 01 62 d7 a5 81 d5 69 b3 01 83 0d a3 01
       7.004549e-38 -6.0920487e-38 6.5906077e-38 5.989613e-38
000180 4a 68 b1 01 a8 27 99 01 0b 8a 5b c3 20 dc b1 81
       6.516918e-38 5.626023e-38 -219.53923 -6.5335395e-38
000190 a1 e0 b8 81 82 be a9 01 d3 c5 aa 01 b0 07 b9 81
       -6.791325e-38 6.235416e-38 6.2732e-38 -6.79693e-38
0001a0 ae 88 a6 01 43 b9 a2 01 ee fe 9d 81 04 ba 9d 01
       6.1174895e-38 5.977524e-38 -5.80385e-38 5.793961e-38
0001b0 db 72 a5 01 d3 f0 ac 01 34 0e b6 01 9d be ae 01
       6.0776237e-38 6.3528387e-38 6.687662e-38 6.419102e-38
0001c0 3e bb bb 01 f2 02 b9 01 ad 17 be 01 37 3c bd 01
       6.896163e-38 6.7962493e-38 6.982895e-38 6.951404e-38
0001d0 ee 8a a8 01 8f 7d a7 01 26 e4 af 01 ad c3 9e 01
       6.191281e-38 6.152628e-38 6.4612224e-38 5.8320815e-38
0001e0 20 c4 a4 01 3d 89 b6 81 48 8c a0 01 d7 70 ba 01
       6.052551e-38 -6.705317e-38 5.897601e-38 6.8487526e-38
0001f0 0e da a6 01 0b 92 a9 81 d2 76 b4 01 37 ae 9e 01
       6.129166e-38 -6.2290357e-38 6.6292056e-38 5.829002e-38
