unet/unet-segment-master/np_weights/down1.maxpool_conv.1.double_conv.1.weight.npy (npy, 640 bytes, 1 tensors)

array f4 [128]
0	0x019f9017	5.8614134e-38
1	0x01a7d754	6.165509e-38
2	0x01b64a36	6.696273e-38
3	0x019d12ba	5.7699563e-38
4	0x81a7ad87	-6.159511e-38
5	0x81b54db1	-6.660038e-38
6	0x81a832ac	-6.1786164e-38
7	0x81b302d0	-6.575825e-38
8	0x81b55c22	-6.6621103e-38
9	0x01a07fd8	5.8958164e-38
10	0x01a2d0bf	5.980894e-38
11	0x819f1197	-5.8432616e-38
12	0x01ab4c83	6.292527e-38
13	0x019ba245	5.7170853e-38
14	0x43269d1a	166.61368
15	0x01a70d55	6.136524e-38
16	0x01acfb9b	6.354386e-38
17	0x01b1f22e	6.536704e-38
18	0x01a8eac7	6.205034e-38
19	0x01af8103	6.446997e-38
20	0x01a5409c	6.070414e-38
21	0x819b413f	-5.703163e-38
22	0x81bce913	-6.939474e-38
23	0x81bd2d33	-6.949249e-38
24	0x019e222b	5.808906e-38
25	0x01ad6300	6.369222e-38
26	0x01b04d71	6.476331e-38
27	0x01b807fa	6.760237e-38
28	0x01b148ae	6.512382e-38
29	0x01bbba70	6.8960476e-38
30	0x81bb3adc	-6.877741e-38
31	0x01badcd6	6.8642493e-38
32	0x01b74b66	6.7331775e-38
33	0x43c72a78	398.3318
34	0x01a40766	6.02547e-38
35	0x819b36c3	-5.7016587e-38
36	0x01ab3c0c	6.290164e-38
37	0x01aa27a4	6.250502e-38
38	0x0199b70d	5.646599e-38
39	0x01b6c801	6.714323e-38
40	0x01a497ff	6.046219e-38
41	0x01a7f921	6.1703594e-38
42	0x01af3a50	6.436852e-38
43	0x81aedd6e	-6.423524e-38
44	0x01994035	5.6295456e-38
45	0x01b23be0	6.547279e-38
46	0x819becac	-5.7277615e-38
47	0x01a34123	5.997021e-38
48	0x81b776a0	-6.73938e-38
49	0x81b2acfd	-6.56351e-38
50	0x01a21374	5.9537315e-38
51	0x01ac7c75	6.336141e-38
52	0x01be9192	7.000386e-38
53	0x01a7e8a4	6.1679934e-38
54	0x01a747a4	6.144891e-38
55	0x01a3e864	6.021021e-38
56	0x42f71dc6	123.55815
57	0x01b772b8	6.7388197e-38
58	0x81a0fe0e	-5.913927e-38
59	0x01b807fa	6.760237e-38
60	0x01bd9c20	6.9651663e-38
61	0x019be220	5.726248e-38
62	0x01acf7f4	6.3538617e-38
63	0xc1fdfdca	-31.74892
64	0x01a8070d	6.172357e-38
65	0x81a0396d	-5.885712e-38
66	0x0198f768	5.619099e-38
67	0x81b8e028	-6.7912574e-38
68	0x01af5259	6.440301e-38
69	0x01bda750	6.9667717e-38
70	0x01a924c0	6.213353e-38
71	0x01b9686e	6.8108116e-38
72	0x01a43b83	6.032948e-38
73	0x819bd3f7	-5.724216e-38
74	0x019eb0f3	5.8293943e-38
75	0x01a2f08d	5.9854575e-38
76	0x81a8acbb	-6.196131e-38
77	0x01bd7bc5	6.9605236e-38
78	0x01a14bb5	5.9250694e-38
79	0xc2e2b81f	-113.35961
80	0x01b3c8ac	6.6042165e-38
81	0x01a8db2a	6.202794e-38
82	0x01b10f90	6.504186e-38
83	0x81af3ddb	-6.4373606e-38
84	0x01be0970	6.980852e-38
85	0x01b18379	6.5208185e-38
86	0x01b7d80e	6.7533606e-38
87	0x019d0323	5.767719e-38
88	0x01bda0e0	6.965848e-38
89	0x01b86836	6.774046e-38
90	0x019dde9f	5.7992137e-38
91	0x01b63a65	6.6940033e-38
92	0x019c239d	5.735645e-38
93	0x81ae6d6d	-6.4074524e-38
94	0x01b6b6ab	6.7118357e-38
95	0x81a476b2	-6.0414405e-38
96	0x81b1957f	-6.523405e-38
97	0x01ba65cd	6.8471686e-38
98	0x01b1b254	6.527542e-38
99	0x81af7448	-6.44517e-38
100	0x01bb8e3e	6.889706e-38
101	0x01bbf858	6.9049307e-38
102	0x81a3a20a	-6.010926e-38
103	0x01adcab3	6.384102e-38
104	0x01af1c0b	6.4325087e-38
105	0x01b782ed	6.741145e-38
106	0x01b5d202	6.6790246e-38
107	0xc3d697a9	-429.18484
108	0x01ba1ea2	6.8369565e-38
109	0x019a9bd3	5.679426e-38
110	0x01a0c181	5.905238e-38
111	0x81bde83c	-6.9760875e-38
112	0x01b7edc2	6.756475e-38
113	0x819ada3c	-5.6883817e-38
114	0x81a44664	-6.034509e-38
115	0x81ab0a1b	-6.282998e-38
116	0x81b66fe4	-6.7016796e-38
117	0x01bd8aad	6.9626625e-38
118	0x819c5d67	-5.7439375e-38
119	0x819f8d75	-5.8610356e-38
120	0xc30ed9b0	-142.85034
121	0x019d0a67	5.768762e-38
122	0x81abd70a	-6.3124045e-38
123	0x01afd6f6	6.45933e-38
124	0xc2817412	-64.7267
125	0x81abb95f	-6.3081474e-38
126	0x01acae71	6.343313e-38
127	0x01b31f02	6.579871e-38
