unet/unet-segment-master/np_weights/down3.maxpool_conv.1.double_conv.3.bias.npy (npy, 2176 bytes, 1 tensors)

array f4 [512]
00000000: dea7 a901 1e5b a981 6d0d b801 9a4a a701
00000010: 523d bc01 02c9 ac01 e83c a681 d646 ba81
00000020: 4a80 9c81 3330 b401 1b3e 9b01 49a5 9b01
00000030: 631f a301 8027 a701 67f8 b381 e9f6 9e01
00000040: f6a5 9901 f460 9e81 88b2 a981 5833 a43f
00000050: 61ad 9e81 c401 9a81 700e bd81 340a a081
00000060: 615a b201 4007 a601 1c99 a581 e929 b281
00000070: dcea bd01 4d03 ac81 5341 ab81 dde3 b001
00000080: 07c5 9d81 8b6c a281 6f88 9f81 ab47 ac81
00000090: 5483 a881 db60 b681 40c6 9f01 6ac7 b001
000000a0: 3df8 bb81 836d a301 c38d a981 ae5c bd81
000000b0: 2c38 ac01 83ac af81 b9e7 ae01 8e41 9a01
000000c0: 0ea9 ab01 bb9e aa81 99ea 9a01 7ba9 9b81
000000d0: 22ca b301 88dc b801 a565 b381 51fd a281
000000e0: 27b7 b601 7f9f ac81 da76 ae01 6694 a481
000000f0: 5870 be01 370e ba01 a310 aa81 7816 bd81
00000100: 8651 9981 20be bd81 07e5 9f81 f9b6 b981
00000110: b019 9a01 85dc bd81 de0f b201 00f2 bc81
00000120: b117 a001 f5fe ae81 92cd a201 255c 9d01
00000130: 7fbe a301 da4d b201 8a77 b481 7ab8 ba81
00000140: a0d7 a981 b632 b781 6785 a781 b6a6 9881
00000150: 117b b381 6903 aa81 2604 a481 80f1 b081
00000160: 1721 af01 a669 9981 285c a681 7545 44bf
00000170: e8d4 ae01 49ee b501 7a79 9e01 e981 af81
00000180: 4007 a181 ae17 bb01 6893 b381 1dba b701
00000190: 7de2 a101 4046 a801 b7bc ba81 426c 9c81
000001a0: a9a8 b101 a0d8 b001 5e59 9901 5856 ad01
000001b0: 4309 9c81 df7a 9901 61fd b081 e386 b881
000001c0: 3693 ba81 dd43 b281 2fe7 a881 44b9 a401
000001d0: aa04 a781 bb21 b481 fe48 9d81 6c41 af01
000001e0: 44c1 9981 21d4 ac01 d49c b501 cc08 a901
000001f0: 61e9 a881 d976 ad81 3657 9a01 1eda af01
00000200: 8018 aa01 94e9 a401 b68e b501 b805 b281
00000210: 7ed6 a381 367c a781 a791 b001 0678 a801
00000220: fdaf ad81 5ef3 ae81 ae31 9a81 b7c9 b481
00000230: 2f08 b901 1812 a581 d7ba b981 2b8f b101
00000240: be05 b601 e6cf b481 56dc b181 fcac af01
00000250: 81da a781 65e7 9f81 4ae6 a501 5d2b a601
00000260: b8fe af81 9b1e b181 02f6 b981 9887 ba81
00000270: 3855 a581 8985 9981 77c9 a681 bc55 b481
00000280: 4b19 ab01 b601 b481 1d59 9981 132d b181
00000290: 28bc b581 46b5 bd81 5f85 a101 5ef0 b581
000002a0: 4f1c a381 ce00 b801 6cad b081 ab6f 9b81
000002b0: 1a22 b981 5fa0 b581 32c7 9c01 d0f0 a701
000002c0: 2a72 a201 3e1f ba81 b136 ad01 f4cf 9e01
000002d0: be0b bc81 3f2b ad01 4c72 b381 4847 b501
000002e0: ede8 a701 1826 bd01 de25 b081 8abb aa01
000002f0: dd7c 9b01 05c9 a581 7c6d 9c01 5210 b781
00000300: 4bda 9e01 2af5 b901 c358 b381 5ff7 a781
00000310: 8c61 b481 723e bc81 9e12 9f01 b8ad a081
00000320: e13b b881 29d8 a701 f5de aa81 0a95 9c01
00000330: cee4 a501 d0e8 ae81 4897 b581 88b8 b501
00000340: be2a b481 245f ad01 e8f7 bc01 7f90 b401
00000350: 364d b901 f87c bc01 aa64 be81 4c02 b481
00000360: 369a bb81 8252 bb81 40b0 bb01 6aa6 af81
00000370: 14c5 9a01 ecf5 a781 c04e 9f01 1654 9a81
00000380: 5d6d b781 4b35 a801 00f1 ba81 d168 be01
00000390: 1f71 b681 a747 bb81 8e5a b101 1bba a181
000003a0: bfb1 aa01 b488 9f81 faa8 ab81 70d2 ac81
000003b0: 0565 a201 c13c 13bf cd37 9c01 fc45 9981
000003c0: 32e9 9c81 a2a6 be81 6546 9f81 10eb b281
000003d0: 0cac a501 22cf b601 4b6c b881 d04e bd01
000003e0: 9d8c b181 65e9 a881 d5d1 9d01 306d af81
000003f0: 3a86 a401 875b b501 e28e 09be 55dd aa01
6.2321673e-38 -6.221154e-38 6.761019e-38 6.145316e-38 6.9148283e-38 6.3471253e-38 -6.1066166e-38 -6.8427254e-38
-5.7489435e-38 6.619072e-38 5.7027125e-38 5.717518e-38 5.992178e-38 6.140279e-38 -6.6110655e-38 5.839433e-38
5.6441466e-38 -5.8179154e-38 -6.2336975e-38 1.2828169 -5.828882e-38 -5.65732e-38 -6.944835e-38 -5.878936e-38
6.551656e-38 6.098917e-38 -6.083113e-38 -6.544701e-38 6.976464e-38 -6.318756e-38 -6.2909215e-38 6.4979157e-38
-5.795541e-38 -5.9665153e-38 -5.860315e-38 -6.328566e-38 -6.19019e-38 -6.699522e-38 5.869185e-38 6.4938334e-38
-6.9049156e-38 6.0033885e-38 -6.2284213e-38 -6.9560624e-38 6.3263424e-38 -6.453239e-38 6.425001e-38 5.666473e-38
6.305806e-38 -6.2675904e-38 5.6907297e-38 -5.71812e-38 6.604426e-38 6.790737e-38 -6.590007e-38 -5.987289e-38
6.711905e-38 -6.3411687e-38 6.408805e-38 -6.0457027e-38 6.995618e-38 6.8346006e-38 -6.247201e-38 -6.9459876e-38
-5.6320304e-38 -6.970045e-38 -5.8736014e-38 -6.822082e-38 5.6607525e-38 -6.9744065e-38 6.540964e-38 -6.9407546e-38
5.8808713e-38 -6.428335e-38 5.980438e-38 5.780491e-38 6.015009e-38 6.5498585e-38 -6.629309e-38 -6.859032e-38
-6.23902e-38 -6.729635e-38 -6.1537534e-38 -5.60752e-38 -6.5930807e-38 -6.245303e-38 -6.025004e-38 -6.4998725e-38
6.433233e-38 -5.635492e-38 -6.1111007e-38 -0.76668483 6.422301e-38 6.683082e-38 5.8214344e-38 -6.447126e-38
-5.915246e-38 6.872693e-38 -6.5965733e-38 6.749064e-38 5.9467054e-38 6.181426e-38 -6.85964e-38 -5.746069e-38
6.5261547e-38 6.496303e-38 5.633156e-38 6.367406e-38 -5.731864e-38 5.6379635e-38 -6.501577e-38 -6.778448e-38
-6.8536846e-38 -6.548425e-38 -6.2045186e-38 6.050993e-38 -6.1352804e-38 -6.616996e-38 -5.777743e-38 6.4378723e-38
-5.6480646e-38 6.348721e-38 6.6713937e-38 6.209342e-38 -6.2048336e-38 -6.37207e-38 5.6695807e-38 6.459783e-38
6.2483293e-38 6.0579254e-38 6.669368e-38 -6.539508e-38 -6.0184525e-38 -6.1524345e-38 6.486119e-38 6.188568e-38
-6.3802694e-38 -6.426672e-38 -5.664195e-38 -6.6411004e-38 6.797001e-38 -6.063739e-38 -6.822637e-38 6.522497e-38
6.686448e-38 -6.6419877e-38 -6.53357e-38 6.453307e-38 -6.165965e-38 -5.873941e-38 6.0941876e-38 6.104099e-38
-6.465035e-38 -6.506345e-38 -6.831127e-38 -6.8520177e-38 -6.073371e-38 -5.639494e-38 -6.126786e-38 -6.624458e-38
6.2851773e-38 -6.612401e-38 -5.6331195e-38 -6.508421e-38 -6.675889e-38 -6.968775e-38 5.933344e-38 -6.683381e-38
-5.9917364e-38 6.759208e-38 -6.490104e-38 -5.7098243e-38 -6.80072e-38 -6.671902e-38 5.759118e-38 6.169166e-38
5.967322e-38 -6.837044e-38 6.362864e-38 5.833843e-38 -6.907714e-38 6.361222e-38 -6.5918223e-38 6.659118e-38
6.1680344e-38 6.9482297e-38 -6.4706526e-38 6.271724e-38 5.711718e-38 -6.0899876e-38 5.746245e-38 -6.7247e-38
5.835327e-38 6.831006e-38 -6.588158e-38 -6.170107e-38 -6.626153e-38 -6.91499e-38 5.843409e-38 -5.902399e-38
-6.7676847e-38 6.1656286e-38 -6.2768065e-38 5.751921e-38 6.0939746e-38 -6.4251575e-38 -6.6705977e-38 6.675369e-38
-6.618289e-38 6.3686683e-38 6.941602e-38 6.63289e-38 6.806906e-38 6.9239614e-38 -6.9939423e-38 -6.6124853e-38
-6.8914233e-38 -6.8811344e-38 6.894586e-38 -6.452364e-38 5.685346e-38 -6.169899e-38 5.8520376e-38 -5.6691323e-38
-6.738051e-38 6.1789925e-38 -6.8671427e-38 6.994538e-38 -6.701856e-38 -6.8795767e-38 6.514947e-38 -5.940911e-38
6.270319e-38 -5.8603535e-38 -6.305795e-38 -6.3484784e-38 5.965436e-38 -0.5751458 5.738542e-38 -5.6303746e-38
-5.763997e-38 -7.0034083e-38 -5.8508387e-38 -6.572417e-38 6.08583e-38 6.715346e-38 -6.774632e-38 6.9540725e-38
-6.52213e-38 -6.204836e-38 5.7973786e-38 -6.4441524e-38 6.043669e-38 6.6620235e-38 -0.13433412 6.2765733e-38
