unet/unet-segment-master/np_weights/down1.maxpool_conv.1.double_conv.0.bias.npy (npy, 640 bytes, 1 tensors)

array f4 [128]
-6.4465906e-38 5.821821e-38 5.890482e-38 -5.853882e-38 5.91911e-38 6.5023735e-38 7.000307e-38 6.9929474e-38
6.770026e-38 -6.0964415e-38 5.828837e-38 -6.540036e-38 -5.6466325e-38 -6.0086647e-38 0.6126502 -6.2003836e-38
-5.678591e-38 -6.9491994e-38 -6.4429444e-38 6.738182e-38 6.676666e-38 5.9165293e-38 -6.769035e-38 5.9798674e-38
-6.555696e-38 6.8021533e-38 -6.7425056e-38 -6.613719e-38 6.7540417e-38 -6.2313097e-38 6.7611003e-38 5.9219635e-38
-5.9872786e-38 1.3360567 -6.7370686e-38 6.9801967e-38 6.4813854e-38 -6.364026e-38 -6.6840356e-38 -6.4339604e-38
-6.026709e-38 -6.2779264e-38 -5.9019995e-38 6.755466e-38 6.572776e-38 5.643542e-38 6.1413094e-38 5.890368e-38
6.887747e-38 -6.298462e-38 -6.616533e-38 -6.4085033e-38 6.6421996e-38 6.5736643e-38 6.6400444e-38 -6.4973075e-38
-0.11131267 6.5150895e-38 6.9953615e-38 -6.474977e-38 -5.771503e-38 6.9798004e-38 6.989811e-38 -0.06731295
-6.219357e-38 6.820041e-38 -5.6243406e-38 6.679603e-38 6.758914e-38 5.9774213e-38 -6.623887e-38 -6.18122e-38
-6.9669494e-38 -6.673967e-38 5.786338e-38 -5.649741e-38 6.219774e-38 -6.247208e-38 6.366252e-38 0.400335
-6.458027e-38 -6.544453e-38 -5.7939213e-38 6.059029e-38 -6.335475e-38 6.2394227e-38 -6.963682e-38 6.1666745e-38
-6.443264e-38 -6.745216e-38 -6.942256e-38 -5.673109e-38 -5.730158e-38 -6.313113e-38 5.825031e-38 -6.244561e-38
-6.399391e-38 6.410009e-38 6.255141e-38 5.826396e-38 5.827982e-38 6.115592e-38 5.830355e-38 6.727197e-38
6.8699543e-38 6.128507e-38 6.1913385e-38 -0.52034134 -6.095236e-38 -5.684635e-38 -6.4581306e-38 6.906002e-38
6.705657e-38 5.946789e-38 -5.799331e-38 6.576198e-38 6.458349e-38 -6.7924597e-38 6.321468e-38 -6.71784e-38
0.30104128 6.8222877e-38 -6.871486e-38 5.612328e-38 0.48802313 5.912452e-38 6.504907e-38 6.304486e-38
00000000: 2e7e af81 2c7c 9e01 ab5a a001 9a5b 9f81
00000010: 2d22 a101 ee02 b101 0591 be01 bb5d be01
00000020: 324c b801 fff5 a581 11ad 9e01 6609 b281
00000030: 49b7 9981 4892 a381 a5d6 1c3f 5eca a881
00000040: 0196 9a81 da2c bd81 c564 af81 466e b701
00000050: 92c1 b501 3110 a101 4a45 b881 98c9 a201
00000060: 8876 b281 172c b901 688c b781 e50a b481
00000070: cddc b701 e4a1 a981 fe0d b801 1036 a101
00000080: 3efd a281 e803 ab3f 8466 b781 df04 be01
00000090: aa70 b001 ca3e ad81 eef4 b581 2926 af81
000000a0: 0810 a481 c3e6 aa81 efaa a081 bae6 b701
000000b0: 90ed b201 bfa1 9901 ae2e a701 e059 a001
000000c0: 9780 bb01 e075 ab81 811e b481 c074 ae81
000000d0: 60d1 b401 c1f3 b201 5bc2 b401 a0df b081
000000e0: e6f7 e3bd 8c5b b101 8e6e be01 0144 b081
000000f0: 811d 9d81 1c02 be01 e047 be01 5fdb 89bd
00000100: 984e a981 c0a8 b901 ef1b 9981 0ad6 b501
00000110: c2fe b701 8cb8 a201 c151 b481 d144 a881
00000120: 8da8 bd81 c3ae b581 e484 9d01 f3cc 9981
00000130: 8051 a901 b010 aa81 4d4e ad01 b6f8 cc3e
00000140: e1cd af81 2e28 b281 bdb9 9d81 45f1 a401
00000150: d177 ac81 6eda a901 c891 bd81 73df a701
00000160: ff66 af81 4b9f b781 77fc bc81 cd6f 9a81
00000170: 5ffd 9b81 fadb ab81 8b92 9e01 3dfe a981
00000180: 3f35 ae81 3e7f ae01 f847 aa01 0e9c 9e01
00000190: 1ba7 9e01 757b a601 a5b7 9e01 b821 b701
000001a0: 9804 bb01 76d5 a601 558b a801 1735 05bf
000001b0: 98ed a581 20c0 9a81 9ace af81 cfff bb01
000001c0: 9c8b b601 12e3 a101 70df 9d81 6905 b301
000001d0: 20d0 af01 89e8 b881 3416 ac01 83e0 b681
000001e0: 1522 9a3e 68b8 b901 450f bb81 38c8 9801
000001f0: 2bde f93e c7f3 a001 9614 b101 db9f ab01
