unet/unet-segment-master/np_weights/down4.maxpool_conv.1.double_conv.3.bias.npy (npy, 2176 bytes, 1 tensors)

array f4 [512]
0	0x81b189da	-6.521734e-38
1	0x81b78be0	-6.7424294e-38
2	0x01b61ff8	6.6902114e-38
3	0x01b1121b	6.504551e-38
4	0x01b3f0ee	6.609993e-38
5	0x81b720ea	-6.727081e-38
6	0x019d0e8f	5.769358e-38
7	0x01a2e0ed	5.9832154e-38
8	0x81b01921	-6.468825e-38
9	0x819e25bf	-5.8094197e-38
10	0x01be0f7e	6.981721e-38
11	0x01a616a6	6.101127e-38
12	0x01b30e92	6.577512e-38
13	0x81ab598f	-6.294399e-38
14	0x01a2d358	5.9812665e-38
15	0x019b2664	5.6993095e-38
16	0x81ba2cb4	-6.8389755e-38
17	0x81ad6390	-6.369303e-38
18	0x01bbca6a	6.89834e-38
19	0x819ba238	-5.717078e-38
20	0x01b0b1b8	6.4907203e-38
21	0x81b0ea04	-6.4987985e-38
22	0x81b35be6	-6.5886083e-38
23	0xbf20f9fc	-0.62881446
24	0x01b0712d	6.481459e-38
25	0x81ae1b6c	-6.3956854e-38
26	0x819e8779	-5.823443e-38
27	0x81be2ffa	-6.986382e-38
28	0x819997e8	-5.64213e-38
29	0x01b20f06	6.540843e-38
30	0x01b68550	6.7047535e-38
31	0x01b27dd9	6.5567456e-38
32	0x01bc8280	6.924755e-38
33	0x81a546fc	-6.0713285e-38
34	0x81bebab6	-7.0062894e-38
35	0x81b1ead5	-6.53565e-38
36	0x01bdc975	6.971671e-38
37	0x01b59ce0	6.6714004e-38
38	0x01b5a564	6.6726223e-38
39	0x01ae122b	6.3943575e-38
40	0x81af686e	-6.4434697e-38
41	0x019d4500	5.77717e-38
42	0x01a05ba0	5.8906193e-38
43	0x81b0d938	-6.4963883e-38
44	0x81a17dee	-5.932276e-38
45	0x01ad3d2c	6.363794e-38
46	0x01b7e112	6.7546543e-38
47	0x01bd5bfc	6.9559626e-38
48	0x81a9fcd5	-6.244359e-38
49	0x01b5abfa	6.6735673e-38
50	0x81b0f7b9	-6.5007654e-38
51	0x01a60cb6	6.099701e-38
52	0x01a68bc0	6.11793e-38
53	0x01ab569a	6.2939747e-38
54	0x81bba660	-6.893169e-38
55	0x81b455cd	-6.6244675e-38
56	0x01b13880	6.5100605e-38
57	0x819d1f41	-5.771754e-38
58	0x81a64688	-6.1079977e-38
59	0x81b439ea	-6.620466e-38
60	0x0198cbc1	5.6128354e-38
61	0x819cce87	-5.76017e-38
62	0x81b8bc97	-6.786154e-38
63	0x01aaf504	6.279972e-38
64	0x01bc8272	6.9247473e-38
65	0x81b60a2e	-6.687085e-38
66	0x81b8c03b	-6.786676e-38
67	0x3e88c31b	0.26711354
68	0x01bba914	6.8935566e-38
69	0x819942b0	-5.6299016e-38
70	0x01a93371	6.215461e-38
71	0x01b35ae1	6.588462e-38
72	0x01a42487	6.02965e-38
73	0x81b989ca	-6.8155985e-38
74	0x01b34389	6.5851123e-38
75	0x81a79ee4	-6.157411e-38
76	0x01bbabaa	6.8939277e-38
77	0x81a49840	-6.0462554e-38
78	0x819bb009	-5.7190606e-38
79	0x01b60db3	6.68759e-38
80	0x019dcc45	5.7965804e-38
81	0x01b2715c	6.5549536e-38
82	0x01a9048d	6.2087325e-38
83	0x01abfca5	6.3178006e-38
84	0x81bde750	-6.975955e-38
85	0x01a1bd4d	5.9413693e-38
86	0x81b38b5f	-6.5954203e-38
87	0x01aa953d	6.2662284e-38
88	0x01a4a825	6.048536e-38
89	0x81be5587	-6.99177e-38
90	0x01a26eee	5.966858e-38
91	0x019b88f2	5.7134515e-38
92	0x81ba5f20	-6.8462107e-38
93	0x019c01a0	5.730768e-38
94	0x01ab939d	6.3027294e-38
95	0x01a080b2	5.8959386e-38
96	0x81a99cb8	-6.2305676e-38
97	0x019cf431	5.7655747e-38
98	0x01b8bc8f	6.7861493e-38
99	0x81a244b9	-5.9608014e-38
100	0x01b064ce	6.4796837e-38
101	0x019c2f10	5.737288e-38
102	0x019c50e4	5.742142e-38
103	0x01b21406	6.5415605e-38
104	0x819cf3bc	-5.765509e-38
105	0x81a0da34	-5.9087824e-38
106	0x01b60540	6.6863775e-38
107	0x81be0970	-6.980852e-38
108	0x81a00094	-5.8775547e-38
109	0x01ab35c0	6.2892607e-38
110	0x81b904de	-6.796525e-38
111	0x81a9d0b4	-6.238027e-38
112	0x81a2f64a	-5.986281e-38
113	0x3e4b5f8a	0.19860664
114	0x01b1ec07	6.5358214e-38
115	0x01af8412	6.447436e-38
116	0x01a72710	6.1402163e-38
117	0x81b46f60	-6.628137e-38
118	0x819c5540	-5.742768e-38
119	0x81a0c4d2	-5.905714e-38
120	0x819a1190	-5.6595867e-38
121	0x01a5bc42	6.0881564e-38
122	0x81b11231	-6.5045635e-38
123	0x8198f461	-5.618665e-38
124	0x81a476f5	-6.041478e-38
125	0x01a41e76	6.0287795e-38
126	0x01b474f0	6.6289354e-38
127	0x81a681f9	-6.116527e-38
128	0x01aa54b7	6.25697e-38
129	0x01abd717	6.312412e-38
130	0x01b6ba4e	6.7123575e-38
131	0x81a7c5ca	-6.1629925e-38
132	0x01a0f475	5.9125496e-38
133	0x819dfc80	-5.803501e-38
134	0x01b50e30	6.650926e-38
135	0x01a59748	6.0828505e-38
136	0x81ad0f82	-6.3572416e-38
137	0x01ac13d3	6.321127e-38
138	0x01a90ebe	6.210195e-38
139	0x81b610cb	-6.688034e-38
140	0x01a3886f	6.0072516e-38
141	0x81add931	-6.386182e-38
142	0x81b46b42	-6.6275465e-38
143	0x81bea15e	-7.002653e-38
144	0x81b20f4c	-6.5408823e-38
145	0x819fa506	-5.864417e-38
146	0x81b66691	-6.7003417e-38
147	0x01ae915b	6.412608e-38
148	0x01bcbaf6	6.932857e-38
149	0x01b0e5cb	6.4981926e-38
150	0x81b7f817	-6.7579575e-38
151	0xbfa66a2d	-1.3001152
152	0x81ae2527	-6.3970816e-38
153	0x81a820d0	-6.1760537e-38
154	0x819dd240	-5.7974386e-38
155	0x0199648b	5.6347596e-38
156	0x81b50ae0	-6.6504504e-38
157	0x81a802e7	-6.171762e-38
158	0x019dc081	5.794892e-38
159	0x81a5e238	-6.0936035e-38
160	0x819ad622	-5.687793e-38
161	0x819eb1e9	-5.829532e-38
162	0x819a5ef5	-5.670692e-38
163	0x81a3e320	-6.020265e-38
164	0x01b57cf3	6.666819e-38
165	0x01beab3e	7.00407e-38
166	0x81a2ce17	-5.9805126e-38
167	0x01b4e401	6.6448727e-38
168	0x01a13142	5.921274e-38
169	0x81ba7a35	-6.850097e-38
170	0x01a3dc0c	6.0192495e-38
171	0x019ade75	5.6889876e-38
172	0x81a36a58	-6.002934e-38
173	0x01a8eb1e	6.205083e-38
174	0x019a68ef	5.672124e-38
175	0x01aee534	6.4246396e-38
176	0x01aa9133	6.265649e-38
177	0x01b71f12	6.7268167e-38
178	0x01a6e9cf	6.131427e-38
179	0x019dc525	5.795558e-38
180	0x01b59acc	6.671102e-38
181	0x81bdad97	-6.9676724e-38
182	0x819fba60	-5.867481e-38
183	0x81a88a88	-6.1912236e-38
184	0x81b04792	-6.475489e-38
185	0x81b08607	-6.484451e-38
186	0x01b1f84d	6.5375825e-38
187	0xbdc424ae	-0.095773086
188	0x81af4231	-6.437983e-38
189	0x819b68d8	-5.708845e-38
190	0x01b52064	6.653538e-38
191	0xbee38315	-0.44435945
192	0x81a11a45	-5.9179754e-38
193	0x01ad87a7	6.3744815e-38
194	0x01ac165e	6.3214917e-38
195	0x01b651cc	6.6973614e-38
196	0x01b8b0a2	6.784438e-38
197	0x81ab1bcc	-6.2855366e-38
198	0x01abd269	6.3117403e-38
199	0x0199277a	5.625997e-38
200	0x81a20c21	-5.9526806e-38
201	0x01ac125e	6.3209177e-38
202	0x81a0a25a	-5.900768e-38
203	0x8199719d	-5.636635e-38
204	0x01b33bc6	6.5839986e-38
205	0x01bd2980	6.9487185e-38
206	0xbebea26f	-0.37233302
207	0x01a78af8	6.154552e-38
208	0x819de1df	-5.79968e-38
209	0x81a5b5e4	-6.087243e-38
210	0x01ae4c58	6.4027053e-38
211	0x01b4834c	6.630996e-38
212	0x81aa323c	-6.252022e-38
213	0x01ad1a3d	6.3587813e-38
214	0x01a2788f	5.9682395e-38
215	0x81b7a870	-6.746528e-38
216	0x81a65040	-6.109392e-38
217	0x01b474d6	6.628921e-38
218	0x3e2cad9e	0.16863105
219	0x01bccd48	6.935486e-38
220	0x81a7f4ba	-6.1697277e-38
221	0x81a6e9f7	-6.131449e-38
222	0x01be9ad1	7.001713e-38
223	0x819b9154	-5.7146543e-38
224	0x019cbf2d	5.7579673e-38
225	0x01aac243	6.272689e-38
226	0x81a5d94c	-6.0923233e-38
227	0x01bc2ff4	6.91291e-38
228	0x3e966320	0.293725
229	0x01a3756f	6.004525e-38
230	0x01aeeacf	6.425444e-38
231	0x81a9e201	-6.2405095e-38
232	0x01bd9abf	6.9649685e-38
233	0x81bdef54	-6.9771054e-38
234	0x01abfdeb	6.3179834e-38
235	0x01b5830b	6.6676937e-38
236	0x81abd248	-6.311722e-38
237	0x81b8348c	-6.7666326e-38
238	0x81b9ebe0	-6.829673e-38
239	0x81a18965	-5.933921e-38
240	0x81acede8	-6.35242e-38
241	0x81991cb4	-5.624451e-38
242	0x019f2ed1	5.8474554e-38
243	0x81b46ba0	-6.627599e-38
244	0xbef231cb	-0.47303614
245	0x01a70b5e	6.136242e-38
246	0x81b113ea	-6.5048107e-38
247	0x81aaed1e	-6.2788384e-38
248	0x81acef01	-6.3525775e-38
249	0x81a0e06e	-5.909676e-38
250	0x81b9cb7c	-6.8250253e-38
251	0x01a03bd6	5.886058e-38
252	0x81be106f	-6.981856e-38
253	0x81a5758d	-6.0780105e-38
254	0x01aff2a6	6.463303e-38
255	0x3ea7285f	0.32647988
