unet/unet-segment-master/np_weights/down3.maxpool_conv.1.double_conv.4.weight.npy (npy, 2176 bytes, 1 tensors)

array f4 [512]
000000 97 82 9d 01 52 7d a6 01 ed 5b ba 81 d7 f4 a1 01
       5.786008e-38 6.1158595e-38 -6.8457516e-38 5.949339e-38
000010 d6 ee ab 01 0c d3 9f 01 7a 43 a6 01 c0 66 b6 01
       6.315819e-38 5.8710213e-38 6.1075594e-38 6.700368e-38
000020 60 c3 b0 81 68 6a 9d 01 59 93 af 01 11 64 a1 01
       -6.493254e-38 5.7825377e-38 6.449628e-38 5.928565e-38
000030 aa 84 a1 81 d6 c9 b5 81 88 95 a0 01 ba 5a ab 01
       -5.9332423e-38 -6.677852e-38 5.8989284e-38 6.2945666e-38
000040 a0 88 b2 01 2d 32 a5 01 73 5d 9b 01 31 8f 5e 43
       6.558292e-38 6.0683426e-38 5.70721e-38 222.55934
000050 3a 51 b1 01 40 fa bb 01 00 16 bb 01 b1 59 9e 01
       6.5136086e-38 6.905204e-38 6.872452e-38 5.8168734e-38
000060 f6 64 9a 01 7a d9 ae 81 46 69 a1 01 52 c2 bd 01
       5.671554e-38 -6.422957e-38 5.929312e-38 6.970647e-38
000070 c2 01 a3 81 ff 23 a4 01 7a 2a a5 01 7e ee b9 01
       -5.9879266e-38 6.029574e-38 6.067238e-38 6.8300487e-38
000080 d2 cf ab 01 40 5c b2 01 b0 87 b7 01 ea d3 9d 01
       6.3113687e-38 6.5519246e-38 6.7418285e-38 5.7976773e-38
000090 28 f2 9e 81 99 0f a9 81 ac 26 ad 81 63 fb a3 01
       -5.838751e-38 -6.2103177e-38 -6.3605655e-38 6.0237466e-38
0000a0 53 97 b9 81 46 aa b1 01 63 b1 9d 01 d6 48 9e 01
       -6.8175407e-38 6.526386e-38 5.792723e-38 5.814455e-38
0000b0 6d b9 af 81 25 a7 99 01 bd e3 bb 81 64 44 b1 01
       -6.455092e-38 5.6443164e-38 -6.901974e-38 6.5117667e-38
0000c0 eb d1 ad 01 2f b1 99 01 c2 46 a5 01 3c 2d 9e 01
       6.385138e-38 5.645757e-38 6.071296e-38 5.810494e-38
0000d0 a8 90 b8 01 50 bb b5 01 a1 69 b6 01 4a a1 bd 81
       6.7798497e-38 6.675768e-38 6.700781e-38 -6.9659074e-38
0000e0 0e 67 a0 01 7d 3e bc 81 9c 65 ad 01 65 1d b3 01
       5.8922594e-38 -6.914996e-38 6.3695966e-38 6.5796394e-38
0000f0 84 3e bc 01 b9 06 b1 01 06 ef b9 81 af d8 a3 01
       6.915e-38 6.502918e-38 -6.830125e-38 6.018767e-38
000100 85 1d a5 01 30 54 bb 01 3e 0f b0 01 b6 ee 9f 81
       6.0653786e-38 6.8813754e-38 6.467406e-38 -5.874991e-38
000110 1f 49 ba 81 6c 31 b3 01 78 cf a8 01 70 77 bb 01
       -6.843053e-38 6.582513e-38 6.2011156e-38 6.8864336e-38
000120 8e f1 ae 01 9a cd b3 01 19 80 ab 81 c9 81 a1 81
       6.426412e-38 6.604924e-38 -6.299929e-38 -5.932829e-38
000130 2e 80 9f 81 22 df 9b 81 d6 f9 9f 01 ad 9f a9 01
       -5.8591304e-38 -5.725819e-38 5.876587e-38 6.230992e-38
000140 a0 c7 ac 01 09 d5 ba 01 82 46 bc 01 a9 d3 aa 01
       6.346927e-38 6.86313e-38 6.9161467e-38 6.2751855e-38
000150 06 b8 bd 01 70 ef a7 81 74 2d b5 01 99 f7 9d 81
       6.9691696e-38 -6.168969e-38 6.655412e-38 -5.8027977e-38
000160 ff 14 a4 81 d8 52 bb 01 63 b0 bb 01 b8 1e 66 43
       -6.0274213e-38 6.8811826e-38 6.8946054e-38 230.12
000170 da e1 a8 81 da 03 b2 01 34 da ab 01 1f ff af 01
       -6.2037535e-38 6.53924e-38 6.3128586e-38 6.465093e-38
000180 fb ea a4 01 07 8c a0 01 49 3a b9 01 63 fa bb 01
       6.0581266e-38 5.8975647e-38 6.80419e-38 6.905224e-38
000190 52 14 a3 81 8a b4 b4 01 fc 7e a9 01 14 d9 99 01
       -5.99059e-38 6.638062e-38 6.226301e-38 5.6514815e-38
0001a0 65 38 a5 81 1b ef a2 01 15 ac aa 01 73 82 ae 01
       -6.069235e-38 5.98525e-38 6.2695063e-38 6.410469e-38
0001b0 5f 34 ab 81 29 38 9d 01 5b 08 a3 01 b3 97 a1 01
       -6.289063e-38 5.775328e-38 5.9888733e-38 5.935974e-38
0001c0 b6 4b b8 01 1d f3 9f 01 13 b0 a4 01 76 e4 aa 01
       6.7699565e-38 5.8756226e-38 6.049674e-38 6.277596e-38
0001d0 cd 7b bb 01 e7 f6 b9 01 2c 9e a1 01 64 f4 a2 01
       6.8870597e-38 6.8312555e-38 5.9369025e-38 5.9860085e-38
0001e0 cf 88 a7 01 95 be 9a 01 20 4e a8 01 de 90 a3 81
       6.154242e-38 5.684414e-38 6.182556e-38 -6.008462e-38
0001f0 89 5c a6 01 8a 07 a4 01 f0 d6 b4 01 f4 2c 9a 01
       6.111155e-38 6.0254904e-38 6.642998e-38 5.663517e-38
000200 03 54 b2 01 09 53 a1 81 41 2d a7 01 81 dd a5 01
       6.5507424e-38 -5.926121e-38 6.141105e-38 6.092927e-38
000210 60 d6 b6 01 60 a7 b6 81 72 56 ba 81 94 ab b9 01
       6.7163854e-38 -6.709641e-38 -6.844965e-38 6.820447e-38
000220 5a 6c ad 01 54 24 9b 01 92 65 9d 01 38 71 a1 01
       6.370564e-38 5.6990136e-38 5.781844e-38 5.930452e-38
000230 72 20 a5 01 bd 24 a7 81 27 23 ae 81 bd ba 9d 81
       6.0657984e-38 -6.139883e-38 -6.3967946e-38 -5.794065e-38
000240 40 bf bd 01 9f 58 b0 01 91 1f a9 81 8d 8d bc 01
       6.9702065e-38 6.4779354e-38 -6.212609e-38 6.926341e-38
000250 8d 2a a6 01 d7 65 9a 81 c8 a1 a5 01 ea e9 bd 01
       6.1039827e-38 -5.67168e-38 6.084357e-38 6.9763285e-38
000260 4a fd ac 01 a2 04 b4 01 24 82 99 01 94 a4 a8 01
       6.3546273e-38 6.6128205e-38 5.6390066e-38 6.194961e-38
000270 81 5f b0 01 52 77 9e 81 f6 df ba 01 2f b0 ae 01
       6.478923e-38 -5.821125e-38 6.864698e-38 6.4170316e-38
000280 2f 6d b4 01 46 03 b3 81 02 2e ae 01 ef 7f a9 81
       6.627823e-38 -6.575891e-38 6.3983523e-38 -6.226437e-38
000290 d9 18 a6 01 ad 0a 9e 01 db b7 ae 01 58 0f a9 01
       6.1014424e-38 5.805535e-38 6.4181325e-38 6.210281e-38
0002a0 98 5d ab 01 0c 33 bb 01 df d6 a3 01 9c e6 a3 01
       6.294978e-38 6.87662e-38 6.018507e-38 6.020765e-38
0002b0 86 a2 9c 01 de 30 a2 01 23 dc b8 01 d2 df 99 81
       5.753856e-38 5.957952e-38 6.7906806e-38 -5.652449e-38
0002c0 fd bc af 01 76 05 b5 01 6c 16 b7 01 ea 77 9f 01
       6.455603e-38 6.6496735e-38 6.7255757e-38 5.8579444e-38
0002d0 31 71 b7 81 96 e6 b4 01 78 b1 99 01 6e 58 b9 01
       -6.7386005e-38 6.645243e-38 5.645798e-38 6.808516e-38
0002e0 5c 3a b2 81 a7 da b4 81 57 7d 9b 01 6b 4c b7 01
       -6.5470615e-38 -6.643531e-38 5.711786e-38 6.733324e-38
0002f0 bf 8f b7 81 43 49 a9 01 dc 21 a2 01 38 3e 99 01
       -6.742985e-38 6.218592e-38 5.955799e-38 5.6292603e-38
000300 63 2b ab 01 27 03 be 01 38 93 ab 81 b4 d3 aa 01
       6.2877736e-38 6.97995e-38 -6.302673e-38 6.2751916e-38
000310 c3 ad 9f 01 8d c6 a0 01 48 37 be 01 f1 98 b3 81
       5.865671e-38 5.9059624e-38 6.98743e-38 -6.5973675e-38
000320 df d8 b9 81 70 23 b4 01 81 b1 b2 01 89 3d b7 01
       -6.826946e-38 6.617241e-38 6.564158e-38 6.731188e-38
000330 80 92 a0 01 5a ee a8 81 56 ee bc 01 11 34 af 01
       5.8984935e-38 -6.205547e-38 6.940229e-38 6.435956e-38
000340 2b 8e bb 01 c4 05 b2 81 e0 8e ba 81 20 9b b4 01
       6.889695e-38 -6.5395147e-38 -6.8530625e-38 6.634415e-38
000350 13 f7 b3 81 e9 f6 aa 01 6e 51 a6 81 bc bb b6 01
       -6.610875e-38 6.2802436e-38 -6.1095615e-38 6.7125627e-38
000360 d6 db b7 01 35 02 af 01 00 ca bd 81 d0 a5 9a 01
       6.753903e-38 6.4288014e-38 -6.971749e-38 5.6808595e-38
000370 b6 57 b3 01 e7 07 b9 01 96 88 b2 01 5f e0 ad 81
       6.5880074e-38 6.7969606e-38 6.5582864e-38 -6.387212e-38
000380 c2 5d a5 01 f2 13 a6 01 70 9d bd 01 2d 40 b8 81
       6.0745963e-38 6.100739e-38 6.9653547e-38 -6.7683013e-38
000390 00 0c b7 01 35 65 af 01 14 25 b7 01 05 0e a8 01
       6.72408e-38 6.443007e-38 6.727679e-38 6.173357e-38
0003a0 f3 73 ad 81 68 1e b3 81 0b a6 bb 81 15 b2 bb 01
       -6.371654e-38 -6.5797846e-38 -6.893121e-38 6.8948486e-38
0003b0 49 9f aa 01 fb 2d 7e c3 41 b7 99 01 ba 9d a1 01
       6.26767e-38 -254.17961 5.646628e-38 5.9368386e-38
0003c0 6b 22 b2 01 be a6 ba 01 e5 da a0 01 a4 a9 a1 01
       6.543626e-38 6.856487e-38 5.9088816e-38 5.938548e-38
0003d0 28 1d b9 01 0a ad b4 01 3a 14 bd 81 4d e5 ab 81
       6.8000104e-38 6.6369856e-38 -6.945666e-38 -6.314451e-38
0003e0 68 51 b8 01 8d 9a b6 81 0e 99 b2 81 ad 36 b3 01
       6.770774e-38 -6.707801e-38 -6.5606496e-38 6.583267e-38
0003f0 82 09 b6 01 91 5e a7 01 19 39 47 43 b1 be b4 81
       6.6869884e-38 6.148181e-38 199.22304 -6.6395186e-38
