unet/unet-segment-master/np_weights/down2.maxpool_conv.1.double_conv.1.weight.npy (npy, 1152 bytes, 1 tensors)

array f4 [256]
000000 47 41 ab 01 eb 39 b9 01 af a3 b5 01 f6 f8 ac 81
       6.290915e-38 6.8041375e-38 6.6723774e-38 -6.354006e-38
000010 ac 13 9f 01 53 74 a0 01 e6 4a b0 01 73 71 a2 01
       5.8435603e-38 5.8941635e-38 6.4759663e-38 5.9672193e-38
000020 f7 98 ac 01 57 8d 99 01 51 b0 9b 01 79 6d b3 01
       6.3402315e-38 5.6406136e-38 5.719101e-38 6.59113e-38
000030 52 0f be 01 e8 3a b8 01 72 dc b1 01 11 b3 a0 01
       6.981696e-38 6.767545e-38 6.5335855e-38 5.9031665e-38
000040 b4 cc aa 01 fc 34 be 81 4f c4 a7 01 98 da a7 01
       6.274187e-38 -6.9871006e-38 6.16278e-38 6.165978e-38
000050 e6 53 bd 81 31 fe b0 01 ab 3f a4 01 53 75 aa 81
       -6.9548023e-38 6.5016936e-38 6.0335445e-38 -6.261649e-38
000060 79 dc a6 01 88 63 b9 01 c4 d5 b7 01 e9 c0 a3 81
       6.129513e-38 6.810109e-38 6.753032e-38 -6.0153556e-38
000070 3d b3 a2 01 6f 94 9c 01 61 e4 9b 01 a4 12 9e 01
       5.9766596e-38 5.751834e-38 5.7265715e-38 5.806678e-38
000080 a4 9e a5 01 9d fd 99 01 f7 9f bb 01 37 e4 9e 01
       6.0839066e-38 5.656724e-38 6.892249e-38 5.8367506e-38
000090 a1 bc 9e 81 7f 25 a1 01 b1 16 aa 01 cc 0f 62 c3
       -5.83107e-38 5.9195864e-38 6.24807e-38 -226.0617
0000a0 44 bf b1 81 81 0c a2 01 09 e7 b7 81 ae 7d bc 81
       -6.5293984e-38 5.9527344e-38 -6.75551e-38 -6.9240635e-38
0000b0 02 41 b1 01 0c 18 45 43 2e 98 9c 01 65 3c b0 01
       6.5112813e-38 197.09393 5.7523717e-38 6.473885e-38
0000c0 81 28 ac 01 81 2b b9 81 04 1d b6 01 19 ae bd 01
       6.324094e-38 -6.802069e-38 6.6897877e-38 6.9677453e-38
0000d0 c6 d3 aa 01 fc bf a4 01 99 ed a0 01 65 fb b1 01
       6.275202e-38 6.051957e-38 5.9115653e-38 6.5380265e-38
0000e0 4a d2 9f 01 aa 2c 9e 01 18 32 bc 01 b4 0d a4 01
       5.8709126e-38 5.8104123e-38 6.9132174e-38 6.026375e-38
0000f0 34 61 a0 01 28 8a 9f 01 bc 3a ac 01 39 47 2f 43
       5.8914197e-38 5.860562e-38 6.32671e-38 175.27821
000100 11 01 9e 01 75 18 ba 01 05 b6 a4 81 9d 8f a3 01
       5.8041564e-38 6.8360703e-38 -6.050527e-38 6.008282e-38
000110 4a 68 bb 81 b1 13 a2 01 3d b6 af 81 55 f5 ad 01
       -6.88426e-38 5.953766e-38 -6.4546346e-38 6.39022e-38
000120 8e 51 a1 81 6f 6f a7 01 f9 6d be 81 82 82 be 01
       -5.9259085e-38 6.150601e-38 -6.995278e-38 6.9982247e-38
000130 88 a3 46 43 05 e9 bb 01 08 36 ba 01 ae 94 b1 01
       198.6388 6.902732e-38 6.840314e-38 6.5232876e-38
000140 40 2d b3 01 7a 25 a7 01 4f 0c a6 01 57 c6 a8 01
       6.5819146e-38 6.139989e-38 6.099643e-38 6.1998057e-38
000150 b3 7f bb 01 23 1e a5 01 0c 4c ab c3 97 ed ae 81
       6.887619e-38 6.065467e-38 -342.59412 -6.425843e-38
000160 cf 40 a7 01 d4 4f a6 01 5e 4b b2 01 6e 7a ba 01
       6.143911e-38 6.1093317e-38 6.549502e-38 6.8501287e-38
000170 72 58 9f 01 24 5e a5 01 f3 0d 9a 01 98 2b b6 01
       5.853429e-38 6.074651e-38 5.659068e-38 6.6918795e-38
000180 b4 55 9d 01 bb 8b 9d 81 c4 4f 9a 01 f1 8e a5 01
       5.779567e-38 -5.7873195e-38 5.6685124e-38 6.081654e-38
000190 76 19 9f 01 8a 7f b5 01 27 74 99 01 d4 ad b4 01
       5.844391e-38 6.667191e-38 5.6369994e-38 6.637099e-38
0001a0 85 06 a4 01 88 86 9a 81 be 5b bc 81 8a a9 9f 81
       6.025344e-38 -5.676371e-38 -6.9191937e-38 -5.865065e-38
0001b0 c3 a1 a3 01 be 62 b6 01 9a e6 a7 01 c6 e9 b7 01
       6.010886e-38 6.699793e-38 6.167701e-38 6.755903e-38
0001c0 34 04 ae 01 94 b4 aa 81 18 96 b9 01 8a 52 a9 81
       6.3923537e-38 -6.2707254e-38 6.817364e-38 -6.2199233e-38
0001d0 51 21 9c 81 b4 e7 b1 01 56 14 af 01 8c 38 56 c3
       -5.7353156e-38 6.535201e-38 6.431403e-38 -214.22089
0001e0 cd 9a ba 01 8b 68 b3 81 ec ef b0 01 5c bb b5 01
       6.854774e-38 -6.5904227e-38 6.499646e-38 6.6757747e-38
0001f0 c3 a8 ad 01 e6 a5 a1 01 97 ef b8 01 6e 44 9e 01
       6.3792325e-38 5.938011e-38 6.793472e-38 5.8138225e-38
000200 a2 2b a4 01 91 bf a0 01 9e c1 a0 81 56 fe b6 01
       6.0306695e-38 5.90496e-38 -5.9052545e-38 6.7221195e-38
000210 e2 d1 4a 43 c0 30 bc 01 8d af 99 01 7e 37 a2 01
       202.81985 6.9130246e-38 5.6455227e-38 5.958903e-38
000220 cc 28 a4 01 93 88 ac 81 d5 59 a0 01 0e 3c 99 01
       6.0302626e-38 -6.3378796e-38 5.890362e-38 5.62895e-38
000230 87 2e b0 01 0e 67 99 01 2b f0 a8 81 64 c3 9c 01
       6.471895e-38 5.63512e-38 -6.205808e-38 5.758572e-38
000240 55 ea af 01 57 fc ab 01 7e 4f a8 01 30 23 9e 01
       6.46211e-38 6.317757e-38 6.182752e-38 5.8090525e-38
000250 a4 c2 b4 01 fe 0a ac 81 56 53 b2 01 af 45 a7 01
       6.6400853e-38 -6.3198594e-38 6.5506454e-38 6.14461e-38
000260 f6 22 a9 01 48 a7 a0 01 27 94 ae 01 44 dd bb 01
       6.213096e-38 5.9014754e-38 6.4130094e-38 6.901045e-38
000270 12 22 aa 01 6a 0a 9a 01 ec 0f bc 01 a6 80 b5 01
       6.2497026e-38 5.658561e-38 6.908314e-38 6.66735e-38
000280 98 16 b6 01 34 56 a8 01 34 15 a5 01 54 f1 a7 01
       6.688866e-38 6.183715e-38 6.064185e-38 6.16924e-38
000290 5b 08 a3 01 0e fa ac 01 ce ea a3 01 51 cd a6 01
       5.9888733e-38 6.354163e-38 6.021367e-38 6.1273384e-38
0002a0 65 6c b8 01 25 d2 9a 01 9c 97 ad 81 71 7c 9c 81
       6.7746464e-38 5.687221e-38 -6.376771e-38 -5.7483914e-38
0002b0 9e 19 a9 01 ca d7 b6 01 5f 12 ae 81 ee a0 b7 01
       6.2117554e-38 6.7165883e-38 -6.3943867e-38 6.7454506e-38
0002c0 77 9d 9d 01 19 2b 46 43 d2 06 a7 01 a4 77 aa 01
       5.789864e-38 198.16835 6.13559e-38 6.2619813e-38
0002d0 47 2a 9b 01 66 f7 a0 01 63 1c bb 01 b5 6c 02 43
       5.699867e-38 5.9129717e-38 6.8733684e-38 130.42464
0002e0 a4 56 a0 01 70 3c bc 81 ac 47 9c 01 9e 7f b9 01
       5.889904e-38 -6.9147017e-38 5.7408194e-38 6.814139e-38
0002f0 64 0c b0 81 83 e1 99 01 4c b1 b9 81 19 02 9d 01
       -6.466997e-38 5.6526917e-38 -6.8212676e-38 5.76757e-38
000300 0f 8e b1 01 08 80 ae 01 86 a7 ba 01 9c 20 ab 01
       6.5223375e-38 6.410122e-38 6.8565993e-38 6.286227e-38
000310 dd 3f 9c 01 c9 37 bc 81 f0 9d ad 81 c9 38 a5 01
       5.739699e-38 -6.914034e-38 -6.377679e-38 6.069291e-38
000320 b7 ae b0 01 e2 58 bc 01 14 f7 9d 01 80 b0 bd 81
       6.490289e-38 6.9187834e-38 5.802723e-38 -6.96809e-38
000330 8d ad ba 81 78 65 a1 01 3d d4 af 01 72 53 ad 81
       -6.857464e-38 5.928766e-38 6.4589394e-38 -6.36699e-38
000340 f0 6e bb 81 02 c5 b1 01 82 e1 a6 81 27 8d 99 81
       -6.885214e-38 6.5302224e-38 -6.130236e-38 -5.640587e-38
000350 37 b4 af 01 77 f3 ab 01 2e 62 bc 01 19 67 bd 81
       6.4543443e-38 6.3164834e-38 6.9201174e-38 -6.9575573e-38
000360 54 a0 98 01 00 47 6d c3 a6 f3 b1 01 04 c6 b0 01
       5.606604e-38 -237.27734 6.536915e-38 6.493633e-38
000370 0f 3a a4 01 bf 01 9a 01 70 0f 9f 01 5b 2e a0 01
       6.0327395e-38 5.657317e-38 5.842953e-38 5.8841234e-38
000380 f4 e0 9d 01 86 73 9e 81 2e a2 99 01 31 a5 ac 81
       5.7995483e-38 -5.82058e-38 5.643604e-38 -6.341986e-38
000390 06 ef a7 81 de 81 bc 01 d6 41 b7 81 30 b3 aa 01
       -6.1689093e-38 6.9246643e-38 -6.7318053e-38 6.270526e-38
0003a0 be e5 9e 01 40 a2 b2 01 84 cf a4 01 83 8e bb 01
       5.83697e-38 6.561969e-38 6.0541856e-38 6.8897445e-38
0003b0 a2 aa aa 01 dd 2d a2 81 53 d6 ab 01 17 5a a7 01
       6.2692983e-38 -5.957521e-38 6.312302e-38 6.1475384e-38
0003c0 1f e6 b2 01 3a 56 b5 81 76 55 a9 01 09 6a ab 01
       6.571708e-38 -6.661263e-38 6.2203426e-38 6.296763e-38
0003d0 2b e2 b4 81 8f a8 aa 01 f2 18 b0 81 a1 0b a3 01
       -6.644609e-38 6.2690007e-38 -6.4687984e-38 5.989343e-38
0003e0 84 85 ad 81 4d fb 9f 01 e8 ba a5 01 f5 f1 aa 01
       -6.374175e-38 5.8767974e-38 6.0879625e-38 6.279533e-38
0003f0 ba d5 b3 81 de c5 a6 01 73 d8 ad 01 54 ec b0 01
       -6.60609e-38 6.1262695e-38 6.386075e-38 6.4991304e-38
