unet/unet-segment-master/np_weights/inc.double_conv.3.weight.npy (npy, 147584 bytes, 1 tensors)

array f4 [64, 64, 3, 3]
000000 f3 e6 af 81 af d1 bb 81 95 18 b2 01 e5 ee b0 81
       -6.4616243e-38 -6.899383e-38 6.5422147e-38 -6.4994986e-38
000010 95 82 b3 81 11 2e 9d 81 3c cd 9f 81 b6 7c ab 81
       -6.594159e-38 -5.7738794e-38 -5.870187e-38 -6.299443e-38
000020 9c 0f aa 81 f9 d5 a2 01 55 ab b7 81 10 cf 9e 01
       -6.2470536e-38 5.981644e-38 -6.746943e-38 5.8337154e-38
000030 20 32 b6 01 e2 6e 9f 81 26 8c bc 81 5d 2b 9c 01
       6.6928167e-38 -5.8566485e-38 -6.9261396e-38 5.7367573e-38
000040 a3 13 b8 01 2d d1 bd 01 5b 93 a5 81 61 0d a2 81
       6.76191e-38 6.972779e-38 -6.082287e-38 -5.95286e-38
000050 30 d9 9e 81 52 40 a2 81 87 e1 9e 81 16 32 a4 81
       -5.835168e-38 -5.9601697e-38 -5.836365e-38 -6.0315955e-38
000060 05 28 a3 81 2c eb b5 81 7d d5 a3 81 47 50 b0 81
       -5.993417e-38 -6.6826354e-38 -6.0183084e-38 -6.476738e-38
000070 d9 ec 9c 81 e1 d7 a3 81 ac 58 ac 81 db 70 9d 81
       -5.764521e-38 -6.0186515e-38 -6.331006e-38 -5.783463e-38
000080 44 a0 9c 81 ad 59 9e 81 81 80 a5 81 1c 23 9f 81
       -5.753532e-38 -5.816871e-38 -6.079582e-38 -5.8457755e-38
000090 84 2c a0 01 ca 06 a2 81 76 53 b0 81 51 2c a8 01
       5.8838594e-38 -5.9519143e-38 -6.477195e-38 6.1777044e-38
0000a0 3b 64 b1 81 cb ef b7 01 e7 1b 9b 01 73 4b 9a 81
       -6.5163355e-38 6.756767e-38 5.6978046e-38 -5.667893e-38
0000b0 37 fe ab 81 df 50 ac 81 2b e6 bd 81 10 15 a5 81
       -6.318026e-38 -6.3298866e-38 -6.975791e-38 -6.064165e-38
0000c0 35 06 a7 81 64 ba be 81 46 af bd 81 03 e8 ae 81
       -6.135502e-38 -7.0062435e-38 -6.967914e-38 -6.4250426e-38
0000d0 f2 a7 b1 81 18 bc 9b 81 63 89 a3 81 31 5a a5 81
       -6.526052e-38 -5.720791e-38 -6.0073884e-38 -6.0740846e-38
0000e0 bb 4a b6 81 ee 81 a2 81 5c 5b bc 81 08 12 ab 81
       -6.6963474e-38 -5.969584e-38 -6.919139e-38 -6.2841353e-38
0000f0 a0 92 ae 81 3e 3c bc 81 db f4 ae 81 1c bb a9 81
       -6.41279e-38 -6.9146736e-38 -6.4268856e-38 -6.2349284e-38
000100 0c 8a bb 81 81 2f a8 81 d4 59 b8 81 7c 3c 9f 81
       -6.889104e-38 -6.178162e-38 -6.771982e-38 -5.8494166e-38
000110 97 7e b9 81 96 4c a4 81 e6 e0 ad 81 37 66 b9 81
       -6.8139915e-38 -6.035398e-38 -6.3872877e-38 -6.810494e-38
000120 5c af 9b 81 13 d6 9b 81 4a 9e a8 81 da 92 ab 81
       -5.7189636e-38 -5.724519e-38 -6.1940587e-38 -6.30262e-38
000130 6d ee aa 81 33 bd b9 81 ab 7b a9 81 09 fa 99 81
       -6.279026e-38 -6.8229755e-38 -6.225825e-38 -5.6562107e-38
000140 21 14 b0 81 35 f6 b8 81 b8 92 a2 81 7d 4a b1 01
       -6.4681073e-38 -6.7944215e-38 -5.971993e-38 6.5126417e-38
000150 68 88 b7 81 57 0e 99 01 02 19 a9 01 07 59 99 81
       -6.7419317e-38 5.62239e-38 6.211668e-38 -5.633107e-38
000160 2a 6e b7 81 e8 5b aa 01 7f 32 a6 01 61 0f aa 81
       -6.738166e-38 6.2580016e-38 6.105123e-38 -6.2470205e-38
000170 df b8 a6 81 55 82 a1 01 32 d3 a0 81 cc 95 9d 81
       -6.1244046e-38 5.9329077e-38 -5.907777e-38 -5.788764e-38
000180 4f 89 b9 01 78 5e a3 81 62 a7 bc 81 d0 49 a7 81
       6.8155295e-38 -6.00123e-38 -6.9300476e-38 -6.1452027e-38
000190 48 5a 9d 81 17 54 99 81 3c 3e b8 81 de da b3 81
       -5.780224e-38 -5.6323987e-38 -6.7680227e-38 -6.6068274e-38
0001a0 7e 09 ac 81 72 69 ba 81 bc d5 bb 81 df bb b1 81
       -6.319644e-38 -6.8476916e-38 -6.8999645e-38 -6.5289113e-38
0001b0 c6 0e b0 01 5a f1 bc 01 58 0b b9 01 24 47 9a 01
       6.467339e-38 6.9406616e-38 6.7974545e-38 5.667275e-38
0001c0 0e 79 ab 01 20 4c b1 01 b6 3c a3 01 a0 5b be 01
       6.2989184e-38 6.5128765e-38 5.996386e-38 6.992645e-38
0001d0 a0 1a ac 01 ab ee ac 81 4b 90 b3 81 62 7d b3 01
       6.3221026e-38 -6.3525293e-38 -6.5961266e-38 6.593413e-38
0001e0 25 e5 b3 81 25 54 a7 81 5c fd 98 81 b8 0a b3 81
       -6.608302e-38 -6.1466853e-38 -5.6199535e-38 -6.5769596e-38
0001f0 a1 90 9e 81 9a 11 99 01 a3 70 9a 01 d2 da b3 01
       -5.8247566e-38 5.622858e-38 5.673229e-38 6.6068207e-38
000200 64 53 99 81 98 9f b2 81 11 0d 99 01 74 18 be 81
       -5.6322983e-38 -6.561588e-38 5.6222073e-38 -6.9830066e-38
000210 6a d8 b7 01 2c c9 a0 01 38 6e b8 81 11 49 ab 81
       6.753412e-38 5.9063385e-38 -6.774908e-38 -6.2920325e-38
000220 36 ec b6 81 71 f1 a8 81 6b e1 98 81 bc 47 9c 81
       -6.719519e-38 -6.2059905e-38 -5.615944e-38 -5.7408283e-38
000230 c8 ec b8 81 59 64 a6 81 7a 84 9f 81 d0 e7 ae 81
       -6.793069e-38 -6.112276e-38 -5.859747e-38 -6.425014e-38
000240 41 48 a0 81 2e 33 be 81 67 ae b1 81 37 72 bc 81
       -5.8878397e-38 -6.9868416e-38 -6.5269786e-38 -6.9224183e-38
000250 e4 a9 a3 81 b9 11 a2 81 40 49 a8 81 25 ea a1 81
       -6.0120525e-38 -5.953483e-38 -6.181856e-38 -5.947804e-38
000260 ad da a9 81 d3 d2 b9 01 0b 31 b3 01 2b a1 9a 01
       -6.239458e-38 6.8260785e-38 6.582459e-38 5.680193e-38
000270 1e 3f b9 01 57 f4 9c 01 79 61 a7 01 a2 f3 a3 01
       6.8048836e-38 5.765596e-38 6.148598e-38 6.022634e-38
000280 c1 71 9b 01 90 cf a7 01 9d 79 a6 81 1e cf b9 81
       5.7101236e-38 6.164395e-38 -6.1153276e-38 -6.8255466e-38
000290 af ab a9 81 86 73 a2 81 ea 77 9e 81 79 05 bb 81
       -6.232715e-38 -5.967517e-38 -5.82121e-38 -6.8700804e-38
0002a0 7c a0 b4 81 a8 05 b7 81 3b 18 b8 81 70 02 af 81
       -6.635184e-38 -6.72317e-38 -6.7625694e-38 -6.4288345e-38
0002b0 7f 7e ab 01 91 62 b9 81 60 75 b8 81 c3 0a a2 01
       6.299699e-38 -6.8099703e-38 -6.775935e-38 5.9524844e-38
0002c0 ca eb b8 81 87 a3 a4 81 73 41 99 01 28 a7 ba 01
       -6.7929266e-38 -6.0478736e-38 5.629724e-38 6.8565467e-38
0002d0 07 b5 b7 81 d4 45 b4 81 c9 44 a2 81 54 c8 98 81
       -6.7483345e-38 -6.6221756e-38 -5.9608103e-38 -5.612344e-38
0002e0 1c 56 a6 81 06 9d a0 81 10 ca ad 81 3b 50 a5 81
       -6.110233e-38 -5.9000035e-38 -6.384011e-38 -6.072655e-38
0002f0 f1 eb b2 81 e2 4f b8 81 74 6c ab 81 3b 43 bc 81
       -6.572543e-38 -6.770555e-38 -6.29711e-38 -6.9156764e-38
000300 57 6f a9 81 4a e0 9e 81 08 65 a5 81 ff ae bd 81
       -6.224056e-38 -5.836187e-38 -6.07564e-38 -6.967874e-38
000310 d1 dc a6 81 6d a9 aa 81 c2 3d ad 81 e6 ad 9c 81
       -6.1295625e-38 -6.269125e-38 -6.363878e-38 -5.755488e-38
000320 88 d3 b2 81 d9 45 a0 81 1b 81 b5 81 8a c9 9c 81
       -6.5690406e-38 -5.8874944e-38 -6.6674156e-38 -5.7594544e-38
000330 26 14 a4 81 1c 35 ad 81 20 b9 bb 81 3a 90 ae 81
       -6.0272997e-38 -6.362637e-38 -6.895859e-38 -6.412446e-38
000340 86 4d b3 01 79 4f 9a 81 16 ff a8 81 ae 53 a7 81
       6.5865456e-38 -5.6684703e-38 -6.2079484e-38 -6.1466186e-38
000350 d6 94 b4 81 42 9b b5 81 15 53 9c 01 e5 cf b4 81
       -6.6335126e-38 -6.6711683e-38 5.7424566e-38 -6.641987e-38
000360 40 b5 9c 81 ac bf 9f 81 6e 91 9d 81 ba c5 ac 81
       -5.756543e-38 -5.868241e-38 -5.7881373e-38 -6.3466545e-38
000370 8e 98 b1 81 ad 40 9b 81 6e b9 a8 81 fc 80 b0 81
       -6.5238437e-38 -5.7030813e-38 -6.197953e-38 -6.483727e-38
000380 8c 12 b5 81 5d 72 b3 81 c2 28 a8 81 09 2f ac 81
       -6.651551e-38 -6.591832e-38 -6.177194e-38 -6.3250313e-38
000390 e5 1a ae 81 66 7a b7 81 3f 50 a2 81 c2 93 bd 81
       -6.3956097e-38 -6.7399216e-38 -5.962455e-38 -6.9639657e-38
0003a0 7c cf 9a 81 30 18 ae 81 60 cd a3 81 af 9f a4 81
       -5.686839e-38 -6.395221e-38 -6.017144e-38 -6.047322e-38
0003b0 db 77 b1 81 8a 13 aa 81 de 52 b2 81 5a f2 af 81
       -6.5191515e-38 -6.2476175e-38 -6.550578e-38 -6.4632605e-38
0003c0 e7 6d b5 81 b9 b1 a5 81 37 b9 ad 81 42 2c a4 81
       -6.66466e-38 -6.0866447e-38 -6.3815934e-38 -6.030759e-38
0003d0 a6 0e 9a 81 0e b7 a4 81 9a d7 ad 81 2b dc a0 81
       -5.6591685e-38 -6.0506756e-38 -6.3859536e-38 -5.9090643e-38
0003e0 2a 85 9b 81 64 e6 b8 81 8d b0 a0 81 af 28 a2 81
       -5.712909e-38 -6.792152e-38 -5.9028055e-38 -5.956778e-38
0003f0 02 e5 b8 81 ef d6 bc 81 7e be 9c 81 37 a0 a3 81
       -6.7919535e-38 -6.936871e-38 -5.757869e-38 -6.010664e-38
