unet/unet-segment-master/np_weights/inc.double_conv.0.weight.npy (npy, 7040 bytes, 1 tensors)

array f4 [64, 3, 3, 3]
00000000: 7ffa 9e81 6713 b781 d7de a581 5cc5 a981
00000010: cbd5 a281 79fa ad81 2546 b881 64ed a981
00000020: 35f1 ba81 ff14 b681 a174 a981 586e af81
00000030: e4a6 b881 1f49 ab81 d530 a281 d3fe a081
00000040: 67c8 9b81 792d af81 5320 ba81 0049 a281
00000050: f98e b381 9ee5 b081 ab8f b601 dfd3 ab81
00000060: 55a8 ac81 999c a381 3e59 b181 0d19 a681
00000070: 1285 b681 b302 b181 fb95 a981 fd32 b381
00000080: 7e27 b781 2e58 a381 9f7c 9b81 41e6 af81
00000090: 65c6 bd81 572e b281 9993 be81 a955 bb81
000000a0: 6016 9b81 7e03 b781 515d a381 63a3 a281
000000b0: e63a 9f81 c07e 9b81 e0f1 b481 d51a ab81
000000c0: 905a a481 0451 b481 d159 b781 9e56 9d81
000000d0: a11d bd81 e517 b881 c061 af81 9a4c b081
000000e0: d651 ab81 b30c bd81 d40a ba81 490c af81
000000f0: 00a9 9b81 1f88 ae81 30a1 a681 c2d4 b801
00000100: 2298 a401 ccc6 b301 bbf6 b501 4c2a 9b01
00000110: 5026 b801 41a2 bd01 21a0 b401 1d34 a201
00000120: 71b4 a601 2a3d b201 2fe1 af01 4866 9b01
00000130: 4a98 a501 2e27 a701 b684 b701 bfa0 9d01
00000140: 02f0 ab01 b273 b001 3a01 a001 49aa b701
00000150: 97f1 bd01 de79 ae01 d4d6 a701 4a9a a201
00000160: 6fa7 bb01 5e23 be01 2f4b ba81 d828 b381
00000170: 925c b081 7c8f 9d81 7f45 bb81 e7b9 ba81
00000180: b51c a881 24c1 aa81 0c24 b381 2435 ab81
00000190: 3d3c ac81 c639 b681 0978 a381 0751 9e81
000001a0: d8b1 b781 a360 b081 7600 af81 4be7 a381
000001b0: 263c a901 690e b101 02ab b201 8932 b101
000001c0: b834 ab01 347e aa01 725b b801 aab8 b501
000001d0: 0ee5 ba01 454a 9901 6ee0 ba01 5d4b 9901
000001e0: b463 ac01 673d bb01 1237 be01 741a a201
000001f0: 7978 ab01 120e 9f01 e265 ba01 f4fa 9901
00000200: 767b 9b01 55d6 a201 e1bf a201 5b37 a601
00000210: 0c34 ae01 eb90 a601 10e3 a701 7406 b881
00000220: ebf8 9e01 121e ae01 aa53 a881 b43a b501
00000230: 780f b901 436d bd81 3304 bc01 83ae a801
00000240: ef0e bc81 2d12 9a01 e396 a201 7e68 b781
00000250: e80c ad01 4461 b301 5f72 b481 ba98 b881
00000260: 50f1 af81 dad2 bc81 13ad af81 684b a381
00000270: 4998 b481 f340 b181 5ea9 ac81 8d03 b381
00000280: 466d b681 50f5 bb81 0bc4 b181 6ad3 a481
00000290: e1cd 9b81 d76e ad81 9977 a881 a191 be01
000002a0: e7b2 bd81 80c5 a201 3c6f 9a01 bfb6 a301
000002b0: 3125 9e01 2b36 a701 4b27 b801 58c6 a401
000002c0: a32f a501 4b27 ae01 f35b b301 dcb2 a001
000002d0: 074a b801 7b93 a401 3b51 ae01 fda4 b301
000002e0: ceca bc01 4c6e ac01 1b90 bb01 a5d6 9d01
000002f0: 9ec8 9d01 7f49 a781 b8ce af81 cd3d b181
00000300: 0acc bc81 c0dd a481 718e b281 1b89 af81
00000310: 4fed a381 af03 bd81 1764 af81 6cf4 b781
00000320: a6e0 a181 85db b681 c27e a681 7f55 b481
00000330: 4d92 b081 1448 b881 ed49 a581 9af0 b481
00000340: 471f ad81 df31 a581 086c b581 d5b8 a881
00000350: c818 a781 3b88 b581 9bd8 ad81 4882 bc81
00000360: 0de5 b081 6956 be81 470e a481 c169 9981
00000370: 2982 a481 bed7 9f81 8560 9c81 0b27 9d81
00000380: 6152 a581 ddbb b081 c245 9981 ae45 a281
00000390: d937 b881 fd4a b181 8e0c ae81 d4f9 9e81
000003a0: 3481 b881 2ec6 b581 1464 b881 07a4 9c81
000003b0: f055 a581 aa35 bc81 9ac6 9f81 63a6 a281
000003c0: 22fd bb81 0ba1 bb81 e1fc bd81 189b be81
000003d0: 5cd7 9d81 6f9d b481 2471 ae81 4a6d a381
000003e0: 1043 9b81 ff31 b181 fabb 9981 c63b b581
000003f0: 4e72 a281 2e30 9c81 70d6 bd81 073e aa81
-5.839948e-38 -6.7251424e-38 -6.0931187e-38 -6.236399e-38 -5.981618e-38 -6.3909574e-38 -6.769158e-38 -6.2421434e-38
-6.8671724e-38 -6.688637e-38 -6.224815e-38 -6.4443183e-38 -6.78304e-38 -6.2920403e-38 -5.957947e-38 -5.914037e-38
-5.722557e-38 -6.43501e-38 -6.837199e-38 -5.961415e-38 -6.595937e-38 -6.4981674e-38 6.7062395e-38 -6.31195e-38
-6.3424366e-38 -6.010145e-38 -6.514759e-38 -6.1014716e-38 -6.704719e-38 -6.5023404e-38 -6.2296007e-38 -6.582738e-38
-6.728025e-38 -6.0003275e-38 -5.711683e-38 -6.4615245e-38 -6.971232e-38 -6.545337e-38 -7.000677e-38 -6.881587e-38
-5.6970114e-38 -6.7228594e-38 -6.0010646e-38 -5.974385e-38 -5.849189e-38 -5.7119885e-38 -6.646863e-38 -6.285398e-38
-6.0374036e-38 -6.623781e-38 -6.7352463e-38 -5.779698e-38 -6.947015e-38 -6.762521e-38 -6.442511e-38 -6.4762107e-38
-6.293291e-38 -6.944586e-38 -6.8341147e-38 -6.4302476e-38 -5.718051e-38 -6.411283e-38 -6.121006e-38 6.789622e-38
6.0462385e-38 6.6039475e-38 6.684294e-38 5.69987e-38 6.76459e-38 6.966046e-38 6.635133e-38 5.958418e-38
6.123769e-38 6.547464e-38 6.460797e-38 5.7084774e-38 6.082995e-38 6.140233e-38 6.7414014e-38 5.790335e-38
6.3159874e-38 6.4818204e-38 5.877648e-38 6.746793e-38 6.97743e-38 6.4092376e-38 6.1654375e-38 5.9730795e-38
6.8933207e-38 6.9845727e-38 -6.843349e-38 -6.5812823e-38 -6.478502e-38 -5.787858e-38 -6.8792673e-38 -6.8592366e-38
-6.1754646e-38 -6.272528e-38 -6.580594e-38 -6.289173e-38 -6.326926e-38 -6.693914e-38 -6.0048985e-38 -5.81563e-38
-6.7478776e-38 -6.4790856e-38 -6.428551e-38 -6.020863e-38 6.2167104e-38 6.504021e-38 6.563226e-38 6.5092046e-38
6.2891127e-38 6.262923e-38 6.772214e-38 6.675388e-38 6.8654286e-38 5.6309895e-38 6.864765e-38 5.6311465e-38
6.332589e-38 6.878106e-38 6.9874e-38 5.954736e-38 6.298835e-38 5.8427565e-38 6.8471804e-38 5.6563424e-38
5.7115165e-38 5.9816953e-38 5.9784734e-38 6.10582e-38 6.399219e-38 6.1186717e-38 6.167193e-38 -6.7600185e-38
5.8397213e-38 6.3960654e-38 -6.1833505e-38 6.6573134e-38 6.7980464e-38 -6.958442e-38 6.906632e-38 6.1963865e-38
-6.908172e-38 5.6596747e-38 5.9725913e-38 -6.737352e-38 6.3568683e-38 6.5893785e-38 -6.628567e-38 -6.7810077e-38
-6.4631114e-38 -6.936285e-38 -6.4533197e-38 -5.9984946e-38 -6.6340076e-38 -6.511273e-38 -6.342585e-38 -6.575931e-38
-6.701304e-38 -6.904496e-38 -6.530084e-38 -6.054745e-38 -5.723343e-38 -6.370921e-38 -6.188507e-38 7.0003944e-38
-6.968435e-38 5.97928e-38 5.673028e-38 6.013897e-38 5.80934e-38 6.142384e-38 6.764731e-38 6.0528695e-38
6.0679783e-38 6.397389e-38 6.5886156e-38 5.903137e-38 6.769715e-38 6.045571e-38 6.4034065e-38 6.599096e-38
6.9351304e-38 6.334109e-38 6.889973e-38 5.798069e-38 5.7960563e-38 -6.1451573e-38 -6.4581474e-38 -6.510821e-38
-6.9353075e-38 -6.056228e-38 -6.5591267e-38 -6.4481584e-38 -6.0217265e-38 -6.943292e-38 -6.442847e-38 -6.757431e-38
-5.9464414e-38 -6.7171236e-38 -6.116066e-38 -6.624424e-38 -6.486212e-38 -6.769435e-38 -6.0717506e-38 -6.6466804e-38
-6.3595044e-38 -6.068299e-38 -6.6643916e-38 -6.1978674e-38 -6.138167e-38 -6.668438e-38 -6.3860977e-38 -6.924724e-38
-6.498086e-38 -6.991897e-38 -6.026457e-38 -5.6355073e-38 -6.0430856e-38 -5.871695e-38 -5.744385e-38 -5.7728715e-38
-6.0729635e-38 -6.492176e-38 -5.630342e-38 -5.9609387e-38 -6.767106e-38 -6.5127134e-38 -6.393552e-38 -5.839852e-38
-6.777632e-38 -6.6773273e-38 -6.773453e-38 -5.754072e-38 -6.073474e-38 -6.91373e-38 -5.8692355e-38 -5.9748155e-38
-6.905618e-38 -6.8924036e-38 -6.97905e-38 -7.0017526e-38 -5.7981717e-38 -6.6347463e-38 -6.4079854e-38 -6.0033566e-38
-5.703424e-38 -6.509127e-38 -5.6473057e-38 -6.657467e-38 -5.967342e-38 -5.7374484e-38 -6.973534e-38 -6.253714e-38
