unet/unet-segment-master/np_weights/up1.conv.double_conv.3.bias.npy (npy, 1152 bytes, 1 tensors)

array f4 [256]
00000000: efd5 a481 8cbb a881 79ba 9e81 4c73 a281
00000010: 9784 9d01 2a77 bb01 07b4 b801 8940 9e01
00000020: ee5f a601 803e 9d01 a1a7 9f01 7d3c 9901
00000030: 5faa a081 bee4 9a01 0df7 a981 2403 b101
00000040: 8b8c b201 6123 98bd e0af 9881 3e5c 9d01
00000050: f761 a181 bbf2 a401 2c0f aa01 3a30 ad81
00000060: db42 a181 e3d8 ac01 dc3d b781 3799 a201
00000070: 5012 b501 c7a7 a881 d93d b681 afd2 9e01
00000080: 392e be81 bfcb a101 67c0 a081 044f a481
00000090: 1fde af01 df9d b601 bffc b181 7b11 a001
000000a0: d713 ad81 715a 9b01 1733 9a01 8c18 9a81
000000b0: c473 ba81 3c12 a381 3587 9f81 b0a0 be81
000000c0: 72a3 a301 4839 9f81 8ab5 9901 9273 aa01
000000d0: aa12 9c81 b40e a781 2998 b401 2734 a281
000000e0: 45eb a881 19d6 9e81 cc0e b781 dfdd ac01
000000f0: 4d9c ba81 4755 9a81 dd0f a801 b1bd ae01
00000100: d308 9f01 448e ab81 efdb a381 9c32 b981
00000110: 087b bb01 4563 b981 e049 bb01 7c4c b581
00000120: a83a b281 3c3a 9c81 efee 35bd 0d75 ac81
00000130: e793 b101 1f1f a181 4882 b281 d694 a881
00000140: 06d8 a501 ebed 9981 738f a401 59b5 b681
00000150: 22a3 b481 952f a001 653d ad81 63d7 a201
00000160: 2910 9b81 3268 ae81 d56d b001 2384 a481
00000170: 20f5 ae81 c57d b301 4aa8 a781 5d37 9a81
00000180: 0566 a201 aa69 ba01 fee8 b581 0e01 b081
00000190: 54c3 a481 6f5c ab81 b193 ac01 3440 be81
000001a0: 18c8 a081 8791 bb01 5d3c b281 a994 9c81
000001b0: 65f6 bb01 7448 9a01 8809 9c81 0038 ba01
000001c0: 6c67 a501 5c8e b881 f4d6 b101 3a14 ae01
000001d0: ef28 b981 18c3 9c01 27c7 ae81 6d50 9f81
000001e0: f722 b801 762c 9d01 8b48 ac81 9487 b481
000001f0: f360 ae01 b44b b501 1d05 9d01 3a94 bc01
00000200: 2955 bd81 16ec a881 7592 af01 6fc2 b701
00000210: 4365 a181 856e 9e81 85dd b981 8867 a001
00000220: 49ff b481 bad5 b101 accd ae01 2c18 be81
00000230: 1a2c b381 7e62 9b01 80c2 b181 7c39 b701
00000240: 7b30 b181 ab58 ab01 aab0 9b01 5a0d b081
00000250: a6b4 b801 6b04 bc81 2d8c a401 bac8 a181
00000260: 03f2 b381 99cb a901 22b3 b181 a1a1 bb01
00000270: dd72 563d 6bc5 9e81 5213 ad81 d960 b781
00000280: 5570 a801 305d bb81 16b9 9a01 2822 b081
00000290: 6123 ac01 cbe5 9981 6a3e b101 275d a381
000002a0: 474d ac01 85d7 bc81 8209 bd81 8fee b501
000002b0: 8cf4 9d01 fdc3 ba81 3eab a301 e0db a381
000002c0: e85f ac01 314a 9d01 f4cd a581 7417 a401
000002d0: 3449 af01 9c49 9d01 296a a101 caf1 9f01
000002e0: b3c9 a881 e63d 9c01 14c9 9981 0019 9901
000002f0: fc03 9f01 2fc1 9e81 3586 b101 2f9c ad81
00000300: 9fe7 9881 805c b981 fda6 a981 5bc6 a401
00000310: 732b 67bf 90be a381 041e a201 c07b a581
00000320: fcd9 033f 852f ba01 26cb ae01 e928 9f01
00000330: 61dc b901 50a2 bc01 4adc a101 c71c b201
00000340: 4105 b981 f6ef a881 d227 ac01 e2e2 b501
00000350: 8780 9e81 087c ac81 fffe aa81 6345 9a01
00000360: 7a38 9c01 a36f a781 38de b681 944b b581
00000370: 98c3 9e01 47ac ae81 2988 b801 ba24 ad01
00000380: 65e7 b001 0a5f a881 65c4 9c01 1c89 9b01
00000390: 42dd b501 3067 a181 dc04 aa81 24bf a001
000003a0: 60d4 a801 a608 b901 3126 e63e f041 b581
000003b0: c94b ae81 8e3a ac01 4c82 b001 c2c3 b601
000003c0: dbba 9c81 6f4a ad01 01d0 ad01 b660 bc01
000003d0: d890 aa01 53a9 b001 9ea5 b781 0ab9 b201
000003e0: 8045 b981 0081 be81 3159 9c81 38a1 9901
000003f0: 8ef5 b401 df6a a581 f181 a801 6669 9c01
-6.0551065e-38 -6.198257e-38 -5.830761e-38 -5.9674844e-38 5.786295e-38 6.8863943e-38 6.784925e-38 5.8132637e-38
6.111642e-38 5.7762375e-38 5.864791e-38 5.629012e-38 -5.901919e-38 5.6898895e-38 -6.2435296e-38 6.502404e-38
6.558854e-38 -0.07428623 -5.608835e-38 5.780505e-38 -5.928263e-38 6.0592387e-38 6.246991e-38 -6.3619365e-38
-5.923799e-38 6.349404e-38 -6.7312347e-38 5.9729254e-38 6.6515176e-38 -6.19542e-38 -6.694499e-38 5.834235e-38
-6.9861303e-38 5.943442e-38 -5.90508e-38 -6.035747e-38 6.4603575e-38 6.7082775e-38 -6.5382204e-38 5.87998e-38
-6.357863e-38 5.7067785e-38 5.6643976e-38 -5.660589e-38 -6.8491725e-38 -5.990291e-38 -5.860139e-38 -7.002555e-38
6.0111276e-38 -5.848957e-38 5.646382e-38 6.261397e-38 -5.733213e-38 -6.136721e-38 6.6339896e-38 -5.9584236e-38
-6.205105e-38 -5.834725e-38 -6.7244816e-38 6.350119e-38 -6.854989e-38 -5.669303e-38 6.1736216e-38 6.41897e-38
5.842004e-38 -6.301962e-38 -6.019233e-38 -6.803089e-38 6.886949e-38 -6.810071e-38 6.8798957e-38 -6.659865e-38
-6.547104e-38 -5.738891e-38 -0.044417318 -6.335078e-38 6.523176e-38 -5.9186716e-38 -6.557382e-38 -6.192702e-38
6.0921406e-38 -5.654472e-38 6.0449925e-38 -6.711646e-38 -6.635564e-38 5.8842994e-38 -6.363826e-38 5.9818466e-38
-5.6961196e-38 -6.406702e-38 6.480979e-38 -6.043369e-38 -6.426924e-38 6.5934686e-38 -6.1587594e-38 -5.665011e-38
5.965579e-38 6.847723e-38 -6.6823227e-38 -6.46537e-38 -6.052437e-38 -6.2948115e-38 6.339475e-38 -6.9887104e-38
-5.906184e-38 6.890177e-38 -6.547349e-38 -5.7518666e-38 6.904651e-38 5.667463e-38 -5.7319026e-38 6.8405965e-38
6.075983e-38 -6.77952e-38 6.5327974e-38 6.394653e-38 -6.8017004e-38 5.7585295e-38 -6.4203275e-38 -5.852278e-38
6.76411e-38 5.773649e-38 -6.3286915e-38 -6.63161e-38 6.405662e-38 6.659753e-38 5.768003e-38 6.927299e-38
-6.9549834e-38 -6.205222e-38 6.4495003e-38 6.750258e-38 -5.9287363e-38 -5.819862e-38 -6.827613e-38 5.892328e-38
-6.6487873e-38 6.5326214e-38 6.421263e-38 -6.982966e-38 -6.58175e-38 5.7079337e-38 -6.5298625e-38 6.730607e-38
-6.50891e-38 6.294271e-38 5.719151e-38 -6.467135e-38 6.7850143e-38 -6.906663e-38 6.044523e-38 -5.943009e-38
-6.6101485e-38 6.2372944e-38 -6.5276574e-38 6.892488e-38 0.052355636 -5.8323314e-38 -6.3577887e-38 -6.736255e-38
6.187464e-38 -6.882667e-38 5.683625e-38 -6.47012e-38 6.323359e-38 -5.653306e-38 6.510909e-38 -6.001041e-38
6.329371e-38 -6.936955e-38 -6.944128e-38 6.6831214e-38 5.80236e-38 -6.860684e-38 6.0122464e-38 -6.019225e-38
6.332044e-38 5.777915e-38 -6.0906956e-38 6.027774e-38 6.438989e-38 5.7778316e-38 5.929439e-38 5.8754326e-38
-6.200288e-38 5.739417e-38 -5.6491857e-38 5.6239197e-38 5.8413093e-38 -5.831724e-38 6.521211e-38 -6.3774276e-38
-5.616834e-38 -6.8091e-38 -6.232041e-38 6.052871e-38 -0.90300673 -6.015019e-38 5.955247e-38 -6.0789e-38
0.5150449 6.8393796e-38 6.420901e-38 5.846608e-38 6.8274495e-38 6.92932e-38 5.945816e-38 6.5428167e-38
-6.7965806e-38 -6.205778e-38 6.323996e-38 6.681446e-38 -5.822446e-38 -6.33608e-38 -6.281404e-38 5.667023e-38
5.738639e-38 -6.15063e-38 -6.717511e-38 -6.659735e-38 5.8320697e-38 -6.416471e-38 6.7786305e-38 6.3602863e-38
6.4984224e-38 -6.184983e-38 5.758716e-38 5.713475e-38 6.680639e-38 -5.9290126e-38 -6.245511e-38 5.904899e-38
6.2018197e-38 6.7970677e-38 0.44951013 -6.6583515e-38 -6.402625e-38 6.3266843e-38 6.4839156e-38 6.713714e-38
-5.7573474e-38 6.365697e-38 6.3848634e-38 6.9199067e-38 6.265598e-38 6.489516e-38 -6.746123e-38 6.565239e-38
-6.8057995e-38 -6.9980083e-38 -5.7433333e-38 5.643466e-38 6.647391e-38 -6.076478e-38 6.189991e-38 5.745659e-38
