unet/unet-segment-master/np_weights/up1.conv.double_conv.4.weight.npy (npy, 1152 bytes, 1 tensors)

array f4 [256]
000000 f4 99 be 01 90 45 b1 01 b3 45 b7 81 93 33 ad 01
       7.001589e-38 6.511935e-38 -6.7323597e-38 6.362417e-38
000010 cb cc a4 81 b5 3a a6 01 14 63 9c 81 57 04 b5 01
       -6.053795e-38 6.106301e-38 -5.744752e-38 6.6495127e-38
000020 a6 c4 99 01 b9 76 a3 01 34 83 af 81 a7 a1 9e 81
       5.64855e-38 6.00471e-38 -6.4473115e-38 -5.8271993e-38
000030 31 8e b5 01 7f 11 9a 01 0f b9 a3 01 1a b1 a5 01
       6.6692934e-38 5.659577e-38 6.014229e-38 6.0865556e-38
000040 5e 4a 9b 81 ad 8c 14 43 cf 8f af 01 2f 97 b3 01
       -5.704472e-38 148.54951 6.44912e-38 6.5971153e-38
000050 1e f9 b2 01 0f 8b 9d 01 d5 32 ab 81 54 a5 b8 81
       6.574434e-38 5.787223e-38 -6.288842e-38 -6.782816e-38
000060 a1 f3 a4 01 4b 4b 9b 81 69 cb 9a 81 72 5d bb 01
       6.0593676e-38 -5.704605e-38 -5.6862545e-38 6.882704e-38
000070 80 5e 9a 01 76 36 af 01 9c 53 bd 01 4b c3 98 01
       5.6706266e-38 6.4362995e-38 6.954761e-38 5.6116213e-38
000080 19 60 a8 01 d4 66 a3 01 ec 01 b5 01 be e7 b6 01
       6.1851347e-38 6.0024295e-38 6.6491657e-38 6.7188775e-38
000090 9e 1b 9e 81 31 99 9f 01 40 31 b8 01 6e a1 b1 01
       -5.807966e-38 5.8627194e-38 6.7661595e-38 6.525117e-38
0000a0 00 72 ba 01 08 e8 ab 01 64 7b b2 01 d0 a1 a0 01
       6.848919e-38 6.314843e-38 6.556393e-38 5.9006907e-38
0000b0 3d e9 b2 01 98 7e bd 01 be a1 bc 81 48 34 9f 01
       6.5721554e-38 6.960929e-38 -6.929238e-38 5.8482395e-38
0000c0 91 4f ad 01 d5 a0 b0 01 ec ee b6 81 5c 04 a3 01
       6.3664336e-38 6.488297e-38 -6.719908e-38 5.9883e-38
0000d0 c5 d9 b8 81 c9 fa ab 01 88 81 b0 01 13 34 bd 81
       -6.790341e-38 6.317534e-38 6.483806e-38 -6.950236e-38
0000e0 33 f5 af 01 ce 26 ac 01 95 da ad 01 ba c7 b4 81
       6.463669e-38 6.3238503e-38 6.3863813e-38 -6.640815e-38
0000f0 ac d5 bb 01 08 07 bb 01 7d 1e aa 01 3a 73 b9 01
       6.8999555e-38 6.870304e-38 6.2491886e-38 6.812361e-38
000100 bf 97 b8 01 18 aa 9f 01 ac ee a3 01 87 36 a0 81
       6.780867e-38 5.865145e-38 6.021922e-38 -5.885296e-38
000110 14 c5 bd 01 2d c5 ab 81 0f 95 a0 01 6b 10 ae 81
       6.971043e-38 -6.309841e-38 5.8988606e-38 -6.3941064e-38
000120 51 ff a6 01 97 4a aa 01 41 5f a7 c2 57 35 b2 01
       6.134513e-38 6.255517e-38 -83.68604 6.546341e-38
000130 f6 d3 ac 01 fe cd 9f 01 b6 48 b3 81 10 a4 b3 01
       6.348697e-38 5.870296e-38 -6.585855e-38 6.5989633e-38
000140 f9 9b a3 01 f5 aa b3 81 14 7f ad 01 4b 09 a4 81
       6.0100553e-38 -6.5999527e-38 6.373251e-38 -6.025742e-38
000150 8e c0 ab 81 44 7c a0 81 be 63 9a 01 5d b4 ae 01
       -6.309178e-38 -5.895303e-38 5.671379e-38 6.4176314e-38
000160 5f ef a9 01 4b fa 9b 01 20 95 ad 01 50 df a5 01
       6.2424276e-38 5.729716e-38 6.376415e-38 6.0931865e-38
000170 f9 e5 9e 81 57 1c ae 01 28 11 9c 01 4e 52 ba 81
       -5.837003e-38 6.395817e-38 5.732997e-38 -6.844371e-38
000180 e8 4c a2 01 fb ff a6 01 71 08 ae 81 12 22 aa 01
       5.9619757e-38 6.1346083e-38 -6.392962e-38 6.2497026e-38
000190 72 0c bc 01 2b 2b b1 01 aa fe b9 01 6a 9e a3 01
       6.907815e-38 6.5081474e-38 6.832369e-38 6.0104057e-38
0001a0 cc 54 a2 81 59 a6 be 81 6d e5 9c 01 ee c5 a7 81
       -5.963108e-38 -7.0033674e-38 5.763456e-38 -6.1630127e-38
0001b0 95 22 ae 81 c1 ea 9f 01 db da a4 01 cc 07 b3 01
       -6.396713e-38 5.874423e-38 6.055813e-38 6.5765403e-38
0001c0 e5 a1 b4 81 11 5f aa 01 98 53 a4 01 19 c6 b7 01
       -6.6353864e-38 6.258455e-38 6.0364037e-38 6.750784e-38
0001d0 e8 45 9f 01 f8 f9 9e 01 5d 24 a8 01 7b 00 9a 01
       5.8507686e-38 5.839872e-38 6.176563e-38 5.6571355e-38
0001e0 2c 74 b3 01 8c f5 b6 01 68 69 b3 01 37 86 a7 81
       6.5920914e-38 6.7208584e-38 6.5905466e-38 -6.15387e-38
0001f0 49 06 99 01 e2 67 ae 01 ef 28 ab 01 43 b9 a2 01
       5.621234e-38 6.406657e-38 6.2874216e-38 5.977524e-38
000200 66 e9 bb 01 11 bf aa 01 7d 95 a5 01 f5 a0 a9 01
       6.902786e-38 6.2722304e-38 6.082593e-38 6.231176e-38
000210 44 8d 9e 81 7e a0 a1 01 0a 5a b8 01 bc 2b ac 01
       -5.824274e-38 5.9372355e-38 6.7720125e-38 6.3245577e-38
000220 00 53 a5 01 a5 6b b1 01 63 d1 a3 01 75 fe a4 01
       6.0730527e-38 6.5173994e-38 6.01772e-38 6.0609213e-38
000230 d1 18 ad 01 e8 15 bb 01 f4 8b a2 01 db 54 bd 01
       6.3585773e-38 6.8724385e-38 5.9710224e-38 6.9549397e-38
000240 c0 33 b4 81 1e a6 9c 01 7f 27 9e 81 f1 99 a0 01
       -6.6195815e-38 5.7543716e-38 -5.809671e-38 5.899561e-38
000250 15 87 a8 01 cf 14 af 01 f6 68 ab 81 d7 27 b5 81
       6.1907287e-38 6.4314706e-38 -6.296609e-38 -6.6546067e-38
000260 85 d1 bc 01 0f 13 aa 01 3b 3f a7 01 a4 91 a6 01
       6.936094e-38 6.2475485e-38 6.143684e-38 6.1187753e-38
000270 4b f6 97 c2 12 ea b4 01 dd b4 9a 01 d6 4c ae 01
       -75.98104 6.645743e-38 5.683019e-38 6.402776e-38
000280 4c 8f b2 01 f8 cc b1 01 4b 33 a8 81 7c 5d 9f 81
       6.5592494e-38 6.5313647e-38 -6.1787055e-38 -5.854152e-38
000290 6c 42 9e 81 83 dd a9 81 cf 68 aa 01 c6 b2 9f 01
       -5.8135344e-38 -6.239865e-38 6.259853e-38 5.8663903e-38
0002a0 33 b2 ae 01 11 55 b9 01 1e 3d be 01 58 e6 b9 01
       6.417321e-38 6.808033e-38 6.9882676e-38 6.8288794e-38
0002b0 b3 81 b9 81 f2 f2 a7 81 e9 86 b8 01 68 4f b5 01
       -6.8144376e-38 -6.169472e-38 6.778451e-38 6.660284e-38
0002c0 e4 66 a1 01 79 bf a8 81 07 78 b5 81 9e df ad 01
       5.92897e-38 -6.1988203e-38 -6.666113e-38 6.387104e-38
0002d0 d5 a9 b3 81 8c ea b8 01 9c c3 aa 01 59 59 9c 01
       -6.599791e-38 6.7927483e-38 6.2728823e-38 5.743356e-38
0002e0 2c 25 a2 01 13 33 b8 01 f4 bf b1 01 25 1c bd 01
       5.956274e-38 6.7664213e-38 6.529497e-38 6.946802e-38
0002f0 d2 2b ae 81 64 bb b3 81 f4 74 a4 01 5a 58 a0 01
       -6.3980384e-38 -6.602311e-38 6.0411905e-38 5.8901496e-38
000300 7d 4d a7 01 cd 23 b0 01 92 76 b7 01 3a e1 b8 01
       6.14573e-38 6.470356e-38 6.7393723e-38 6.791411e-38
000310 17 d5 73 c3 1a a4 a3 01 a9 f1 a8 81 9d b7 a5 81
       -243.83238 6.011222e-38 -6.206022e-38 -6.08749e-38
000320 71 e3 6d 43 91 e9 a0 01 c1 4f aa 81 92 9f ae 01
       237.88844 5.910987e-38 -6.256258e-38 6.414648e-38
000330 fc 6a af 81 74 bf 98 01 d1 18 ad 01 6d 1b b2 01
       -6.443836e-38 5.6110703e-38 6.3585773e-38 6.542623e-38
000340 bb 8d a7 01 52 46 b6 01 9b 96 a9 01 3d ba b0 01
       6.1549485e-38 6.6957146e-38 6.2296904e-38 6.491943e-38
000350 1b fd a0 01 d2 ff ae 01 dc 84 a9 01 dd 05 ba 81
       5.9137906e-38 6.428459e-38 6.227144e-38 -6.833402e-38
000360 38 3e b1 01 14 c8 ac 81 d0 d8 a5 01 9b ae ae 81
       6.510881e-38 -6.346992e-38 6.092254e-38 -6.416805e-38
000370 41 25 aa 01 6c 9f a7 81 c6 f6 b5 01 c4 83 b3 81
       6.2501594e-38 -6.157487e-38 6.6843e-38 -6.594329e-38
000380 44 b0 a7 81 19 27 b0 81 8a 88 b4 01 bc b3 9b 01
       -6.159904e-38 -6.470829e-38 6.631748e-38 5.7195914e-38
000390 9e 5e be 01 6e 65 bd 81 5f 54 b0 01 77 32 9f 01
       6.9930746e-38 -6.957318e-38 6.4773256e-38 5.847979e-38
0003a0 89 64 a7 81 2b 0a af 01 4b 92 32 43 46 3a 9b 01
       -6.149037e-38 6.429944e-38 178.57146 5.7021626e-38
0003b0 fc a9 bc 01 ec 5b 9f 01 56 cc b5 01 be f6 ad 81
       6.930421e-38 5.8539277e-38 6.6782107e-38 -6.390422e-38
0003c0 4b a4 a2 81 dd bd b0 81 36 2f b0 01 a6 bf a7 01
       -5.974515e-38 -6.492463e-38 6.4719934e-38 6.1621113e-38
0003d0 1a 17 ac 01 d7 08 ae 01 70 9d ac 01 6c cb b1 01
       6.321597e-38 6.393019e-38 6.3408733e-38 6.531143e-38
0003e0 f0 26 ae 01 f0 5d bc 01 d7 ea bd 81 10 fb a9 81
       6.397338e-38 6.9195087e-38 -6.9764614e-38 -6.244105e-38
0003f0 06 32 b7 01 ce f7 bd 81 8b 10 bd 01 97 b3 b3 01
       6.7295363e-38 -6.978322e-38 6.9451373e-38 6.6011914e-38
