unet/unet-segment-master/np_weights/up1.conv.double_conv.1.weight.npy (npy, 1152 bytes, 1 tensors)

array f4 [256]
0	0x81a51c41	-6.065197e-38
1	0x01b8f36a	6.794021e-38
2	0x01aede47	6.423646e-38
3	0x81bc9a2e	-6.928153e-38
4	0x01b56f0c	6.6648244e-38
5	0x01a314f1	5.9906793e-38
6	0x019e6a54	5.8192607e-38
7	0x0198d2f3	5.613868e-38
8	0x019fb14c	5.8661784e-38
9	0x019eec70	5.8379305e-38
10	0x01be4c20	6.990421e-38
11	0x01b43cbe	6.620872e-38
12	0x01a6ce5a	6.127487e-38
13	0x01b0e74e	6.4984095e-38
14	0x01aab143	6.2702495e-38
15	0x01b25c74	6.5519537e-38
16	0x01b5609d	6.662753e-38
17	0x01a2f014	5.9853897e-38
18	0x019923a4	5.6254465e-38
19	0x01ab2fae	6.2883896e-38
20	0x01b90f80	6.798051e-38
21	0x81b55c35	-6.662121e-38
22	0x01a413f0	6.0272694e-38
23	0x01b26b0f	6.5540495e-38
24	0x81b186f9	-6.521321e-38
25	0x01aeeab2	6.4254277e-38
26	0x01a66a1c	6.113103e-38
27	0x81b2da83	-6.570042e-38
28	0x81a96d60	-6.223774e-38
29	0x01a5871a	6.080529e-38
30	0x01a62625	6.1033504e-38
31	0x01b6bcc0	6.7127084e-38
32	0x01acaba7	6.342913e-38
33	0x01b76c60	6.7379094e-38
34	0x01ba847e	6.8515726e-38
35	0x01a0288f	5.8832916e-38
36	0x01b09295	6.4862524e-38
37	0x01a7ff48	6.171242e-38
38	0x81a8263e	-6.176833e-38
39	0x019cb977	5.757148e-38
40	0x01bdc8a0	6.971552e-38
41	0x01a50e6b	6.0632116e-38
42	0x81b84a2b	-6.769735e-38
43	0x019ac91b	5.685924e-38
44	0x019b50ae	5.705378e-38
45	0x01bde740	6.975946e-38
46	0x01b3208e	6.580093e-38
47	0x01a716b5	6.1378694e-38
48	0x01b8c969	6.7879935e-38
49	0x019b88a5	5.7134083e-38
50	0x01ab2297	6.2865113e-38
51	0x01a2b3f7	5.976764e-38
52	0x019b176c	5.6971616e-38
53	0x019e7ef7	5.822222e-38
54	0x01b88df8	6.779464e-38
55	0x01b64fa1	6.6970503e-38
56	0x81a04297	-5.887027e-38
57	0x01af3640	6.436269e-38
58	0x01bce2d0	6.9385753e-38
59	0x01b85fea	6.7728555e-38
60	0x81bb0af5	-6.8708674e-38
61	0x01bcb98d	6.9326545e-38
62	0x01a9b645	6.234234e-38
63	0x019f9067	5.861458e-38
64	0x01be2446	6.9847027e-38
65	0x81be9107	-7.000308e-38
66	0x019db7d8	5.7936494e-38
67	0x42a71382	83.5381
68	0x01af2d29	6.434965e-38
69	0x81bd78f4	-6.9601194e-38
70	0x01b97368	6.8123867e-38
71	0x81bda675	-6.966649e-38
72	0x01bb4922	6.879789e-38
73	0x81baebb1	-6.866381e-38
74	0x019abf93	5.684556e-38
75	0x01bb46c0	6.879447e-38
76	0x01b576c6	6.665933e-38
77	0x81b918c2	-6.7993793e-38
78	0x01a004de	5.87817e-38
79	0x01adb321	6.38072e-38
80	0x01a98ff1	6.228734e-38
81	0x01a16e29	5.930013e-38
82	0x01b7771c	6.7394497e-38
83	0x81b80909	-6.760389e-38
84	0x01b01aca	6.469063e-38
85	0x01a84c91	6.182332e-38
86	0x01a42433	6.029603e-38
87	0x019abe95	5.684414e-38
88	0x01aa90b5	6.265578e-38
89	0x019b4173	5.703192e-38
90	0x819f9246	-5.861727e-38
91	0x81a70d04	-6.136479e-38
92	0x019dcaa4	5.7963467e-38
93	0x8199e870	-5.6536855e-38
94	0x019f0ee2	5.842873e-38
95	0x019caa45	5.7549674e-38
96	0x81a0c707	-5.906031e-38
97	0x81a5dc43	-6.092749e-38
98	0x81bdfa0f	-6.978645e-38
99	0x01b522d6	6.6538886e-38
100	0x01ae3006	6.3986416e-38
101	0x81a3b00b	-6.012935e-38
102	0x01b902f2	6.7962493e-38
103	0x81af2b40	-6.434691e-38
104	0x81aa5f9f	-6.2585347e-38
105	0x81bae4b1	-6.8653765e-38
106	0x81bcbe73	-6.9333574e-38
107	0x01bb2c20	6.875627e-38
108	0x01bb0708	6.870304e-38
109	0xc33ace25	-186.80525
110	0x01ab4439	6.2913374e-38
111	0x01b08c53	6.4853545e-38
112	0x01b3e37f	6.6080656e-38
113	0x81aa24a2	-6.2500703e-38
114	0x01a3e801	6.020965e-38
115	0x01b7929c	6.743396e-38
116	0x81b76f28	-6.7383085e-38
117	0x42c160d2	96.6891
118	0x01a53f37	6.0702136e-38
119	0x01a73543	6.142254e-38
120	0x01a5214b	6.06592e-38
121	0x01abcefe	6.31125e-38
122	0x01ac4063	6.327521e-38
123	0x01b07f2a	6.483466e-38
124	0x81b78f35	-6.7429075e-38
125	0x01ac11ea	6.3208527e-38
126	0x3ed4bf02	0.41551977
127	0x81a209b0	-5.95233e-38
128	0x01ba5dad	6.846003e-38
129	0x01aaffa2	6.281495e-38
130	0x019d950c	5.7886563e-38
131	0x01ab5371	6.293521e-38
132	0x81b4e03a	-6.6443307e-38
133	0x01b1889d	6.521556e-38
134	0x01a8a748	6.195349e-38
135	0x01a1f1aa	5.948883e-38
136	0x81bae1c0	-6.8649545e-38
137	0x019d0a29	5.768727e-38
138	0x019b42c6	5.703382e-38
139	0x01ba0356	6.8330396e-38
140	0x0199f4be	5.655451e-38
141	0x01aa5275	6.256646e-38
142	0x81b7568e	-6.7347783e-38
143	0x81acc9a6	-6.347217e-38
144	0x01a682d5	6.1166504e-38
145	0x01a8b758	6.197654e-38
146	0x019b3eec	5.7028296e-38
147	0x01b3f050	6.6099047e-38
148	0x019ed3f2	5.834416e-38
149	0x019de05d	5.7994637e-38
150	0x01ab0ae1	6.283109e-38
151	0x81b63fbf	-6.694771e-38
152	0xc3227bb7	-162.48326
153	0x019d658a	5.7818393e-38
154	0x81b40d14	-6.6140323e-38
155	0x01b28f28	6.559229e-38
156	0x81b557db	-6.6614966e-38
157	0x01b22beb	6.544989e-38
158	0xc35316f6	-211.08969
159	0x019d3e2c	5.7761904e-38
160	0x019a3777	5.6650254e-38
161	0xc3206419	-160.391
162	0x01be4630	6.989569e-38
163	0x01a9cee4	6.237767e-38
164	0x019bddb8	5.725616e-38
165	0x01a7f889	6.170274e-38
166	0x81b1341a	-6.5094293e-38
167	0x01a9a0a6	6.2311315e-38
168	0x81ae0deb	-6.3937477e-38
169	0x81b63a2d	-6.693972e-38
170	0x81a71a40	-6.138378e-38
171	0x81a616af	-6.101132e-38
172	0x01b1e7b4	6.535201e-38
173	0x01b74df3	6.7335435e-38
174	0x81bb4920	-6.879788e-38
175	0x01b4209e	6.616836e-38
176	0x01ab500e	6.293035e-38
177	0x819a7124	-5.6733014e-38
178	0x01b09ddd	6.487871e-38
179	0x01bb723a	6.885686e-38
180	0x01bd669d	6.957488e-38
181	0x01abfcfd	6.31785e-38
182	0x01b77944	6.739759e-38
183	0x01b61698	6.688866e-38
184	0x819aa71d	-5.681046e-38
185	0x01ae1988	6.395414e-38
186	0x01a3d76c	6.018586e-38
187	0x81be95a0	-7.000968e-38
188	0x01bd9ec6	6.9655464e-38
189	0x019eb47b	5.829901e-38
190	0x01a4083c	6.02559e-38
191	0x81a3ae8d	-6.012721e-38
192	0x01bc100e	6.908333e-38
193	0x81a13fbd	-5.923352e-38
194	0x01b2b396	6.5644566e-38
195	0x019d9b64	5.7895666e-38
196	0x81abedd7	-6.3156763e-38
197	0x81be0c00	-6.9812196e-38
198	0x019b3a94	5.7022063e-38
199	0x019eaf08	5.829119e-38
200	0x019ab37b	5.682821e-38
201	0x01a4ed0c	6.058423e-38
202	0x81bb4372	-6.878973e-38
203	0x432aa572	170.64627
204	0x01b88bc8	6.77915e-38
205	0x81b50c4e	-6.6506556e-38
206	0x01aa6748	6.259634e-38
207	0x01a3eea8	6.02192e-38
208	0x01ad7ab6	6.3726245e-38
209	0x81a0ea95	-5.9111326e-38
210	0x01bdcddc	6.972303e-38
211	0x01b18f94	6.5225556e-38
212	0x01b6da8c	6.716984e-38
213	0x019ae914	5.6905116e-38
214	0x01ae1741	6.3950873e-38
215	0x01bbae3b	6.894296e-38
216	0x01a6b7b7	6.124239e-38
217	0x81bb2f8f	-6.8761194e-38
218	0x81b67e9a	-6.7037906e-38
219	0x01a46167	6.038385e-38
220	0x01b487f4	6.631664e-38
221	0x01b8394c	6.767314e-38
222	0x01bbb2ce	6.8949523e-38
223	0xc2b8e28b	-92.44247
224	0x01bea180	7.002672e-38
225	0x01ae628f	6.405893e-38
226	0x019b6d13	5.709452e-38
227	0x01a688db	6.117515e-38
228	0x01a5089c	6.062378e-38
229	0x01ae77c4	6.408936e-38
230	0x81a8ce16	-6.200917e-38
231	0x819b19c6	-5.697499e-38
232	0x01bce6f4	6.9391695e-38
233	0x01a92869	6.213878e-38
234	0x431a7cdb	154.48772
235	0x01b22ce8	6.545131e-38
236	0x81a74992	-6.145168e-38
237	0x819c45a5	-5.7405285e-38
238	0x01a3985c	6.009537e-38
239	0x01bb6bdc	6.884772e-38
240	0x019c8d25	5.750788e-38
241	0x819d5088	-5.778825e-38
242	0x019db993	5.793898e-38
243	0x81aa20df	-6.2495305e-38
244	0x431fe61f	159.89891
245	0x01a5db14	6.092579e-38
246	0x01ab8e37	6.301955e-38
247	0x01b9b528	6.8218214e-38
248	0x01b784ce	6.741415e-38
249	0x019c2b04	5.7367074e-38
250	0x81ab1356	-6.2843225e-38
251	0x019a574b	5.6695925e-38
252	0x01a866d1	6.186099e-38
253	0x81b4dbb4	-6.6436816e-38
254	0x019f29a4	5.8467127e-38
255	0x01ba67f2	6.8474763e-38
