unet/unet-segment-master/np_weights/up1.conv.double_conv.0.bias.npy (npy, 1152 bytes, 1 tensors)

array f4 [256]
0	0x81b9271c	-6.8014386e-38
1	0x01b4b604	6.6382737e-38
2	0x81aa2665	-6.250323e-38
3	0x019c137a	5.7333297e-38
4	0x01ad8931	6.3747023e-38
5	0x81bd2a00	-6.94879e-38
6	0x01a7f83b	6.1702305e-38
7	0x81ac2b6f	-6.3245146e-38
8	0x01b248f9	6.5491584e-38
9	0x01bd8ea6	6.9632326e-38
10	0x81bbdb40	-6.900756e-38
11	0x81a6422e	-6.107373e-38
12	0x01a06cc0	5.8930766e-38
13	0x01a9aee2	6.233174e-38
14	0x81aa89d0	-6.264589e-38
15	0x8199bdb9	-5.647556e-38
16	0x01a61a28	6.10163e-38
17	0x819d045e	-5.767896e-38
18	0x01a4d8d9	6.0555247e-38
19	0x81ae66b5	-6.406488e-38
20	0x81a6edcc	-6.131999e-38
21	0x81a8bd75	-6.198531e-38
22	0x819c9301	-5.751629e-38
23	0x81a79b9d	-6.1569406e-38
24	0x01ada7c8	6.379092e-38
25	0x81ba2558	-6.8379195e-38
26	0x81a4e3c4	-6.0570913e-38
27	0x01a10ca6	5.916021e-38
28	0x81ba259e	-6.8379587e-38
29	0x81adba70	-6.381769e-38
30	0x01a4fc03	6.0605705e-38
31	0x81b82a60	-6.765173e-38
32	0x019c1c17	5.7345657e-38
33	0x01a83969	6.1795833e-38
34	0x01b29b06	6.560932e-38
35	0x01bdd362	6.9730955e-38
36	0x819b5fa4	-5.7075245e-38
37	0x819e03f7	-5.8045723e-38
38	0x81b1e78e	-6.5351796e-38
39	0x81a8a721	-6.195327e-38
40	0x81be59a0	-6.992358e-38
41	0x019d4de4	5.778446e-38
42	0x01a51cc6	6.0652715e-38
43	0x81b554ca	-6.6610566e-38
44	0x819e4605	-5.8140507e-38
45	0x81bd5bd0	-6.955938e-38
46	0x01b801ff	6.759379e-38
47	0x01b9d5f1	6.826526e-38
48	0x81b80a8b	-6.7606054e-38
49	0x01a99443	6.229354e-38
50	0x819d88ae	-5.786882e-38
51	0x81993287	-5.6275827e-38
52	0x01b27ba5	6.5564294e-38
53	0x019e5159	5.815676e-38
54	0x01a72005	6.139206e-38
55	0x01b12d42	6.5084473e-38
56	0x81b9d208	-6.825965e-38
57	0x01bd1140	6.945239e-38
58	0x81bd69a0	-6.95792e-38
59	0x81b6567c	-6.698034e-38
60	0x819d918e	-5.788155e-38
61	0x819c96cb	-5.7521727e-38
62	0x01b26efa	6.5546117e-38
63	0x819a1d3c	-5.6612615e-38
64	0x81b73c74	-6.731033e-38
65	0x819f4c40	-5.851679e-38
66	0x81ae32d0	-6.399042e-38
67	0x3eb6352f	0.3558745
68	0x01b1e5c1	6.534921e-38
69	0x01aaca4d	6.2738425e-38
70	0x01b11312	6.5046896e-38
71	0x81b14135	-6.51131e-38
72	0x81ac7fdc	-6.336629e-38
73	0x01a374a4	6.0044115e-38
74	0x01b48a06	6.631961e-38
75	0x81be3210	-6.9866813e-38
76	0x01ae1076	6.3941126e-38
77	0x819de980	-5.800775e-38
78	0x01a852e2	6.1832384e-38
79	0x81b96f9e	-6.811843e-38
80	0x01b13333	6.5093e-38
81	0x81b9a43a	-6.819392e-38
82	0x81ae095d	-6.393094e-38
83	0x819aa923	-5.6813365e-38
84	0x819af8ee	-5.692786e-38
85	0x01a38bf3	6.007756e-38
86	0x01a2085c	5.9521397e-38
87	0x81b3abf9	-6.6000984e-38
88	0x8198b23c	-5.6091735e-38
89	0x819be2a7	-5.726324e-38
90	0x01a19ec2	5.9369866e-38
91	0x81b2b1a9	-6.5641803e-38
92	0x81b929ae	-6.8018075e-38
93	0x01a02750	5.883113e-38
94	0x01ae9939	6.413737e-38
95	0x01a9721e	6.2244546e-38
96	0x81b3bef0	-6.6028197e-38
97	0x81a092e4	-5.8985495e-38
98	0x81a70f9e	-6.136852e-38
99	0x819b5480	-5.705926e-38
100	0x81aa5322	-6.2567427e-38
101	0x019d9f47	5.7901243e-38
102	0x81a1ceca	-5.943879e-38
103	0x81a82ce7	-6.1777885e-38
104	0x81a71235	-6.137224e-38
105	0x01bd86a0	6.962081e-38
106	0x01a18a50	5.934053e-38
107	0x81be19f0	-6.9832196e-38
108	0x019b3f03	5.7028425e-38
109	0xbea17422	-0.31533915
110	0x819bd2e9	-5.724065e-38
111	0x01bb820e	6.887957e-38
112	0x81af8ecc	-6.448975e-38
113	0x019b1553	5.6968606e-38
114	0x01af80be	6.4469583e-38
115	0x81beb507	-7.005474e-38
116	0x01a2fbd9	5.9870785e-38
117	0xbf2388d4	-0.6388066
118	0x81a2380e	-5.9589836e-38
119	0x01b8825c	6.777798e-38
120	0x81a010d0	-5.879884e-38
121	0x01ad35bc	6.362727e-38
122	0x81ac1711	-6.321592e-38
123	0x01a0c69e	5.905972e-38
124	0x01bd9dc8	6.965404e-38
125	0x01b9c074	6.8234424e-38
126	0xbd309117	-0.04310712
127	0x81ba38f4	-6.8407333e-38
128	0x01be7c7a	6.997359e-38
129	0x81a0b660	-5.9036413e-38
130	0x81a7594c	-6.1474246e-38
131	0x81a9e2b6	-6.240611e-38
132	0x819bb70c	-5.7200667e-38
133	0x019b0214	5.694099e-38
134	0x019af572	5.692286e-38
135	0x81b2935c	-6.5598324e-38
136	0x81bc2e68	-6.9126883e-38
137	0x01b5551b	6.661102e-38
138	0x81bb69f4	-6.8844986e-38
139	0x81b1c796	-6.5305923e-38
140	0x019fd11f	5.870745e-38
141	0x01b23434	6.546178e-38
142	0x01ab3748	6.2894804e-38
143	0x8199a38e	-5.6438013e-38
144	0x81a0ae9b	-5.9025264e-38
145	0x01abbd79	6.308736e-38
146	0x01a671d2	6.1142094e-38
147	0x01b36403	6.5897725e-38
148	0x81bd7418	-6.959422e-38
149	0x81b51746	-6.6522295e-38
150	0x81a79a6e	-6.1567707e-38
151	0x81b07937	-6.4826124e-38
152	0xbef2ce19	-0.47422865
153	0x019b0d47	5.695706e-38
154	0x81bb0add	-6.870854e-38
155	0x81a48d25	-6.044662e-38
156	0x019c703c	5.74664e-38
157	0x81b9a6f4	-6.8197833e-38
158	0xbf299fa0	-0.66259193
159	0x019a5907	5.6698414e-38
160	0x81ad36b7	-6.3628675e-38
161	0x3d6f1ab1	0.058375064
162	0x01bc0320	6.906478e-38
163	0x01b09340	6.486348e-38
164	0x01a2c9d7	5.979903e-38
165	0x019c6a04	5.7457475e-38
166	0x01afe036	6.4606574e-38
167	0x81b556da	-6.6613525e-38
168	0x01bcc636	6.934471e-38
169	0x819cbe89	-5.7578754e-38
170	0x01b92e80	6.802499e-38
171	0x01b23766	6.5466366e-38
172	0x01bd96e2	6.964414e-38
173	0x81ad8b31	-6.3749893e-38
174	0x01bcc970	6.934934e-38
175	0x81ae822c	-6.4104293e-38
176	0x81b57f52	-6.6671595e-38
177	0x019b7175	5.710081e-38
178	0x01b1a755	6.525964e-38
179	0x819c35a7	-5.7382337e-38
180	0x01b57f20	6.6671315e-38
181	0x81b45835	-6.624813e-38
182	0x01b9e200	6.828256e-38
183	0x019e7a0e	5.8215173e-38
184	0x819a601f	-5.670859e-38
185	0x01acdc45	6.349889e-38
186	0x81ae5bce	-6.404924e-38
187	0x01be0fc0	6.981758e-38
188	0x819a6db1	-5.6728065e-38
189	0x019e456a	5.813964e-38
190	0x81acc044	-6.345871e-38
191	0x01bb8c15	6.889396e-38
192	0x019f5f3a	5.854402e-38
193	0x01b8627f	6.773226e-38
194	0x81b5397c	-6.6571385e-38
195	0x81a2f7c3	-5.986492e-38
196	0x01a341b0	5.9971e-38
197	0x01bc88c0	6.925652e-38
198	0x01be91c9	7.000417e-38
199	0x01a399c0	6.0097364e-38
200	0x01b79088	6.7430975e-38
201	0x81a45d4e	-6.037797e-38
202	0x81ba6c08	-6.8480626e-38
203	0x3d5792f6	0.052630387
204	0x81a7df74	-6.166675e-38
205	0x01adb2ab	6.380654e-38
206	0x81a15120	-5.925847e-38
207	0x81abcf3b	-6.311284e-38
208	0x01b135f6	6.509696e-38
209	0x01993ca0	5.6290316e-38
210	0x81ab7ca3	-6.2994324e-38
211	0x01b77be6	6.740137e-38
212	0x81ae9a12	-6.4138585e-38
213	0x81bb55ea	-6.881623e-38
214	0x01a99210	6.2290385e-38
215	0x019b037f	5.6943024e-38
216	0x01b2dbb7	6.570215e-38
217	0x01b9c10e	6.8235287e-38
218	0x81a8b6ee	-6.1975945e-38
219	0x019e824a	5.822699e-38
220	0x01a4a571	6.048148e-38
221	0x01a5a6ac	6.085059e-38
222	0x81a2448e	-5.960777e-38
223	0xbe9b61b7	-0.30347988
224	0x81bce430	-6.9387726e-38
225	0x819df114	-5.801862e-38
226	0x019cf29d	5.765348e-38
227	0x01a54d45	6.0722304e-38
228	0x81b2c35e	-6.566721e-38
229	0x01b36f2f	6.5913756e-38
230	0x01a8a67b	6.195234e-38
231	0x01a3788f	6.0049737e-38
232	0x81ac1fe7	-6.32286e-38
233	0x01b1dc40	6.5335575e-38
234	0x3dc5d232	0.09659232
235	0x81bdd5fd	-6.9734693e-38
236	0x01a4b503	6.0503825e-38
237	0x81ae80c9	-6.4102303e-38
238	0x01aaefcf	6.2792246e-38
239	0x81bc7bbc	-6.9237843e-38
240	0x819a8acf	-5.6769846e-38
241	0x01b78509	6.741448e-38
242	0x01b13ca0	6.5106524e-38
243	0x81b1fb93	-6.538052e-38
244	0x3e3eada9	0.18620934
245	0x81b3a6b4	-6.599342e-38
246	0x81b593ac	-6.67008e-38
247	0x81b36047	-6.5892366e-38
248	0x81b6b768	-6.7119416e-38
249	0x81acbb3f	-6.3451506e-38
250	0x01afe81e	6.461792e-38
251	0x81adf8ae	-6.3907e-38
252	0x019c21fb	5.735411e-38
253	0x01be50c7	6.9910887e-38
254	0x01a0ae94	5.9025225e-38
255	0x819b9ed9	-5.7165943e-38
