unet/unet-segment-master/np_weights/up2.conv.double_conv.1.weight.npy (npy, 640 bytes, 1 tensors)

array f4 [128]
0	0x81a0fb50	-5.9135333e-38
1	0x81be8c29	-6.9996097e-38
2	0x01996a8d	5.6356217e-38
3	0x01a59ea4	6.0839066e-38
4	0x43278acb	167.54216
5	0x01b3be0e	6.602693e-38
6	0x81b16be7	-6.5174364e-38
7	0x01b81dd6	6.763374e-38
8	0x01bbaa20	6.893707e-38
9	0x01bc80e9	6.924527e-38
10	0x81a5c227	-6.089002e-38
11	0x01b278f1	6.5560416e-38
12	0x81b21428	-6.5415796e-38
13	0x01bcee20	6.9401986e-38
14	0x01bde697	6.9758515e-38
15	0x019ec3ce	5.8321e-38
16	0x01b6ca62	6.7146646e-38
17	0x81b9e0b2	-6.828069e-38
18	0x01beb3a8	7.005277e-38
19	0x81bc7e62	-6.9241644e-38
20	0x0198af57	5.608758e-38
21	0x01a8a32d	6.19476e-38
22	0x819bf202	-5.728527e-38
23	0x01a54cb9	6.072152e-38
24	0x01bca7d0	6.930109e-38
25	0x81a0ad0d	-5.9023033e-38
26	0x01a98ebb	6.2285604e-38
27	0x01ab1966	6.2851924e-38
28	0x01b8fa96	6.79505e-38
29	0x01ae400a	6.4009397e-38
30	0x01a663b9	6.1121864e-38
31	0x819b01e3	-5.6940715e-38
32	0x81ab383a	-6.289616e-38
33	0xc31c44ee	-156.26926
34	0xc293a86c	-73.82895
35	0x81ba4339	-6.842207e-38
36	0x01a2e5ce	5.9839155e-38
37	0x81a9f964	-6.2438653e-38
38	0x01aff3d9	6.463475e-38
39	0x81b98141	-6.814374e-38
40	0x01ae99f8	6.413844e-38
41	0x01a8f4b4	6.2064585e-38
42	0x819daf89	-5.792457e-38
43	0x81b60da7	-6.687583e-38
44	0x019be820	5.727109e-38
45	0x01a32e84	5.994349e-38
46	0x01adcb2b	6.3841695e-38
47	0x01a030ca	5.8844726e-38
48	0x42f4ee7c	122.46579
49	0x01b24b9f	6.5495384e-38
50	0x01abb757	6.307856e-38
51	0x01a59ea4	6.0839066e-38
52	0x01b5ef9d	6.683273e-38
53	0x01b1310c	6.508991e-38
54	0x81a091d5	-5.8983976e-38
55	0x01b7ae08	6.7473306e-38
56	0x01a875bb	6.188239e-38
57	0x01b2a8a1	6.5628844e-38
58	0x01b9a1b9	6.819033e-38
59	0x01b60c02	6.687347e-38
60	0x81a2a612	-5.97477e-38
61	0x01b8d296	6.78931e-38
62	0x01b3683f	6.59038e-38
63	0x01b3f9aa	6.6112466e-38
64	0x01b06439	6.4796e-38
65	0x01af3f6a	6.437584e-38
66	0x01af57a6	6.4410617e-38
67	0x01acbab4	6.345073e-38
68	0x01bcc508	6.934302e-38
69	0x81b10f4d	-6.5041487e-38
70	0x81a561f3	-6.075198e-38
71	0x019dad01	5.792094e-38
72	0x01ae9177	6.4126237e-38
73	0x81b9eeea	-6.830109e-38
74	0x81be90c0	-7.0002683e-38
75	0x81ba9a27	-6.8546807e-38
76	0x01afcf33	6.4582164e-38
77	0x01bc2b06	6.912203e-38
78	0x019c47b3	5.7408233e-38
79	0x81a69e82	-6.1206217e-38
80	0x019b7250	5.710204e-38
81	0x01b701ee	6.722635e-38
82	0x819a82eb	-5.6758524e-38
83	0x019ab32c	5.6827765e-38
84	0x81b5d841	-6.679921e-38
85	0x819d6eca	-5.7831666e-38
86	0x81bc0900	-6.907321e-38
87	0x01b2a074	6.561711e-38
88	0x01a4b1dc	6.04993e-38
89	0x819b9975	-5.715821e-38
90	0x01a8dc99	6.2029996e-38
91	0x81add935	-6.386184e-38
92	0x01a8a280	6.194663e-38
93	0x81b070d1	-6.4814073e-38
94	0x019f0c04	5.8424617e-38
95	0x01a24932	5.961443e-38
96	0x01a1f77e	5.9497193e-38
97	0x81a24872	-5.9613355e-38
98	0x01bc6912	6.921106e-38
99	0xc31de7c2	-157.9053
100	0x81ae2e9c	-6.3984386e-38
101	0x01b8e962	6.7925813e-38
102	0x81aa2065	-6.249462e-38
103	0x81b542e5	-6.658489e-38
104	0x01a96702	6.2228604e-38
105	0x01b6b312	6.7113194e-38
106	0x01a35945	6.000484e-38
107	0x81aa1f82	-6.249335e-38
108	0x01b04ebb	6.476516e-38
109	0x81b1c59c	-6.5303087e-38
110	0x01a63409	6.1053436e-38
111	0x01ad3af1	6.363474e-38
112	0x019ad539	5.6876625e-38
113	0x019c7bca	5.748298e-38
114	0x01a09d5e	5.900053e-38
115	0x01b6c404	6.713751e-38
116	0x432a213e	170.12985
117	0x81bb6198	-6.883299e-38
118	0x01bc38fa	6.914205e-38
119	0x01b5155a	6.651954e-38
120	0x81a84c09	-6.182256e-38
121	0x01a491a5	6.0453075e-38
122	0x01ba6546	6.847093e-38
123	0x81aee3ae	-6.424421e-38
124	0x81a01b9e	-5.8814346e-38
125	0x81b32cfa	-6.5818753e-38
126	0x01a3ee41	6.021862e-38
127	0x01bc6550	6.920567e-38
