unet/unet-segment-master/np_weights/up2.conv.double_conv.3.weight.npy (npy, 589952 bytes, 1 tensors)

array f4 [128, 128, 3, 3]
00000000: 8515 9e01 b90b ab81 4682 9e81 4570 a981
00000010: 72d1 9e81 4bcc 9c81 8410 a081 313e b381
00000020: 7fca a281 f23c 9b81 9efd 9b81 65bd ad81
00000030: a115 9e81 650a a981 dac6 af81 4a66 b781
00000040: d2b9 a181 7245 bc81 97ae a601 04c4 a801
00000050: a5e5 a681 c678 aa01 f5b9 b301 8fb3 a281
00000060: 2fa5 a501 cace ac01 7f2a ae01 6e5b ad01
00000070: 29a7 b401 9070 a801 e319 a601 baec ad01
00000080: 5bb3 ac01 080f b101 6330 bd01 d5e1 a601
00000090: c572 9d01 539c 9f01 04fa 9801 f6db a901
000000a0: 33fc 9a01 9a41 ab01 e0e5 b301 c779 b601
000000b0: 3b19 ac01 7ef0 b601 07cd af01 dffa ae01
000000c0: d293 a201 2651 b901 157f bc01 c8d3 9801
000000d0: 72d6 a601 e926 b101 442a 9981 d3e0 b381
000000e0: 363d a801 69fa a181 ad0a b381 b700 9b01
000000f0: b31f b181 d6d0 b881 5e1c a501 4871 b901
00000100: 7c16 a701 ef48 9981 e043 a901 56a9 b901
00000110: 7b35 b401 4b3c a001 9a26 9a01 11c2 a601
00000120: e433 9a81 da6e b181 08ae ad81 8e94 a681
00000130: aab4 bc81 5fe1 ba81 e990 a581 2b58 a981
00000140: dd11 9a01 63de ad01 9290 b801 0b28 ae01
00000150: 6bc1 9d01 b0e5 a801 0ae5 b001 7175 9b01
00000160: 170e a201 a173 a501 6cd1 a701 d077 a901
00000170: 2839 ab01 441a a701 7e25 b601 da04 bd01
00000180: e8f2 9901 4841 b301 3e7f b801 27dc a681
00000190: 57e1 ad81 692b a581 d3d2 b881 06c1 bc81
000001a0: c67a 9e81 f36e a681 8221 9d81 c0b3 a781
000001b0: 7bae bb01 8a80 be01 3117 ad01 c9e6 a201
000001c0: a427 ad01 570a 9d01 ad23 b981 5c84 9d01
000001d0: 4e71 9c81 13ef b681 31d8 9f81 f62d be81
000001e0: 3c9d ae81 0419 9e81 0855 a281 bc3c a281
000001f0: 1f7f b881 72c6 b781 8bfe 9901 f443 a801
00000200: 0b65 b701 ca3d a301 e405 9d01 c717 bb01
00000210: ac60 a701 9ee6 9b01 2158 aa01 ba13 aa81
00000220: e521 b081 eebc ab81 be27 ac81 c14c b481
00000230: 0652 9f81 bd48 af81 6f72 b081 1119 a681
00000240: 21aa 9b81 b965 b101 f4ca ba81 dbbd b581
00000250: d56d a301 9577 9e81 9d7b a801 90a4 bc01
00000260: d4cc af81 31d9 a881 638b b681 89df a781
00000270: 3b95 b281 4d67 b181 1208 9e81 e0eb a781
00000280: 40b2 b281 d514 b981 ce69 ab01 a5fd 9d01
00000290: 4125 bb01 f42c bc01 f8c2 9c01 ab62 a201
000002a0: 73f1 9e01 81e3 9f01 62bd ae01 28f3 9801
000002b0: b7af ae01 c9b1 aa01 7a04 a001 62b0 a401
000002c0: 0c82 ab01 e66a a501 1c80 b801 0e4b ba01
000002d0: fb76 a001 0958 9f01 1d57 9e01 6e3e ab01
000002e0: de02 ac01 174e bb01 f254 a201 b0be ac01
000002f0: b235 b601 b831 9d81 ef48 b281 cccd aa81
00000300: 7880 9e01 55e3 9881 5d80 ae81 d27b b881
00000310: d33c 9d81 eedb b381 4065 b001 2698 9d01
00000320: bae6 9d81 ac16 ba01 426a 9d01 49dd ae01
00000330: b7f4 a801 5ab9 aa01 3526 bb81 caff a501
00000340: c1b2 aa01 bddf ad01 8712 9e01 cd85 bc01
00000350: acfc ae01 277a a101 2b73 bb01 c8b4 ac01
00000360: 469b b081 a2b8 9f81 f354 b481 faa0 bc81
00000370: 2a6d 9b81 8f91 b601 447f a581 b51a be81
00000380: 5d72 b601 0227 a801 a745 a001 523c ab01
00000390: 8c6f aa01 a119 bb01 c5db a381 f570 a201
000003a0: a3dc af01 fdde 9d81 2d75 a401 baba 9d01
000003b0: 3143 b501 c0e1 9a01 dd93 ab01 67d3 a901
000003c0: ca43 be01 19a1 b301 cbf2 b201 20e4 9f81
000003d0: e0a4 ae81 0483 a181 f6b4 9b01 b2df 9981
000003e0: dd4a a681 afae bc01 ff37 a101 6b63 b381
000003f0: f2ee bc81 34c3 b481 db43 a901 0a84 b881
5.807091e-38 -6.28323e-38 -5.8226967e-38 -6.2241894e-38 -5.8340573e-38 -5.7598496e-38 -5.8798416e-38 -6.5843456e-38
-5.979997e-38 -5.702546e-38 -5.730193e-38 -6.382193e-38 -5.807107e-38 -6.209571e-38 -6.4570185e-38 -6.737036e-38
-5.94087e-38 -6.915994e-38 6.1229294e-38 6.199472e-38 -6.1308293e-38 6.262144e-38 6.602105e-38 -5.9767055e-38
6.0848454e-38 6.347955e-38 6.3978484e-38 6.368136e-38 6.636142e-38 6.187497e-38 6.1015915e-38 6.388985e-38
6.3440184e-38 6.50411e-38 6.9497067e-38 6.130282e-38 5.783738e-38 5.863169e-38 5.6194736e-38 6.2396424e-38
5.6932554e-38 6.2909613e-38 6.608407e-38 6.7030983e-38 6.3219025e-38 6.720133e-38 6.4579047e-38 6.427749e-38
5.9721513e-38 6.807471e-38 6.9242647e-38 5.6139873e-38 6.1286483e-38 6.5075365e-38 -5.626397e-38 -6.607682e-38
6.1801287e-38 -5.950138e-38 -6.5769534e-38 5.6939033e-38 -6.506502e-38 -6.789059e-38 6.065213e-38 6.812082e-38
6.1378375e-38 -5.630798e-38 6.217819e-38 6.820125e-38 6.61983e-38 5.8861234e-38 5.6626056e-38 6.125724e-38
-5.6645125e-38 -6.5178595e-38 -6.3799886e-38 -6.1191935e-38 -6.9319533e-38 -6.8649e-38 -6.0819363e-38 -6.220731e-38
5.65963e-38 6.386927e-38 6.7798373e-38 6.3974964e-38 5.795023e-38 6.204304e-38 6.4980844e-38 5.710653e-38
5.952962e-38 6.0777347e-38 6.1646617e-38 6.225272e-38 6.2897495e-38 6.13838e-38 6.691004e-38 6.9434597e-38
5.6551877e-38 6.584789e-38 6.777351e-38 -6.129467e-38 -6.387351e-38 -6.067372e-38 -6.7893443e-38 -6.933727e-38
-5.8216205e-38 -6.1137974e-38 -5.7720773e-38 -6.160404e-38 6.894332e-38 6.997942e-38 6.358344e-38 5.984056e-38
6.3607045e-38 5.768753e-38 -6.800946e-38 5.786262e-38 -5.7467934e-38 -6.7199296e-38 -5.8717595e-38 -6.986093e-38
-6.4143126e-38 -5.807593e-38 -5.9631415e-38 -5.959655e-38 -6.7773335e-38 -6.750834e-38 5.6568575e-38 6.181096e-38
6.736857e-38 5.9965406e-38 5.7681144e-38 6.872707e-38 6.148483e-38 5.7268927e-38 6.2574596e-38 -6.2476444e-38
-6.4700826e-38 -6.308658e-38 -6.323985e-38 -6.6231694e-38 -5.8525073e-38 -6.438922e-38 -6.4816393e-38 -6.101474e-38
-5.718213e-38 6.5165496e-38 -6.861683e-38 -6.676133e-38 6.0034345e-38 -5.8211625e-38 6.189083e-38 6.929643e-38
-6.457876e-38 -6.202511e-38 -6.705625e-38 -6.166687e-38 -6.560101e-38 -6.516776e-38 -5.8051614e-38 -6.1684575e-38
-6.564265e-38 -6.798816e-38 6.29673e-38 5.8036654e-38 6.874641e-38 6.91248e-38 5.7585116e-38 5.9650983e-38
5.8386496e-38 5.873383e-38 6.4189256e-38 5.6184894e-38 6.4169644e-38 6.2703247e-38 5.878114e-38 6.049718e-38
6.300209e-38 6.076482e-38 6.7774753e-38 6.843331e-38 5.8945446e-38 5.85337e-38 5.8165035e-38 6.290506e-38
6.3186936e-38 6.8805005e-38 5.963129e-38 6.3456445e-38 6.693329e-38 -5.7744034e-38 -6.549153e-38 -6.274344e-38
5.8224377e-38 -5.6162187e-38 -6.41017e-38 -6.77686e-38 -5.775997e-38 -6.60698e-38 6.4797476e-38 5.7891014e-38
-5.800377e-38 6.835814e-38 5.7825164e-38 6.4235034e-38 6.20646e-38 6.2714104e-38 -6.8747776e-38 6.0978467e-38
6.2704637e-38 6.387121e-38 5.806662e-38 6.925229e-38 6.428007e-38 5.931734e-38 6.885821e-38 6.344223e-38
-6.4874996e-38 -5.867231e-38 -6.6243453e-38 -6.9291283e-38 -5.709465e-38 6.706511e-38 -6.0794045e-38 -6.98333e-38
6.7020344e-38 6.1769427e-38 5.8874664e-38 6.2902035e-38 6.26082e-38 6.8729727e-38 -6.01921e-38 5.9671487e-38
6.4601445e-38 -5.7992664e-38 6.0412224e-38 5.794063e-38 6.6585314e-38 5.68946e-38 6.302765e-38 6.2384143e-38
6.989225e-38 6.598538e-38 6.5735264e-38 -5.873472e-38 -6.415409e-38 -5.933006e-38 5.7197674e-38 -5.652431e-38
-6.1086193e-38 6.931095e-38 5.922241e-38 -6.5896873e-38 -6.9403163e-38 -6.640166e-38 6.2178163e-38 -6.778039e-38
