unet/unet-segment-master/np_weights/up2.conv.double_conv.3.bias.npy (npy, 640 bytes, 1 tensors)

array f4 [128]
00000000: e57a b281 9235 a381 4032 b681 cba6 a0be
00000010: 695e bc01 1905 b001 fa96 ba01 8239 08bf
00000020: 49cb a981 5a43 ba81 b0f6 b881 910e b801
00000030: c7f3 9a01 9a9f 9a81 c114 a001 35b9 b381
00000040: ac43 a281 da41 ab01 1dca a281 7460 b881
00000050: feec ac81 f3c0 b401 bc62 9c81 4017 bc01
00000060: d9e9 a181 e543 b481 b36b a701 1477 a801
00000070: 55a9 ae81 9ef7 a081 a225 a181 a59a b101
00000080: b2d5 aa01 b0cc bb01 c359 ac81 5a58 ab01
00000090: 10db bd81 91ca bb01 145f ae81 e5a0 aa81
000000a0: d78a b001 57b0 a481 f38c bd81 2431 ae81
000000b0: 58b9 bc81 c2a5 b681 a22d 9e81 cb5e b301
000000c0: 6c04 be81 f63e b181 5027 ad81 d7b4 9f01
000000d0: fd16 b401 6bd8 25bf ee3c b201 7ee7 a801
000000e0: deeb bc81 a76b a081 13e2 b581 fb61 a401
000000f0: 28aa b301 ab54 ab01 da73 a501 d493 a781
00000100: 7870 a781 709b bd81 700f bc01 4747 ad01
00000110: c8f2 8dbe c0d0 a981 93bc af01 b57d a481
00000120: 2746 bd01 fdaf 9f81 084b b401 b6df b501
00000130: 1eae 9981 da7b a101 a267 ba01 6b48 ae81
00000140: 1f12 af01 a799 a901 f8fd 9a81 526d 16be
00000150: b1a8 9e01 cbc1 a901 2960 b581 db7b bd01
00000160: bd7d ac01 6457 a381 03f8 ba01 e8fb 9e81
00000170: a1b2 be81 7f57 923f be85 a781 15a3 a001
00000180: eb6e a801 4b25 9a81 a020 a001 25e5 a281
00000190: 076d 9d81 43dd a701 77b8 b801 74ed aa81
000001a0: 0192 b881 43f8 9b81 0c9b a381 3e1e b581
000001b0: 8258 b501 da99 be81 9a44 9d81 18c2 a601
000001c0: 89a4 a701 4679 b681 8659 b001 b5aa b281
000001d0: fe3f af01 2445 b981 995b aa01 3111 bd81
000001e0: 8d15 b381 82c8 a601 0885 9d81 ba3a bb01
000001f0: 4f30 b881 40e3 bd01 4685 b201 38af ae81
-6.556322e-38 -5.9953613e-38 -6.6928346e-38 -0.31377253 6.9195765e-38 6.4659504e-38 6.854225e-38 -0.5321275
-6.2372495e-38 -6.8422254e-38 -6.7944904e-38 6.7611827e-38 5.692047e-38 -5.679968e-38 5.88045e-38 -6.6019974e-38
-5.9606506e-38 6.290997e-38 -5.979942e-38 -6.772933e-38 -6.352289e-38 6.6398426e-38 -5.7447026e-38 6.9093655e-38
-5.9477614e-38 -6.621898e-38 6.150065e-38 6.188432e-38 -6.4160485e-38 -5.913003e-38 -5.919606e-38 6.5241435e-38
6.2754775e-38 6.8986663e-38 -6.3311623e-38 6.294226e-38 -6.9741974e-38 6.898362e-38 -6.4053936e-38 -6.267901e-38
6.4851415e-38 -6.049712e-38 -6.962989e-38 -6.398802e-38 -6.932625e-38 -6.709409e-38 -5.8105513e-38 6.5890236e-38
-6.980132e-38 -6.5109876e-38 -6.3606574e-38 5.866687e-38 6.6154544e-38 -0.6478335 6.5474303e-38 6.204563e-38
-6.9398746e-38 -5.892919e-38 -6.68133e-38 6.038468e-38 6.599838e-38 6.293697e-38 6.0777666e-38 -6.1558234e-38
-6.1507496e-38 -6.9650677e-38 6.9082445e-38 6.365244e-38 -0.2772429 -6.2380337e-38 6.455544e-38 -6.0424466e-38
6.95283e-38 -5.8659906e-38 6.622922e-38 6.680991e-38 -5.645317e-38 5.931978e-38 6.8474315e-38 -6.402142e-38
6.431085e-38 6.2301276e-38 -5.6935093e-38 -0.1469014 5.8282094e-38 6.2358875e-38 -6.662688e-38 6.960536e-38
6.3363247e-38 -6.0002143e-38 6.868149e-38 -5.84015e-38 -7.0051297e-38 1.1432952 -6.153802e-38 5.900873e-38
6.1872613e-38 -5.662418e-38 5.882153e-38 -5.983821e-38 -5.782914e-38 6.1663606e-38 6.785562e-38 -6.2788866e-38
-6.780043e-38 -5.7294246e-38 -6.0099225e-38 -6.6532295e-38 6.66159e-38 -7.0015743e-38 -5.777113e-38 6.125728e-38
6.158221e-38 -6.703026e-38 6.478065e-38 -6.5631826e-38 6.437667e-38 -6.805748e-38 6.2579574e-38 -6.9452304e-38
-6.578514e-38 6.1266484e-38 -5.786358e-38 6.877722e-38 -6.7660245e-38 6.9753723e-38 6.557811e-38 -6.416893e-38
