unet/unet-segment-master/np_weights/up2.conv.double_conv.4.weight.npy (npy, 640 bytes, 1 tensors)

array f4 [128]
6.242634e-38 6.7803194e-38 6.962049e-38 98.85384 6.308903e-38 6.5296574e-38 6.760562e-38 -113.587265
6.774805e-38 6.258315e-38 6.435924e-38 6.640065e-38 6.3229087e-38 6.709279e-38 5.696241e-38 5.975379e-38
5.8803214e-38 6.442523e-38 6.7348086e-38 5.7379686e-38 6.4877014e-38 6.6609966e-38 5.9222315e-38 -6.9523417e-38
6.2835664e-38 6.674489e-38 6.4315267e-38 6.770277e-38 5.9548716e-38 6.98071e-38 5.690991e-38 6.165134e-38
5.65645e-38 -6.9487185e-38 6.7602175e-38 6.727679e-38 -6.9430236e-38 5.8292234e-38 5.8526435e-38 6.129692e-38
6.87169e-38 -6.2473176e-38 6.194165e-38 -5.6684905e-38 5.9621724e-38 6.967905e-38 6.1791556e-38 6.8249894e-38
6.841092e-38 6.160619e-38 -5.7301426e-38 6.4976226e-38 5.8986403e-38 -172.24576 5.7369215e-38 -6.431794e-38
-6.600346e-38 6.3862916e-38 5.8516525e-38 6.471312e-38 6.356679e-38 6.673362e-38 -6.02645e-38 -6.1011616e-38
6.4399e-38 6.937831e-38 -6.7593296e-38 5.814442e-38 -84.98464 6.970228e-38 6.367521e-38 6.6225904e-38
-6.15986e-38 -6.563816e-38 6.934462e-38 6.583328e-38 5.9585845e-38 -6.6735567e-38 6.6560007e-38 6.8762904e-38
6.1231474e-38 6.128174e-38 -6.417801e-38 -67.17255 5.8029636e-38 6.448809e-38 5.971063e-38 -5.733435e-38
5.78639e-38 6.453848e-38 6.267292e-38 6.1869384e-38 6.0318007e-38 139.91638 5.99874e-38 6.575861e-38
-6.387661e-38 6.4354985e-38 6.1861436e-38 6.7401167e-38 6.336243e-38 6.8463665e-38 6.1046183e-38 6.2998147e-38
-6.38804e-38 -6.3608284e-38 6.5315934e-38 5.9378234e-38 6.3866235e-38 -6.242539e-38 6.2175176e-38 -6.194831e-38
5.7865936e-38 6.548348e-38 6.7331775e-38 -6.6466075e-38 5.884146e-38 -6.2535904e-38 -6.873363e-38 5.6780126e-38
6.668657e-38 6.7247904e-38 -6.1063996e-38 -6.993398e-38 6.181094e-38 -6.9620633e-38 -6.0011156e-38 6.877232e-38
00000000: cff0 a901 ee93 b801 6686 bd01 2bb5 c542
00000010: a3be ab01 12c1 b101 3e0a b801 ae2c e3c2
00000020: 806d b801 175e aa01 d833 af01 80c2 b401
00000030: 3e20 ac01 daa4 b601 0211 9b01 50aa a201
00000040: dc13 a001 d561 af01 c456 b701 ce33 9c01
00000050: ae9c b001 5f54 b501 ee37 a101 c042 bd81
00000060: 110e ab01 66b2 b501 3315 af01 f24d b801
00000070: 661b a201 7308 be01 6bec 9a01 b7d4 a701
00000080: b4fb 9901 8029 bd81 d707 b801 1425 b701
00000090: d001 bd81 c2af 9e01 f952 9f01 b8dd a601
000000a0: b110 bb01 7311 aa81 089f a801 9d4f 9a81
000000b0: 474e a201 36af bd01 6e36 a801 3ccb b901
000000c0: 743b ba01 40b5 a701 44fd 9b81 d2e1 b001
000000d0: 8693 a001 ea3e 2cc3 822c 9c01 1017 af81
000000e0: b3ad b381 f5d9 ad01 114c 9f01 762a b001
000000f0: 960b ad01 8caa b501 3a0e a481 e416 a681
00000100: 8e4f af01 a0dd bc01 a701 b881 bf48 9e01
00000110: 23f8 a9c2 66bf bd01 2557 ad01 b848 b401
00000120: f5af a781 1faf b281 26c6 bc01 1a37 b301
00000130: 4635 a201 e7ab b581 8e31 b501 c030 bb01
00000140: 1cb0 a601 24d3 a601 8cb5 ae81 5858 86c2
00000150: c1f8 9d01 a48d af01 3c8c a201 3614 9c81
00000160: 4185 9d01 c2b0 af01 a79c aa01 ab6c a801
00000170: 8433 a401 98ea 0b43 1e4d a301 1003 b301
00000180: 80e3 ad81 e130 af01 2167 a801 c27b b701
00000190: 2b7d ac01 3660 ba01 fb2e a601 4d7f ab01
000001a0: 24e6 ad81 8128 ad81 90ce b101 97a4 a101
000001b0: 45dc ad01 26f0 a981 c641 a901 aca3 a881
000001c0: ac86 9d01 5343 b201 664b b701 18f0 b481
000001d0: 832e a001 2a3d aa81 591c bb81 f991 9a01
000001e0: c289 b501 f310 b701 653b a681 df60 be81
000001f0: f043 a801 8086 bd81 ac5d a381 5037 bb01
