unet/unet-segment-master/np_weights/up3.conv.double_conv.3.weight.npy (npy, 147584 bytes, 1 tensors)

array f4 [64, 64, 3, 3]
000000 c1 01 9f 81 f9 74 a8 81 95 b1 a7 81 56 7d a5 01
       -5.840989e-38 -6.18813e-38 -6.160093e-38 6.0791276e-38
000010 12 c8 b6 81 1a 8b ae 81 58 32 bd 01 54 0d a4 81
       -6.714333e-38 -6.4117106e-38 6.9499875e-38 -6.026321e-38
000020 61 51 9c 81 c8 a4 aa 81 55 c1 bc 81 9b 20 a0 81
       -5.742212e-38 -6.2684587e-38 -6.933771e-38 -5.8821504e-38
000030 01 1c b4 81 49 b7 a3 81 9c 1e bb 81 a0 2d b4 81
       -6.616174e-38 -6.0139745e-38 -6.8736873e-38 -6.6187026e-38
000040 2c 93 b9 81 35 9a b2 81 97 13 b5 81 7e f5 a9 01
       -6.816945e-38 -6.560815e-38 -6.651701e-38 6.243306e-38
000050 45 ca ba 01 07 58 b1 81 e5 6d a7 01 59 4b a5 01
       6.861585e-38 -6.5145844e-38 6.15038e-38 6.0719546e-38
000060 2b 80 a3 81 52 73 9a 01 d8 a4 a6 01 43 70 ba 81
       -6.0060656e-38 5.673614e-38 6.121531e-38 -6.8486697e-38
000070 04 0b bd 01 08 16 9b 01 78 78 ab 81 a2 e7 a0 01
       6.944344e-38 5.696962e-38 -6.2988344e-38 5.9107094e-38
000080 30 a9 a7 01 e8 3a af 01 e1 8a 9f 01 48 58 a0 01
       6.1588884e-38 6.4369374e-38 5.8606657e-38 5.8901395e-38
000090 e6 a7 a9 81 29 65 a3 01 29 bd a9 01 2d b8 ad 81
       -6.232172e-38 6.00219e-38 6.2352227e-38 -6.381444e-38
0000a0 49 b7 b2 01 4d ef ae 81 41 56 a4 81 19 6d b7 01
       6.5649875e-38 -6.4260885e-38 -6.0367854e-38 6.738013e-38
0000b0 61 c7 9e 01 54 32 a0 81 17 b0 b4 81 1f d8 b5 81
       5.832613e-38 -5.8846935e-38 -6.6374234e-38 -6.679902e-38
0000c0 cd 87 be 81 b4 94 a6 81 d3 48 be 81 d1 6a b2 81
       -6.998984e-38 -6.119215e-38 -6.9899475e-38 -6.554015e-38
0000d0 9e db b7 81 65 e1 ac 81 e5 5c b0 81 9b 6c 9f 81
       -6.753872e-38 -6.3506247e-38 -6.4785486e-38 -5.8563217e-38
0000e0 61 38 9c 81 7b d0 9d 81 78 db b9 81 cb 2d b7 81
       -5.738625e-38 -5.7971846e-38 -6.827319e-38 -6.7289293e-38
0000f0 8c ce 9d 81 6d a3 a5 81 5d 6c 99 81 8b c5 ab 81
       -5.796907e-38 -6.084593e-38 -5.635882e-38 -6.309894e-38
000100 d3 28 9a 81 e6 ec a4 81 21 0a b3 81 94 2f ab 81
       -5.6629246e-38 -6.058402e-38 -6.576875e-38 -6.288375e-38
000110 e2 21 b0 81 d9 27 a8 81 06 ca ab 81 fd 05 9f 81
       -6.470081e-38 -6.177063e-38 -6.310537e-38 -5.841597e-38
000120 ce 7e ad 81 b0 7d b0 81 54 3d b0 81 dc 2b ba 81
       -6.373212e-38 -6.483254e-38 -6.474019e-38 -6.8388544e-38
000130 66 79 b0 81 a7 21 b1 81 48 3d a8 81 53 14 ba 81
       -6.482639e-38 -6.506782e-38 -6.180139e-38 -6.8354773e-38
000140 2d bf 9e 81 3a ad a9 81 9a 81 b1 81 ac c8 a2 01
       -5.831436e-38 -6.2329363e-38 -6.52055e-38 5.979735e-38
000150 5f 28 a7 01 50 3b ac 81 6d ad aa 01 be 00 a5 01
       6.140404e-38 -6.326793e-38 6.269699e-38 6.061249e-38
000160 7f 46 ac 81 7d 56 b1 01 92 85 a6 01 b4 04 ac 01
       -6.328398e-38 6.5143636e-38 6.1170433e-38 6.318957e-38
000170 71 81 9c 01 6b 69 a1 01 fd 22 b7 01 58 49 b4 01
       5.749109e-38 5.9293327e-38 6.727379e-38 6.62268e-38
000180 8f 66 ac 01 0a 9f ac 01 31 87 b0 01 c8 b4 bb 81
       6.3329986e-38 6.341103e-38 6.484618e-38 -6.895236e-38
000190 13 c0 b9 81 09 b9 98 81 47 32 a1 81 2c b3 b0 81
       -6.823388e-38 -5.6101494e-38 -5.9214204e-38 -6.490929e-38
0001a0 e0 99 a1 81 76 09 b5 81 49 49 ab 81 4a 0f b0 01
       -5.936286e-38 -6.6502475e-38 -6.292064e-38 6.467413e-38
0001b0 47 46 b4 81 81 a2 b0 81 f4 d2 ac 81 48 0d b6 81
       -6.62224e-38 -6.488537e-38 -6.3485524e-38 -6.68753e-38
0001c0 79 6c bc 81 b7 9c bb 81 57 ba af 81 37 8d a7 81
       -6.9215944e-38 -6.8917826e-38 -6.455223e-38 -6.1548745e-38
0001d0 b9 f4 a3 81 b2 ff 9f 81 ee 57 a6 01 ad a7 be 01
       -6.0227903e-38 -5.877428e-38 6.110494e-38 7.003558e-38
0001e0 ec ac a3 81 c2 37 ac 01 3a 04 ba 01 56 09 ab 81
       -6.0124874e-38 6.326283e-38 6.8331674e-38 -6.2828876e-38
0001f0 49 f0 a0 01 bc 65 9a 01 c7 79 b9 81 cb 97 b1 81
       5.911951e-38 5.671665e-38 -6.813301e-38 -6.5237344e-38
000200 9f 90 a3 81 41 c0 af 81 73 54 a5 81 2b 74 b0 81
       -6.0084265e-38 -6.456072e-38 -6.0732606e-38 -6.481888e-38
000210 df 50 b3 81 3a 9f a0 81 6e b6 bc 81 f9 26 be 01
       -6.587026e-38 -5.9003196e-38 -6.9322067e-38 6.98509e-38
000220 ef c3 a3 01 e5 0e a4 01 28 bb b8 01 7b b0 ac 01
       6.0157894e-38 6.026546e-38 6.785948e-38 6.343606e-38
000230 5d 49 b0 01 57 2e ba 01 54 32 bd 01 0c 12 ae 01
       6.475746e-38 6.8392104e-38 6.949985e-38 6.39434e-38
000240 31 5c b5 01 97 15 9a 81 9f 99 a9 81 75 d1 a5 01
       6.662119e-38 -5.6601646e-38 -6.230123e-38 6.0911984e-38
000250 de 69 b4 01 5c b0 ab 81 db e4 a9 01 ac 72 a9 01
       6.627347e-38 -6.306854e-38 6.2409187e-38 6.224534e-38
000260 70 5b 9d 81 ab 7a 9f 81 32 15 a4 81 cc e9 bc 81
       -5.78039e-38 -5.8583395e-38 -6.02745e-38 -6.9395775e-38
000270 0b ab a3 81 a6 98 9e 81 97 e3 b1 81 c9 42 a6 81
       -6.012218e-38 -5.8259073e-38 -6.5346107e-38 -6.10746e-38
000280 b8 a7 b9 81 f0 a7 bb 81 40 e3 9d 81 f5 5d ab 81
       -6.819893e-38 -6.893393e-38 -5.799878e-38 -6.29503e-38
000290 82 21 ba 81 dc 09 af 81 05 47 9b 81 d6 d3 a1 81
       -6.837369e-38 -6.4298995e-38 -5.7039916e-38 -5.944603e-38
0002a0 1e 74 b4 81 e9 c9 a4 81 6f ca a2 81 4e be 9f 01
       -6.628818e-38 -6.053381e-38 -5.979988e-38 5.868045e-38
0002b0 a4 60 b9 01 41 fa a8 01 73 b2 b3 01 b9 ca b1 01
       6.809694e-38 6.207255e-38 6.601028e-38 6.5310424e-38
0002c0 54 c8 a4 01 b8 fb b4 01 6f 57 b5 01 be e4 a9 01
       6.053154e-38 6.6482756e-38 6.661436e-38 6.2409024e-38
0002d0 7f 98 af 81 22 33 ad 81 5f 4a 9e 01 17 1f a4 81
       -6.450367e-38 -6.3623535e-38 5.814675e-38 -6.02887e-38
0002e0 04 cb 9d 81 a4 2e b9 01 62 b2 b0 01 46 1b be 01
       -5.7964005e-38 6.8025193e-38 6.4908156e-38 6.983411e-38
0002f0 98 47 af 01 d0 eb a8 81 53 f1 ad 81 f5 28 ba 81
       6.438758e-38 -6.205183e-38 -6.3896447e-38 -6.838438e-38
000300 45 7f b2 81 9d 13 b4 81 8c 9a ad 81 4a bf a4 81
       -6.5569496e-38 -6.61497e-38 -6.377193e-38 -6.051857e-38
000310 cb 3c a9 81 2a 6b b0 81 e8 84 b0 01 40 c3 a8 01
       -6.216803e-38 -6.480596e-38 6.48429e-38 6.1993623e-38
000320 b4 16 a3 01 4b 1a a4 01 c0 2b b6 01 85 0f b9 01
       5.990932e-38 6.0281814e-38 6.691902e-38 6.7980537e-38
000330 9a 50 a3 01 ca 4a b0 01 20 99 b8 01 dc 09 ab 81
       5.99924e-38 6.4759506e-38 6.781065e-38 -6.2829627e-38
000340 3f 99 9b 81 d5 2d a5 81 4d 13 b0 81 07 bb ab 81
       -5.7157905e-38 -6.0677193e-38 -6.4679885e-38 -6.308385e-38
000350 bf c5 a3 81 48 ba a4 81 6c 4e ba 81 91 4a bb 81
       -6.0160495e-38 -6.0511386e-38 -6.843814e-38 -6.879995e-38
000360 7e b0 a4 01 96 08 a3 01 9e c0 a7 01 f5 b2 b6 01
       6.049734e-38 5.9889064e-38 6.1622504e-38 6.711303e-38
000370 1c f6 b2 01 2b 2d a7 01 95 08 b5 01 08 71 99 01
       6.5740023e-38 6.1410924e-38 6.6501214e-38 5.6365516e-38
000380 66 31 b7 01 5b f7 a1 81 94 c1 9d 81 01 7f a0 81
       6.7294466e-38 -5.9497e-38 -5.795046e-38 -5.895696e-38
000390 0c 6e b3 81 e4 89 b7 81 04 2f be 81 35 a1 be 81
       -6.5912125e-38 -6.7421447e-38 -6.986244e-38 -7.00263e-38
0003a0 f9 61 aa 01 73 0b b1 81 d4 97 a4 01 76 f9 b3 01
       6.258872e-38 -6.503596e-38 6.046195e-38 6.6112174e-38
0003b0 c4 18 b5 01 25 91 be 01 a1 fe aa 01 1c 55 a6 01
       6.6524436e-38 7.000325e-38 6.281351e-38 6.1100895e-38
0003c0 9e 9d 9c 01 85 b2 b5 01 42 f8 9b 01 27 83 a9 01
       5.753152e-38 6.674506e-38 5.729424e-38 6.226899e-38
0003d0 95 74 bd 01 93 60 a7 01 c1 bb 99 01 c8 2d b2 81
       6.959492e-38 6.148469e-38 5.647274e-38 -6.5452566e-38
0003e0 37 d6 ad 01 7e 49 be 01 85 1e 9d 01 6d fc a3 01
       6.3857547e-38 6.9900433e-38 5.7716485e-38 6.0238957e-38
0003f0 33 17 ac 81 78 d0 aa 01 d5 10 ba 01 91 d2 b9 01
       -6.321611e-38 6.2747275e-38 6.834976e-38 6.8260415e-38
