unet/unet-segment-master/np_weights/up3.conv.double_conv.0.weight.npy (npy, 589952 bytes, 1 tensors)

array f4 [64, 256, 3, 3]
6.703158e-38 6.4880354e-38 6.2331516e-38 6.1566166e-38 6.4895046e-38 6.8953335e-38 5.9311555e-38 5.8142356e-38
6.4866347e-38 6.312723e-38 5.9095413e-38 6.9676623e-38 6.9320077e-38 6.957191e-38 5.95675e-38 6.2406233e-38
5.71487e-38 6.939616e-38 6.9234166e-38 6.1095156e-38 6.340304e-38 5.843226e-38 6.4658064e-38 6.111473e-38
6.2851734e-38 5.7222056e-38 5.908823e-38 -6.0726407e-38 -6.272361e-38 -6.869994e-38 -5.6597145e-38 -6.8973867e-38
-6.618003e-38 -6.343546e-38 -6.087072e-38 -6.2365993e-38 -6.580056e-38 -6.9009723e-38 -6.370653e-38 -6.0746703e-38
-5.943308e-38 -6.9821876e-38 -6.1236905e-38 -6.201422e-38 -6.1709883e-38 -6.490829e-38 -6.3236626e-38 -5.7455546e-38
-5.739284e-38 -6.5220035e-38 -6.953629e-38 -6.0323164e-38 -6.521983e-38 -6.859062e-38 5.6194036e-38 6.047116e-38
6.3993063e-38 6.036867e-38 6.0405616e-38 6.952939e-38 6.643799e-38 6.224943e-38 6.599285e-38 5.749529e-38
6.2249237e-38 6.419885e-38 6.0619247e-38 6.4807207e-38 6.554814e-38 6.815372e-38 5.949983e-38 6.5048387e-38
-6.7059665e-38 -6.7637106e-38 -5.824114e-38 -6.6684083e-38 -5.6956124e-38 -6.2721996e-38 -5.931315e-38 -6.798042e-38
-6.7921077e-38 -5.8393867e-38 -5.6966695e-38 -6.025273e-38 -6.97825e-38 -6.0663365e-38 -6.587591e-38 -5.819952e-38
-6.075382e-38 -6.4568095e-38 -5.694213e-38 -6.209942e-38 -6.04454e-38 -6.085212e-38 -6.0750504e-38 -5.944591e-38
-6.9152566e-38 -5.6611096e-38 -5.693309e-38 -6.703574e-38 -7.003489e-38 -5.657582e-38 -5.70289e-38 -6.877572e-38
-6.3635076e-38 -6.215801e-38 -6.137494e-38 -6.573641e-38 -6.1630435e-38 -6.538179e-38 -5.916021e-38 -5.697291e-38
-6.998944e-38 -5.8460687e-38 6.3087707e-38 -5.8114706e-38 -6.3364065e-38 6.297136e-38 5.794199e-38 6.785298e-38
6.3227853e-38 5.683028e-38 6.4480015e-38 5.7696945e-38 6.2205814e-38 6.327535e-38 -5.9806684e-38 -5.888412e-38
-7.004561e-38 -6.282042e-38 -5.9558363e-38 -6.649589e-38 -6.0762734e-38 -5.6802794e-38 -6.8726173e-38 6.9920595e-38
-6.7143496e-38 -5.705351e-38 6.60669e-38 -6.510568e-38 -6.7949237e-38 5.9208733e-38 -5.943949e-38 6.82737e-38
6.611938e-38 5.7466353e-38 6.3025495e-38 6.5538864e-38 6.1515943e-38 6.025536e-38 5.722253e-38 6.405485e-38
6.707385e-38 -6.9933375e-38 -6.9460526e-38 -5.716755e-38 -5.9891827e-38 -6.247082e-38 -6.054468e-38 -5.829874e-38
-6.606398e-38 -6.6875943e-38 6.9185754e-38 -6.31059e-38 5.755566e-38 -6.992308e-38 -6.014346e-38 5.6595626e-38
5.970676e-38 -5.852189e-38 6.2858096e-38 -6.232985e-38 -6.5260173e-38 -5.904765e-38 -6.5800094e-38 -6.037198e-38
-5.8181733e-38 -6.1126926e-38 -6.766509e-38 -6.281906e-38 -5.994527e-38 -5.6919824e-38 -6.114292e-38 -6.458545e-38
-6.254337e-38 -6.2331325e-38 -7.0028736e-38 -6.3353477e-38 -6.2122335e-38 6.406739e-38 5.8551995e-38 6.2007816e-38
5.6109986e-38 6.791274e-38 6.804369e-38 6.192595e-38 5.9754746e-38 6.0431815e-38 -6.9268655e-38 -6.901395e-38
-6.930938e-38 -6.97715e-38 -6.3801993e-38 -6.537671e-38 5.849294e-38 -5.990762e-38 -6.10428e-38 -6.797297e-38
-6.198223e-38 -6.3750235e-38 -5.650381e-38 -6.69094e-38 -5.716124e-38 -6.011441e-38 -6.1800984e-38 -5.941554e-38
-5.9312547e-38 -5.734074e-38 5.716277e-38 -5.8681385e-38 -5.950288e-38 5.875334e-38 5.8191817e-38 5.9175326e-38
6.2084764e-38 6.7611754e-38 6.6226145e-38 6.2935436e-38 6.321847e-38 6.663026e-38 6.150665e-38 6.202946e-38
-6.518866e-38 -6.2679705e-38 -6.9020356e-38 -5.6458097e-38 -5.91392e-38 -6.557542e-38 -6.819538e-38 -6.7814124e-38
-5.945719e-38 -6.477402e-38 -5.8885807e-38 -5.7548856e-38 -6.9282376e-38 -6.063388e-38 -6.81077e-38 -6.177054e-38
-6.9301e-38 -6.761113e-38 -6.4945845e-38 -6.305389e-38 -6.969697e-38 -6.23924e-38 -6.3587006e-38 -6.6959483e-38
00000000: 317a b601 029f b001 baae a901 5b99 a701
00000010: 3fa9 b001 76b5 bb01 1f76 a101 4f47 9e01
00000020: 3f95 b001 42d9 ab01 7edf a001 85ad bd01
00000030: 0bb5 bc01 8c64 bd01 7d28 a201 cce2 a901
00000040: d592 9b01 11ea bc01 2c79 bc01 1c51 a601
00000050: 7899 ac01 5811 9f01 1804 b001 c05e a601
00000060: 4419 ab01 f4c5 9b01 7cda a001 2150 a581
00000070: fabf aa81 df04 bb81 7412 9a81 c5c3 bb81
00000080: c028 b481 10b0 ac81 b3b4 a581 c1c6 a981
00000090: 4c20 b381 c2dc bb81 f96c ad81 465e a581
000000a0: d0ca a181 bf12 be81 e5b3 a681 9bd1 a881
000000b0: 83fd a781 7ab2 b081 7f25 ac81 ac68 9c81
000000c0: f93c 9c81 bb8b b181 b94b bd81 1c37 a481
000000d0: 968b b181 b0b8 ba81 87f9 9801 3f9e a401
000000e0: a834 ae01 d356 a401 9270 a401 ea46 bd01
000000f0: 85dc b401 8575 a901 4ea6 b301 5e84 9c01
00000100: 6375 a901 12c4 ae01 7305 a501 086c b001
00000110: 6370 b201 3688 b901 54f9 a101 1c14 b101
00000120: c48d b681 2f20 b881 278c 9e81 0688 b581
00000130: a00c 9b81 dabe aa81 3c77 a181 700f b981
00000140: 15e6 b881 96f6 9e81 fe13 9b81 0606 a481
00000150: 4ef7 bd81 3224 a581 cf54 b381 256f 9e81
00000160: 3c63 a581 65c5 af81 df02 9b81 fb0c a981
00000170: 4c8c a481 bda7 a581 ec60 a581 c1d3 a181
00000180: 4e40 bc81 2d1c 9a81 93fc 9a81 187d b681
00000190: 32a7 be81 9803 9a81 583f 9b81 ae39 bb81
000001a0: 2d3b ad81 d035 a981 1714 a781 97f3 b281
000001b0: 25c6 a781 75fc b181 a60c a181 5318 9b81
000001c0: 8587 be81 2725 9f81 b7bd ab01 0a34 9e81
000001d0: 4f7e ac81 a26c ab01 acbb 9d01 a0b6 b801
000001e0: 621f ac01 edb4 9a01 0388 af01 e710 9d01
000001f0: 2057 a901 7c40 ac01 2dcf a281 3e4c a081
00000200: aaae be81 7103 ab81 1f22 a281 df04 b581
00000210: 7269 a581 c5a1 9a81 2717 bb81 8b57 be01
00000220: 30c8 b681 7e50 9b81 e9d9 b301 093c b181
00000230: b5f9 b881 772e a101 47cf a181 d3db b901
00000240: 7cfe b301 3470 9c01 5c92 ab01 ec69 b201
00000250: 5b76 a701 db07 a401 48c6 9b01 b75f ae01
00000260: a797 b601 7360 be81 ec16 bd81 f89f 9b81
00000270: 830a a381 cf0f aa81 7cd1 a481 4bb4 9e81
00000280: e0d7 b381 bb0d b681 6f57 bc01 65ca ab81
00000290: 71ae 9c01 4659 be81 e0b9 a381 6511 9a01
000002a0: 8a89 a201 ce4f 9f81 b31d ab01 91ad a981
000002b0: b4a7 b181 35be a081 f91f b381 2159 a481
000002c0: c062 9e81 4067 a681 af33 b881 7f02 ab81
000002d0: c22f a381 54f3 9a81 6572 a681 7dd1 af81
000002e0: 5e42 aa81 98ae a981 e8a2 be81 ee76 ac81
000002f0: f31c a981 7468 ae01 c964 9f01 24cd a801
00000300: f4be 9801 46e0 b801 883b b901 1794 a801
00000310: fbaa a201 d482 a401 3591 bc81 b4df bb81
00000320: 97ad bc81 a4ef bd81 80af ad81 ebf8 b181
00000330: a13b 9f01 8515 a381 9f2c a681 3f0a b981
00000340: 4fbb a881 6e8b ad81 69d1 9981 0c25 b681
00000350: 929b 9b81 a1a5 a381 003d a881 97be a181
00000360: d076 a181 aa18 9c81 a39c 9b01 f5be 9f81
00000370: 75fb a181 1af1 9f01 c769 9e01 2f17 a101
00000380: c402 a901 840e b801 e348 b401 9953 ab01
00000390: d818 ac01 8462 b501 e16f a701 39dc a801
000003a0: de75 b181 61a1 aa81 2be4 bb81 8db1 9981
000003b0: 02fe a081 6683 b281 3ea5 b981 8c9b b881
000003c0: 9ddb a181 e754 b081 6b4d a081 b3a9 9c81
000003d0: c59a bc81 a60f a581 2468 b981 c927 a881
000003e0: c0a7 bc81 150e b881 a6cc b081 26a6 ab81
000003f0: b3bb bd81 28d9 a981 ad19 ad81 f347 b681
