unet/unet-segment-master/np_weights/up4.conv.double_conv.0.weight.npy (npy, 295040 bytes, 1 tensors)

array f4 [64, 128, 3, 3]
00000000: 72b9 a381 419e a681 6638 b881 f5a5 a981
00000010: 6b4b b381 52a5 bb81 0e59 ae81 4356 9981
00000020: 6437 b681 3ac8 a001 c860 bc01 aa5b 9d01
00000030: c258 9d01 5244 ac01 9c68 a001 4cbc b101
00000040: f951 b601 7c59 a501 a636 b901 7c59 b801
00000050: a275 b001 d79b a301 9588 a601 15fe ac01
00000060: 3e09 a801 1726 a401 57e9 a601 a034 a201
00000070: 27c2 a101 b072 b001 ace1 b301 fd15 b501
00000080: d777 a201 2cd1 9b01 813f ba01 f681 a901
00000090: 1e79 b901 5a7f b301 cc06 a301 84a4 b301
000000a0: bd7a b401 7818 9a01 2499 b001 7796 a801
000000b0: 23ed a101 86ba a401 5659 af01 e837 a101
000000c0: 07f0 a201 bc2d bd01 1fd0 a501 2db3 aa01
000000d0: 099f a101 3697 9901 4abf a881 11af bc01
000000e0: b26c a481 7bd4 a281 7fb5 b501 cef6 a101
000000f0: ae04 b401 f4f9 a801 cd7d 9e01 02c2 a801
00000100: 2207 a301 3396 b101 1750 a201 34ad a001
00000110: 0a3e 9c01 4424 9c01 19ed b601 2dc5 b701
00000120: 4312 b301 30d5 b001 9000 9e01 3baa 9b01
00000130: 3448 9f01 ce6e a201 0929 b201 4bc5 9a01
00000140: 6c00 b101 e196 bb01 c237 ac01 66f8 9d01
00000150: ecb1 b401 eec0 b481 f000 ab01 4e96 b901
00000160: ad0a 9f81 ea95 a801 0a74 bc01 3b98 af01
00000170: 90e5 af01 4762 bb01 74e8 a501 854f ab01
00000180: 3485 a501 aeaf aa01 f839 a901 4108 9901
00000190: e94e b701 a3c0 a401 24e1 b601 0ae9 9c01
000001a0: 4925 9f01 42fb b401 2c1a a101 1aec 9901
000001b0: 169e 9c01 968e b701 e2a4 b101 d9f2 9c01
000001c0: 5750 b301 639d ad01 c742 a601 c9a9 b501
000001d0: 69b1 ab01 afb7 aa81 b6d6 a481 9151 ad81
000001e0: 61c0 b281 26c8 a981 c2eb ae81 483e aa81
000001f0: 98c0 a381 21a3 b881 9ca8 b401 41f4 b001
00000200: 70be af01 089c a601 6a4a 9b01 db77 b701
00000210: fd28 af01 ac47 a801 c2dd 9c01 e17e bc01
00000220: 6f78 a201 3595 be01 8e5c 9b01 4787 9f01
00000230: 009a be01 d3a3 aa01 2859 aa01 52eb 9e01
00000240: 9de8 aa01 638a 9e01 955f af01 4801 bc01
00000250: 423d a901 6d6a ac01 e4e5 b001 a2d8 bb01
00000260: 4fb0 a301 1ea3 a181 4c86 9d01 346b ae01
00000270: 1087 a181 8fb8 b401 c985 a301 6ab6 b381
00000280: d9d3 9801 c832 a401 41fe b681 5ba7 a581
00000290: e39b a901 8b96 a181 593e a881 2ed6 a481
000002a0: 4c7b ae81 4e3e 9d81 cedc a781 8f69 a801
000002b0: f4b0 a101 ac5e be01 9631 b801 4878 b901
000002c0: 9fc5 bd01 4f37 ad81 72d7 ad81 c978 bb01
000002d0: 456c b681 b5da af81 6d2c a681 a668 b981
000002e0: d54e a781 dc72 9901 015e b081 e78e b681
000002f0: 347f b581 86e4 ab01 a0c7 aa01 f171 9b01
00000300: 63e3 a401 0758 af01 fe47 9a01 f07b a301
00000310: 8ced aa01 1b21 bd01 e51e 9c81 805e a481
00000320: f6fb bc81 e3e9 a281 b7f4 bb81 1953 b181
00000330: 27dc a681 6a3a a181 d267 9e81 263c ba81
00000340: a2f4 ab81 5dfc b181 b817 b881 560d a281
00000350: a31c 9d81 3f24 a981 b6e0 a881 4be7 a581
00000360: 3fec 9901 6b7e bb01 9b85 ac01 6b7b a501
00000370: 92b7 ab01 f405 af01 5052 bc01 2694 9a01
00000380: a301 b601 0997 af01 05cd a501 0b17 9a01
00000390: 55bb be01 26a0 b401 186d ba01 4ec3 a201
000003a0: 35c2 9c01 8748 aa01 e392 a101 5434 b101
000003b0: 71a5 b001 5227 b701 57f0 bd01 7ef6 b001
000003c0: 6754 ac01 68f5 ac01 0a75 b101 5810 b701
000003d0: 0f05 aa01 c9cf a101 7364 b701 a9a6 a501
000003e0: ab16 a301 9a05 9f01 dbe0 bb01 9b7a b401
000003f0: 624e ae01 b93f a501 66d1 9b01 e975 b101
-6.0142844e-38 -6.120585e-38 -6.7671853e-38 -6.231893e-38 -6.5862435e-38 -6.8930174e-38 -6.404529e-38 -5.6327103e-38
-6.6935723e-38 5.906203e-38 6.919917e-38 5.7804223e-38 5.780005e-38 6.3280856e-38 5.8924825e-38 6.5289724e-38
6.6973866e-38 6.073983e-38 6.8036684e-38 6.771933e-38 6.4820984e-38 6.010036e-38 6.1174755e-38 6.354741e-38
6.1726715e-38 6.029874e-38 6.1313596e-38 5.9584915e-38 5.9420654e-38 6.481676e-38 6.607804e-38 6.652045e-38
5.9681363e-38 5.7238155e-38 6.841673e-38 6.226728e-38 6.813206e-38 6.5936956e-38 5.9886497e-38 6.5990284e-38
6.629768e-38 5.6605777e-38 6.4871935e-38 6.192936e-38 5.9482334e-38 6.0511733e-38 6.441304e-38 5.922228e-38
5.9853824e-38 6.949326e-38 6.0910067e-38 6.270524e-38 5.9370264e-38 5.64203e-38 -6.198794e-38 6.93115e-38
-6.0400056e-38 -5.9814296e-38 6.6749333e-38 5.9496207e-38 6.612827e-38 6.207212e-38 5.822055e-38 6.199184e-38
5.988698e-38 6.5235057e-38 5.9624325e-38 5.902325e-38 5.739437e-38 5.735739e-38 6.719646e-38 6.7506517e-38
6.578042e-38 6.49581e-38 5.804084e-38 5.7182276e-38 5.851098e-38 5.96684e-38 6.5445756e-38 5.6853767e-38
6.5020137e-38 6.890945e-38 6.326283e-38 5.8029126e-38 6.637686e-38 -6.63984e-38 6.2816825e-38 6.8173944e-38
-5.8422695e-38 6.192857e-38 6.92268e-38 6.450329e-38 6.4614253e-38 6.883397e-38 6.094498e-38 6.2929584e-38
6.0802565e-38 6.2700225e-38 6.2163976e-38 5.621517e-38 6.7336814e-38 6.0520506e-38 6.71793e-38 5.7639744e-38
5.8460877e-38 6.6482095e-38 5.9179614e-38 5.654211e-38 5.753219e-38 6.7428184e-38 6.5256127e-38 5.765382e-38
6.58695e-38 6.3776e-38 6.107459e-38 6.673253e-38 6.307005e-38 -6.271171e-38 -6.055218e-38 -6.3667205e-38
-6.5662923e-38 -6.2367994e-38 -6.42558e-38 -6.2537507e-38 -6.01531e-38 -6.7825004e-38 6.63635e-38 6.5002676e-38
6.455811e-38 6.1202663e-38 5.7044787e-38 6.739557e-38 6.434366e-38 6.18163e-38 5.7623556e-38 6.9242355e-38
5.9682215e-38 7.000908e-38 5.7070817e-38 5.860149e-38 7.0015956e-38 6.2683214e-38 6.257607e-38 5.83777e-38
6.278192e-38 5.823861e-38 6.4422e-38 6.906213e-38 6.2168696e-38 6.3335535e-38 6.4982066e-38 6.9003804e-38
6.0129734e-38 -5.937612e-38 5.78654e-38 6.4071334e-38 -5.9335865e-38 6.6386386e-38 6.0068716e-38 -6.6015967e-38
5.613997e-38 6.0316953e-38 -6.722108e-38 -6.085157e-38 6.230448e-38 -5.935808e-38 -6.180292e-38 -6.055142e-38
-6.409443e-38 -5.7762094e-38 -6.166295e-38 6.186492e-38 5.9395975e-38 6.9930825e-38 6.766208e-38 6.813086e-38
6.971121e-38 -6.362953e-38 -6.385931e-38 6.886627e-38 -6.70116e-38 -6.4598677e-38 -6.104252e-38 -6.810843e-38
-6.145923e-38 5.636814e-38 -6.478708e-38 -6.7061296e-38 -6.6671427e-38 6.3143394e-38 6.2734585e-38 5.7101506e-38
6.057037e-38 6.441116e-38 5.667397e-38 6.0054585e-38 6.2789e-38 6.947514e-38 -5.734968e-38 -6.0379686e-38
-6.942184e-38 -5.984501e-38 -6.90441e-38 -6.513877e-38 -6.129467e-38 -5.922588e-38 -5.818901e-38 -6.841192e-38
-6.316651e-38 -6.5381655e-38 -6.762496e-38 -5.952854e-38 -5.7713783e-38 -6.2132806e-38 -6.20359e-38 -6.0943317e-38
5.654232e-38 6.887435e-38 6.3374536e-38 6.0788524e-38 6.307889e-38 6.429339e-38 6.9178406e-38 5.678325e-38
6.685859e-38 6.450157e-38 6.0905616e-38 5.660373e-38 7.0063785e-38 6.635136e-38 6.848215e-38 5.978965e-38
5.7584023e-38 6.255221e-38 5.935283e-38 6.509462e-38 6.4889586e-38 6.7280005e-38 6.9772506e-38 6.500589e-38
6.330393e-38 6.353496e-38 6.5187474e-38 6.7247035e-38 6.2455396e-38 5.9440217e-38 6.736772e-38 6.0850573e-38
5.990927e-38 5.8415413e-38 6.9015603e-38 6.629749e-38 6.402998e-38 6.0702865e-38 5.723848e-38 6.5188724e-38
