unet/unet-segment-master/np_weights/up4.conv.double_conv.3.weight.npy (npy, 147584 bytes, 1 tensors)

array f4 [64, 64, 3, 3]
0	0x01bd1688	6.9459966e-38
1	0x01aedce4	6.423447e-38
2	0x01bc54b8	6.918186e-38
3	0x01a939dd	6.2163825e-38
4	0x01b84920	6.7695854e-38
5	0x01a54672	6.071251e-38
6	0x01a122dd	5.9192086e-38
7	0x01bca2da	6.9293974e-38
8	0x01bd82b2	6.9615174e-38
9	0x81a3b569	-6.0137054e-38
10	0x01a7e041	6.16679e-38
11	0x81a99b41	-6.2303574e-38
12	0x81acaa3f	-6.342711e-38
13	0x01adb71a	6.38129e-38
14	0x01bcd76c	6.936941e-38
15	0x019aeb93	5.69087e-38
16	0x01be542e	6.991577e-38
17	0x01b37cc2	6.5933234e-38
18	0x81b06a0d	-6.4804365e-38
19	0x81ab8bb4	-6.3015944e-38
20	0x81a96849	-6.223044e-38
21	0x81bbf496	-6.9043915e-38
22	0x819cf635	-5.765864e-38
23	0x01b684ec	6.7046975e-38
24	0x81aa60dd	-6.258713e-38
25	0x81b29e79	-6.561427e-38
26	0x01ab554e	6.2937886e-38
27	0x01a14574	5.924172e-38
28	0x01a8f389	6.206291e-38
29	0x01b2e266	6.571174e-38
30	0x01ad21b1	6.359851e-38
31	0x019f3261	5.8479666e-38
32	0x01b2bc4a	6.5657055e-38
33	0x01a5a10d	6.0842524e-38
34	0x01a7a0a4	6.157662e-38
35	0x01ad1b36	6.358921e-38
36	0x01b4775e	6.629284e-38
37	0x01bd8c1d	6.962869e-38
38	0x819b640d	-5.7081573e-38
39	0x01a71cff	6.138772e-38
40	0x01abc0f9	6.309238e-38
41	0x819af25e	-5.6918445e-38
42	0x01b0ed8d	6.499306e-38
43	0x81a934ee	-6.2156746e-38
44	0x81b45065	-6.623692e-38
45	0x01ab44ab	6.2914013e-38
46	0x019d1e3f	5.771609e-38
47	0x019e5075	5.8155484e-38
48	0x01bd5212	6.95454e-38
49	0x019ba95d	5.718103e-38
50	0x01a41055	6.026752e-38
51	0x019f8ab6	5.8606416e-38
52	0x01a580a4	6.079602e-38
53	0x01be1c4d	6.9835587e-38
54	0x81b32c73	-6.5817997e-38
55	0x81b3c54e	-6.6037334e-38
56	0x81ac0760	-6.3193404e-38
57	0x81ba721a	-6.8489337e-38
58	0x819ae3fa	-5.6897796e-38
59	0x81a64117	-6.107217e-38
60	0x81ad6864	-6.3699957e-38
61	0x81a9d10c	-6.2380763e-38
62	0x81acc34d	-6.3463064e-38
63	0x019f7eac	5.858914e-38
64	0x01b6879c	6.705083e-38
65	0x019d1bc1	5.7712516e-38
66	0x01b71f8c	6.726885e-38
67	0x01a72fce	6.141471e-38
68	0x01ba0558	6.8333277e-38
69	0x01aed5e8	6.4224446e-38
70	0x01a73ba8	6.1431714e-38
71	0x01a7dc91	6.166261e-38
72	0x81a6789c	-6.1151835e-38
73	0x81a82b47	-6.1775553e-38
74	0x81b06161	-6.479192e-38
75	0x81b55e32	-6.6624063e-38
76	0x81afca34	-6.4574995e-38
77	0x81ad99c5	-6.377081e-38
78	0x81a0e466	-5.9102453e-38
79	0x81a8ccf9	-6.2007575e-38
80	0x81b16951	-6.5170653e-38
81	0x8198bb3e	-5.610466e-38
82	0x81a07a4f	-5.895022e-38
83	0x81b3d00b	-6.605274e-38
84	0x81a9fc2b	-6.244264e-38
85	0x81a925b3	-6.213489e-38
86	0x81ad552e	-6.367239e-38
87	0x81a2867b	-5.970237e-38
88	0x81998bcb	-5.6403917e-38
89	0x819a8ce6	-5.6772845e-38
90	0x819a86f2	-5.67643e-38
91	0x81ad032d	-6.355472e-38
92	0x81a0ec68	-5.9113944e-38
93	0x81aa0918	-6.2461186e-38
94	0x81b64846	-6.695995e-38
95	0x81ab0c23	-6.2832895e-38
96	0x81bc3ac4	-6.914462e-38
97	0x81a0a009	-5.9004357e-38
98	0x81a85997	-6.184201e-38
99	0x01a249ac	5.9615115e-38
100	0x01b09857	6.4870786e-38
101	0x01ad21ba	6.359856e-38
102	0x01ac5e6f	6.3318327e-38
103	0x01b5ff1a	6.685495e-38
104	0x019b23b4	5.698924e-38
105	0x01bb6d49	6.884977e-38
106	0x01a68b14	6.1178337e-38
107	0x01b2c3d9	6.56679e-38
108	0x01a992b2	6.2291293e-38
109	0x01b5a887	6.6730724e-38
110	0x01af94f4	6.4498585e-38
111	0x01a69dc9	6.120518e-38
112	0x0199101a	5.622643e-38
113	0x01b60097	6.685709e-38
114	0x01b7bf7b	6.7498344e-38
115	0x01ad7a1c	6.372538e-38
116	0x01a70bfa	6.1363297e-38
117	0x81ba4e12	-6.8437635e-38
118	0x81b133a0	-6.509361e-38
119	0x819f8090	-5.8591854e-38
120	0x81a4da07	-6.055694e-38
121	0x8198c946	-5.6124795e-38
122	0x81bc9472	-6.92733e-38
123	0x81ae62f8	-6.405952e-38
124	0x81a96af9	-6.2234294e-38
125	0x81b5ccc0	-6.67827e-38
126	0x019e4a88	5.814698e-38
127	0x01a4d8b0	6.0555017e-38
128	0x01b6f610	6.7209324e-38
129	0x01be0a68	6.980991e-38
130	0x019ac28c	5.6849827e-38
131	0x01b193dc	6.52317e-38
132	0x01a3f0a5	6.022205e-38
133	0x019fcf09	5.8704456e-38
134	0x01aac3bd	6.272901e-38
135	0x81a01a86	-5.8812777e-38
136	0x81b6b6e1	-6.711866e-38
137	0x81a230d6	-5.957948e-38
138	0x81afc349	-6.456507e-38
139	0x81ab756d	-6.2983977e-38
140	0x81a57130	-6.0773844e-38
141	0x81adf3c4	-6.389995e-38
142	0x81a743e2	-6.144352e-38
143	0x81a12784	-5.919876e-38
144	0x81ae9d84	-6.414353e-38
145	0x81b61fd1	-6.6901896e-38
146	0x81adecf9	-6.38902e-38
147	0x81b842c1	-6.768671e-38
148	0x81a42370	-6.0294936e-38
149	0x81b25c78	-6.551956e-38
150	0x81b03173	-6.4723145e-38
151	0x81ae8b07	-6.4117e-38
152	0x819f8364	-5.859591e-38
153	0x81b02082	-6.4698836e-38
154	0x01ba1ba0	6.836525e-38
155	0x01b7955e	6.7437915e-38
156	0x8199f082	-5.6548435e-38
157	0x01a59a88	6.083317e-38
158	0x01ae3a78	6.4001404e-38
159	0x819d5b03	-5.7803287e-38
160	0x01bc0661	6.9069446e-38
161	0x019ce0c9	5.76279e-38
162	0x81a40a9e	-6.025932e-38
163	0x81b2bb92	-6.5656023e-38
164	0x81a1f7e6	-5.9497776e-38
165	0x81a8db49	-6.202811e-38
166	0x81ad53d8	-6.3670473e-38
167	0x81b8e977	-6.792593e-38
168	0x81b10e6e	-6.5040237e-38
169	0x819b79b6	-5.7112654e-38
170	0x81b3ad89	-6.6003226e-38
171	0x81b56759	-6.6637196e-38
172	0x01b2c9c5	6.56764e-38
173	0x81aa4f68	-6.256208e-38
174	0x81a10e0b	-5.916221e-38
175	0x019f20da	5.8454515e-38
176	0x81b6c344	-6.7136434e-38
177	0x81b13fd3	-6.5111115e-38
178	0x81ac78ab	-6.335597e-38
179	0x81b43b5c	-6.6206734e-38
180	0x819915d3	-5.623464e-38
181	0x81b490c5	-6.632929e-38
182	0x81b6468c	-6.695747e-38
183	0x81b55a52	-6.66185e-38
184	0x81a860a3	-6.185212e-38
185	0x81be7d40	-6.99747e-38
186	0x81b6d76e	-6.716537e-38
187	0x819f5c00	-5.853939e-38
188	0x819a2673	-5.662584e-38
189	0x019fafed	5.8659817e-38
190	0x019d1dd1	5.7715476e-38
191	0x01ab3082	6.2885085e-38
192	0x019b8e37	5.7142076e-38
193	0x01b1e3a7	6.5346196e-38
194	0x01a362ed	6.0018695e-38
195	0x01b69d20	6.7081705e-38
196	0x019dbfdf	5.7948013e-38
197	0x01a564a9	6.075587e-38
198	0x019b8a9d	5.713691e-38
199	0x01bdff42	6.979391e-38
200	0x01a28424	5.9699014e-38
201	0x01a60677	6.0988046e-38
202	0x01b5b925	6.675457e-38
203	0x019b57f1	5.70642e-38
204	0x01b4e51d	6.645032e-38
205	0x01b52805	6.6546324e-38
206	0x01b00f90	6.467452e-38
207	0x01b1c956	6.5308434e-38
208	0x01bb9d08	6.891828e-38
209	0x01afe490	6.461282e-38
210	0x019a2d1d	5.66354e-38
211	0x019ecc1d	5.833292e-38
212	0x01b3ccae	6.6047916e-38
213	0x01baca16	6.861559e-38
214	0x01a8bfe5	6.198881e-38
215	0x01a1849c	5.9332345e-38
216	0x01a45569	6.0366643e-38
217	0x01990e3c	5.622375e-38
218	0x01a59e04	6.083817e-38
219	0x01a7ba9a	6.161387e-38
220	0x01ad4df2	6.366201e-38
221	0x01a91625	6.211257e-38
222	0x01b29435	6.559954e-38
223	0x01b2ba60	6.565431e-38
224	0x019c7a12	5.748051e-38
225	0x81bcc647	-6.9344807e-38
226	0x81ab84e6	-6.300618e-38
227	0x81b5971a	-6.670572e-38
228	0x81a4f183	-6.059064e-38
229	0x819bed3d	-5.727843e-38
230	0x81bbba83	-6.896058e-38
231	0x81b2e7dc	-6.5719575e-38
232	0x81b4b864	-6.6386145e-38
233	0x819fc301	-5.868719e-38
234	0x019fdc8c	5.8723845e-38
235	0x01b4a5fe	6.6359744e-38
236	0x01baaca2	6.8573325e-38
237	0x01ac43b7	6.327999e-38
238	0x019a5703	5.669552e-38
239	0x01bc7641	6.922998e-38
240	0x01af9164	6.449347e-38
241	0x01b875db	6.776004e-38
242	0x01a21164	5.9534356e-38
243	0x019db8e0	5.7937974e-38
244	0x01ac2bf4	6.324589e-38
245	0x01b5fa72	6.684827e-38
246	0x01b48b07	6.632105e-38
247	0x01a1b36b	5.939951e-38
248	0x01b4b400	6.6379845e-38
249	0x01a0c39e	5.9055414e-38
250	0x01b2a0d9	6.561768e-38
251	0x01ab9129	6.3023774e-38
252	0x81b015d3	-6.4683506e-38
253	0x81a04fdc	-5.888931e-38
254	0x81bb26ba	-6.874852e-38
255	0x81996ead	-5.6362136e-38
